model/ckpt_ep-1000_encoder.pt (torch, 467207 bytes, 18 tensors)

lstm.weight_ih_l0 f4 [384, 1]
0	0x3e9f3cc2	0.31101042
1	0xc0190675	-2.391019
2	0xba66ad76	-0.00087996514
3	0xba66ba12	-0.00088015303
4	0xbaa65114	-0.0012688958
5	0xba66ba11	-0.000880153
6	0xba66ba01	-0.00088015205
7	0x3e26713e	0.16254136
8	0xba66ba00	-0.000880152
9	0xba66b9fb	-0.0008801517
10	0xba8b5857	-0.0010631186
11	0xba985ba5	-0.0011623992
12	0x3e9c58ce	0.30536503
13	0xba66b9dd	-0.00088014995
14	0xbc0deb07	-0.008661992
15	0xba628f34	-0.0008642555
16	0xbacc4a1a	-0.0015586049
17	0xba66ba14	-0.00088015315
18	0x3d4e5dcd	0.050382424
19	0xba32944f	-0.0006812261
20	0x3f8d13fa	1.1021721
21	0xba60c589	-0.0008574357
22	0xba66ba0d	-0.00088015274
23	0x3ee36813	0.4441534
24	0x3e99b459	0.30020407
25	0xba66ba09	-0.0008801525
26	0xba4d9405	-0.0007842186
27	0xba70837c	-0.0009174866
28	0xbf45c9be	-0.7726096
29	0xba74cbf2	-0.00093382515
30	0xba66b9ee	-0.00088015094
31	0xba80ac51	-0.0009816979
32	0xba6a3fe7	-0.0008935914
33	0xba66b9f5	-0.00088015135
34	0xba66ba0d	-0.00088015274
35	0xba66b9f6	-0.0008801514
36	0xba776805	-0.00094378024
37	0xba66ba13	-0.0008801531
38	0xbd854239	-0.065067716
39	0xba69c1f4	-0.0008917146
40	0xbe399e71	-0.18126847
41	0xba66ba31	-0.00088015484
42	0xba66b9ff	-0.0008801519
43	0x3dd21d10	0.102594495
44	0xba391958	-0.00070609665
45	0xba66ba04	-0.0008801522
46	0xba66ba07	-0.0008801524
47	0xba862baf	-0.0010236407
48	0xba66b9e3	-0.0008801503
49	0xbf764837	-0.9620394
50	0xbad45006	-0.0016198165
51	0xba66b9f6	-0.0008801514
52	0xba7ea4e7	-0.00097139034
53	0xba6f357d	-0.0009125097
54	0xba66ba04	-0.0008801522
55	0xbde95f18	-0.11395091
56	0xba66ba19	-0.00088015344
57	0xba44b129	-0.00075032056
58	0xbe8e3bee	-0.27780098
59	0xba66ba04	-0.0008801522
60	0x3f7091c3	0.93972415
61	0xba66ba0a	-0.00088015257
62	0xbe533c67	-0.2062851
63	0xb9febf3b	-0.00048589133
64	0xba752df3	-0.0009352855
65	0xba45d6f6	-0.0007546985
66	0xba66ba06	-0.00088015234
67	0xba66ba10	-0.0008801529
68	0xba66ba17	-0.0008801533
69	0xba66ba01	-0.00088015205
70	0xba66ba22	-0.00088015397
71	0xba66b9ef	-0.000880151
72	0xba66ba09	-0.0008801525
73	0xba66b9fa	-0.00088015164
74	0xba567c7d	-0.00081820023
75	0xba67098f	-0.0008813375
76	0xbdf88ff9	-0.121368356
77	0xba819c20	-0.0009888448
78	0xba66ba0e	-0.0008801528
79	0xba66ba09	-0.0008801525
80	0xba66b9ff	-0.0008801519
81	0xba66ba05	-0.0008801523
82	0xba727901	-0.00092495984
83	0xba66ba05	-0.0008801523
84	0xba66b9f3	-0.00088015123
85	0xba66ba06	-0.00088015234
86	0xba681369	-0.000885299
87	0xba66ba03	-0.00088015216
88	0xba0d2956	-0.00053848827
89	0xba73fb43	-0.0009307155
90	0xba122c84	-0.00055760914
91	0xbfbeb4ab	-1.4898885
92	0xba66ba10	-0.0008801529
93	0xba66ba12	-0.00088015303
94	0xba828984	-0.0009959196
95	0xba66b9ef	-0.000880151
96	0xbf82de1d	-1.0224034
97	0x3e1d957d	0.15389057
98	0xb9a49961	-0.00031394794
99	0xb9a84c40	-0.00032100268
100	0xb9f01843	-0.00045794444
101	0xb9a84c2b	-0.00032100207
102	0xb9a84c34	-0.00032100233
103	0x3f6567ad	0.8961132
104	0xb9a84c29	-0.000321002
105	0xb9a84c46	-0.00032100285
106	0xb9e08a69	-0.00042827733
107	0xb9b3271c	-0.0003417068
108	0x3cd9f161	0.026604356
109	0xb9a84c25	-0.0003210019
110	0xbe038fec	-0.1284787
111	0xb9ac5cc6	-0.00032875518
112	0xba308379	-0.0006733458
113	0xb9a84c31	-0.00032100224
114	0x3db6c4ff	0.08924293
115	0xba05d8f3	-0.00051058753
116	0xbee37431	-0.44424585
117	0xb9854226	-0.0002541702
118	0xb9a84c2f	-0.00032100218
119	0x3e3ee6f6	0.18642792
120	0x3e4130a3	0.1886621
121	0xb9a84c3b	-0.00032100253
122	0xb9bfe5ed	-0.00036601667
123	0xb96f9e23	-0.00022851727
124	0x3e60b72e	0.21944878
125	0xb996f45f	-0.000287923
126	0xb9a84c24	-0.00032100186
127	0xb98537b1	-0.0002540923
128	0xb99dacf8	-0.00030074245
129	0xb9a84c2f	-0.00032100218
130	0xb9a84c21	-0.00032100177
131	0xb9a84c1d	-0.00032100166
132	0xb98d7c94	-0.00026986434
133	0xb9a84c2a	-0.00032100204
134	0xbf16b612	-0.5887157
135	0xb99edfbc	-0.00030302803
136	0xbf285f46	-0.65770376
137	0xb9a84c3b	-0.00032100253
138	0xb9a84c30	-0.0003210022
139	0x3eea7476	0.45791978
140	0xb9718033	-0.00023031309
141	0xb9a84c3d	-0.0003210026
142	0xb9a84c19	-0.00032100154
143	0xb92788df	-0.0001597735
144	0xb9a84c36	-0.0003210024
145	0x3f1be46e	0.6089543
146	0xba07ce80	-0.0005180612
147	0xb9a84c38	-0.00032100244
148	0xb98e8020	-0.0002717981
149	0xb99360de	-0.00028110197
150	0xb9a84c1d	-0.00032100166
151	0xbf8b994c	-1.0906157
152	0xb9a84c36	-0.0003210024
153	0xb9a7d02c	-0.00032007822
154	0x3d36a5f4	0.04459186
155	0xb9a84c30	-0.0003210022
156	0xbe748336	-0.23878178
157	0xb9a84c2f	-0.00032100218
158	0xbf0ccf8b	-0.55004185
159	0x39d00ec6	0.0003968386
160	0xb9f23cd3	-0.00046203154
161	0xb9665f75	-0.0002197007
162	0xb9a84c2c	-0.0003210021
163	0xb9a84c3e	-0.00032100262
164	0xb9a84c40	-0.00032100268
165	0xb9a84c31	-0.00032100224
166	0xb9a84c3b	-0.00032100253
167	0xb9a84c0b	-0.00032100113
168	0xb9a84c1a	-0.00032100157
169	0xb9a84c0a	-0.0003210011
170	0xb9b4a189	-0.00034452628
171	0xb9b57a57	-0.0003461416
172	0xbd09e208	-0.033662826
173	0xb92b180d	-0.0001631679
174	0xb9a84c1b	-0.0003210016
175	0xb9a84c33	-0.0003210023
176	0xb9a84c21	-0.00032100177
177	0xb9a84c3e	-0.00032100262
178	0xb99c2aca	-0.0002978652
179	0xb9a84c3a	-0.0003210025
180	0xb9a84c0e	-0.00032100122
181	0xb9a84c39	-0.00032100247
182	0xb9a28aea	-0.00031002547
183	0xb9a84c1a	-0.00032100157
184	0xb9bc7386	-0.00035944226
185	0xb9a38e57	-0.00031195834
186	0xb91937ee	-0.00014612052
187	0x3f046146	0.5171093
188	0xb9a84c45	-0.00032100282
189	0xb9a84c4e	-0.00032100308
190	0xb996796a	-0.0002870069
191	0xb9a84c24	-0.00032100186
192	0xbfaf3450	-1.368784
193	0xbfbf8f15	-1.496554
194	0xb9c2546d	-0.00037065466
195	0xb9c05984	-0.00036687788
196	0xb9879f14	-0.0002586773
197	0xb9c0598d	-0.00036687814
198	0xb9c05999	-0.0003668785
199	0xbcfe4181	-0.031037094
200	0xb9c059d2	-0.00036688015
201	0xb9c059c1	-0.00036687966
202	0xb9629672	-0.00021609085
203	0xba090240	-0.00052264705
204	0x3da678a5	0.0812848
205	0xb9c059ab	-0.00036687902
206	0x3ca13113	0.01967672
207	0xb9cf7119	-0.0003956638
208	0xb9902b87	-0.0002749825
209	0xb9c0599d	-0.0003668786
210	0x3c6613f1	0.01404284
211	0xb994212a	-0.0002825347
212	0xbea088de	-0.3135442
213	0xb9b832a4	-0.00035132945
214	0xb9c059ce	-0.00036688003
215	0x3e1fbb28	0.15598738
216	0x3ec673de	0.38760275
217	0xb9c059a7	-0.0003668789
218	0xb9d1b2b8	-0.00039996742
219	0xb9deb986	-0.00042481365
220	0x3f4341e2	0.76272404
221	0xb9cc58eb	-0.0003897616
222	0xb9c059b0	-0.00036687916
223	0xb9cd17bf	-0.0003911834
224	0xb9be88ff	-0.00036341694
225	0xb9c059b2	-0.00036687922
226	0xb9c059a8	-0.00036687893
227	0xb9c059a7	-0.0003668789
228	0xb9ce779c	-0.00039380498
229	0xb9c0597f	-0.00036687774
230	0xbd52774d	-0.051383305
231	0xb9c2131f	-0.0003701681
232	0x3e81827a	0.25294858
233	0xb9c0598c	-0.0003668781
234	0xb9c059b4	-0.00036687928
235	0xbda5ba4c	-0.08092174
236	0xb9d4b065	-0.00040567215
237	0xb9c05998	-0.00036687846
238	0xb9c059af	-0.00036687913
239	0xb9d8425e	-0.00041248178
240	0xb9c05991	-0.00036687826
241	0x3f468cba	0.7755848
242	0xb9ed6a3b	-0.0004528331
243	0xb9c059b2	-0.00036687922
244	0xb9bb3c0f	-0.00035712167
245	0xb9acdcae	-0.00032970816
246	0xb9c059b0	-0.00036687916
247	0x3e0de743	0.1385775
248	0xb9c0597b	-0.00036687762
249	0xb9d9ae7f	-0.00041519475
250	0x3f047140	0.51735306
251	0xb9c05996	-0.0003668784
252	0x3e357a7b	0.17722504
253	0xb9c05991	-0.00036687826
254	0xbf003233	-0.500766
255	0xba083ba9	-0.00051968783

lstm.weight_hh_l0 f4 [384, 96]
0	0x3eaf1efa	0.3420332
1	0x3ec1e624	0.37870896
2	0x3ae1149e	0.0017172282
3	0x3adb567f	0.0016734152
4	0x3a4424ec	0.00074823084
5	0x3adb569f	0.0016734189
6	0x3adb56a1	0.0016734191
7	0xbd6937ba	-0.05693791
8	0x3adb5668	0.0016734125
9	0x3adb56c2	0.001673423
10	0x3a89cec4	0.0010513891
11	0x39adca70	0.0003314796
12	0x3d67bae0	0.056574702
13	0x3adb5637	0.0016734068
14	0xbfb2c10d	-1.3965164
15	0x3af00615	0.001831236
16	0x3b1a845d	0.002357743
17	0x3adb5654	0.0016734102
18	0xbd7d6c80	-0.06187105
19	0x3b314b0b	0.0027052786
20	0xbeadfee4	-0.3398353
21	0x3aec24fb	0.0018016392
22	0x3adb5673	0.0016734138
23	0xbdebeb5e	-0.11519502
24	0xbdbf2d7a	-0.09334846
25	0x3adb5628	0.0016734051
26	0x3b4cbc9c	0.003124035
27	0x3b087d79	0.002082674
28	0xbf4acbbe	-0.79217136
29	0x3ae065a7	0.0017120139
30	0x3adb5700	0.0016734302
31	0x3b03ee29	0.0020130968
32	0x3ac1fc10	0.0014799852
33	0x3adb5687	0.0016734161
34	0x3adb5678	0.0016734144
35	0x3adb56d8	0.0016734255
36	0x3b12b154	0.0022383528
37	0x3adb56d1	0.0016734247
38	0x3e4bee89	0.19915213
39	0x3ae95175	0.0017800765
40	0x3efd4811	0.49469045
41	0x3adb56bd	0.0016734224
42	0x3adb5638	0.0016734069
43	0xbd8a0789	-0.067397185
44	0x3b0bd848	0.002133863
45	0x3adb568e	0.0016734169
46	0x3adb5686	0.001673416
47	0x3b29160c	0.0025800494
48	0x3adb56a9	0.0016734201
49	0xbf11de2d	-0.5697964
50	0x3acb80aa	0.0015526016
51	0x3adb569c	0.0016734186
52	0x3b18962d	0.002328287
53	0x3a2695b0	0.00063547026
54	0x3adb5669	0.0016734126
55	0xbff29889	-1.89528
56	0x3adb5665	0.0016734122
57	0x3b2ebabd	0.0026661598
58	0xbf6cb3e6	-0.92462003
59	0x3adb56cc	0.0016734242
60	0x3d9c3615	0.07627503
61	0x3adb5688	0.0016734162
62	0x3fe74daa	1.8070576
63	0x3aa73a4c	0.0012758463
64	0x3b003f72	0.0019569066
65	0x3b443429	0.0029938316
66	0x3adb5679	0.0016734145
67	0x3adb5694	0.0016734176
68	0x3adb5650	0.0016734097
69	0x3adb56b4	0.0016734214
70	0x3adb5696	0.0016734179
71	0x3adb5698	0.0016734181
72	0x3adb5656	0.0016734104
73	0x3adb56a8	0.00167342
74	0x3ae2390e	0.0017259435
75	0x3ad5c46e	0.0016309151
76	0x3cd874f3	0.026422953
77	0x3955bfa4	0.00020384655
78	0x3adb5632	0.0016734062
79	0x3adb564d	0.0016734094
80	0x3adb5649	0.0016734089
81	0x3adb565e	0.0016734113
82	0x3ad4d6cc	0.0016238331
83	0x3adb565d	0.0016734112
84	0x3adb5677	0.0016734143
85	0x3adb56ad	0.0016734205
86	0x3ae3055b	0.0017320322
87	0x3adb56b8	0.0016734218
88	0x3b38215b	0.0028096053
89	0x3aeda965	0.0018132149
90	0x3b54e990	0.0032487847
91	0x3f207fbf	0.62694925
92	0x3adb566f	0.0016734133
93	0x3adb569a	0.0016734183
94	0x3a199d83	0.0005859958
95	0x3adb56a5	0.0016734196
96	0xbe763ba7	-0.24046193
97	0x3cde7015	0.027153054
98	0x3a052641	0.00050792476
99	0x3a04f4bb	0.0005071868
100	0x3ac3a11d	0.0014925335
101	0x3a04f47a	0.000507183
102	0x3a04f482	0.0005071835
103	0x3ea5f5c3	0.32414064
104	0x3a04f4f5	0.0005071902
105	0x3a04f4a4	0.00050718547
106	0x3a3fda90	0.000731864
107	0xba2bb544	-0.0006550143
108	0x3ce080a0	0.027405083
109	0x3a04f438	0.0005071792
110	0xbec39840	-0.38202095
111	0x39f96d22	0.0004757429
112	0x3a358bab	0.0006925414
113	0x3a04f496	0.00050718465
114	0x3c22b10f	0.009929909
115	0x3a61f2fb	0.0008619276
116	0xbe480358	-0.19532526
117	0x39fcbb78	0.0004820486
118	0x3a04f440	0.00050717965
119	0xbdbc1c25	-0.09185056
120	0xbe21070c	-0.15725344
121	0x3a04f4b3	0.00050718634
122	0x37089eea	8.143232e-06
123	0x39ce730d	0.000393771
124	0xbec428e5	-0.3831245
125	0x3a011157	0.00049235433
126	0x3a04f4a5	0.0005071855
127	0x3a257464	0.0006311594
128	0x3a094979	0.00052370835
129	0x3a04f509	0.00050719135
130	0x3a04f4d0	0.00050718803
131	0x3a04f4d1	0.0005071881
132	0x3a34e237	0.0006900164
133	0x3a04f485	0.00050718366
134	0x3d1f48e1	0.038887862
135	0x3a055f20	0.0005087722
136	0x3f62ac39	0.8854404
137	0x3a04f49e	0.0005071851
138	0x3a04f470	0.00050718244
139	0x3ec3b1ef	0.3822169
140	0x39e14f60	0.00042974483
141	0x3a04f4cf	0.000507188
142	0x3a04f452	0.0005071807
143	0x3a29cf73	0.0006477751
144	0x3a04f4a7	0.00050718564
145	0xbe916e4e	-0.28404468
146	0x39882560	0.00025967788
147	0x3a04f4e4	0.0005071892
148	0x3a5a0b8e	0.0008317762
149	0x3a66da9e	0.000880638
150	0x3a04f488	0.00050718384
151	0xbedde545	-0.4333898
152	0x3a04f4ea	0.00050718954
153	0x3a1ac110	0.00059034023
154	0x3dd0001f	0.10156273
155	0x3a04f4fa	0.0005071905
156	0x3ddb1db1	0.106990226
157	0x3a04f504	0.00050719106
158	0x3f0a758b	0.54085606
159	0xbaac5e70	-0.0013150703
160	0xb9061465	-0.00012786833
161	0x39f4bb32	0.00046678778
162	0x3a04f4e8	0.0005071894
163	0x3a04f4b0	0.00050718617
164	0x3a04f4a8	0.0005071857
165	0x3a04f4c1	0.00050718716
166	0x3a04f4aa	0.0005071858
167	0x3a04f494	0.00050718454
168	0x3a04f47b	0.0005071831
169	0x3a04f4cb	0.00050718774
170	0x3a0a77cf	0.0005282135
171	0x3a801029	0.0009770441
172	0x3ce53c4b	0.027982851
173	0xb8c4446b	-9.358752e-05
174	0x3a04f48d	0.00050718413
175	0x3a04f4e7	0.00050718937
176	0x3a04f4e4	0.0005071892
177	0x3a04f508	0.0005071913
178	0x3a20258d	0.0006109111
179	0x3a04f4b7	0.0005071866
180	0x3a04f48b	0.000507184
181	0x3a04f48f	0.00050718425
182	0x3a08d382	0.00052195054
183	0x3a04f4ac	0.00050718593
184	0x3a579cfb	0.0008224991
185	0x3a2011c9	0.0006106166
186	0x39d9c30d	0.0004153479
187	0xbcb4f5ae	-0.022089805
188	0x3a04f444	0.0005071799
189	0x3a04f4dd	0.0005071888
190	0x3a54b7bb	0.0008114536
191	0x3a04f499	0.0005071848
192	0x392d6a49	0.0001653816
193	0xb9d27acb	-0.0004014581
194	0xb735fac4	-1.0846827e-05
195	0xb7334d27	-1.0687195e-05
196	0xb74ec846	-1.2325187e-05
197	0xb7334d5e	-1.0687245e-05
198	0xb7334d3b	-1.0687213e-05
199	0xb9013a36	-0.00012324084
200	0xb7334d7b	-1.0687271e-05
201	0xb7334d5a	-1.0687241e-05
202	0xb6bfcf20	-5.716356e-06
203	0xb6d4d926	-6.3433718e-06
204	0xb98e51a7	-0.00027145186
205	0xb7334d1f	-1.0687188e-05
206	0x396c266f	0.00022521031
207	0xb749a468	-1.2018812e-05
208	0xb76f74e2	-1.4272724e-05
209	0xb7334d5a	-1.0687241e-05
210	0x39952643	0.00028448002
211	0xb739a485	-1.10651645e-05
212	0x39d50053	0.00040626767
213	0xb73675cf	-1.0875475e-05
214	0xb7334d49	-1.0687226e-05
215	0xb9d46422	-0.00040510396
216	0xba0c431c	-0.0005350576
217	0xb7334d43	-1.068722e-05
218	0xb707ea2f	-8.101152e-06
219	0xb768fc52	-1.38870255e-05
220	0x3982775b	0.0002488446
221	0xb74e8f12	-1.2311868e-05
222	0xb7334d46	-1.0687223e-05
223	0xb76dc181	-1.4171354e-05
224	0xb73b5c1f	-1.1167517e-05
225	0xb7334d68	-1.0687254e-05
226	0xb7334d63	-1.0687249e-05
227	0xb7334d0a	-1.06871685e-05
228	0xb7725381	-1.4443766e-05
229	0xb7334d21	-1.0687189e-05
230	0x397a794e	0.00023887047
231	0xb73c7b8e	-1.12344405e-05
232	0x397f389b	0.00024339782
233	0xb7334d7d	-1.0687273e-05
234	0xb7334d29	-1.0687197e-05
235	0x396f5c1d	0.00022827131
236	0xb76bc945	-1.4053953e-05
237	0xb7334d57	-1.06872385e-05
238	0xb7334d21	-1.0687189e-05
239	0xb7772af4	-1.4732348e-05
240	0xb7334d5d	-1.0687244e-05
241	0x39be7513	0.0003632685
242	0xb6f21391	-7.21444e-06
243	0xb7334d46	-1.0687223e-05
244	0xb751e7ba	-1.2511324e-05
245	0xb71fbbaf	-9.520837e-06
246	0xb7334d58	-1.0687239e-05
247	0x39ba6d41	0.00035558085
248	0xb7334d5f	-1.0687246e-05
249	0xb7387ce8	-1.0996337e-05
250	0xb8e82f12	-0.000110713896
251	0xb7334d56	-1.0687238e-05
252	0xb996f1aa	-0.00028790283
253	0xb7334d48	-1.0687225e-05
254	0xb918b0f2	-0.00014561767
255	0xb79f09c4	-1.8958825e-05

lstm.bias_ih_l0 f4 [384]
0	0xbf90d033	-1.1313537
1	0xbf95b2b8	-1.1695166
2	0xbae6a784	-0.0017597531
3	0xbae69e0d	-0.001759471
4	0xbb0334d0	-0.0020020492
5	0xbae69e29	-0.0017594743
6	0xbae69e22	-0.0017594735
7	0x3eb5ef6e	0.35534233
8	0xbae69e1b	-0.0017594727
9	0xbae69e17	-0.0017594722
10	0xbaf5883b	-0.0018732616
11	0xbaf1f87c	-0.0018460895
12	0xbdb23b24	-0.087026864
13	0xbae69e23	-0.0017594736
14	0x3f137f8b	0.5761649
15	0xbae56d94	-0.001750397
16	0xbad69cb4	-0.0016373605
17	0xbae69e27	-0.001759474
18	0x3e39d306	0.18146905
19	0xbaf73569	-0.0018860522
20	0xbf03fa98	-0.5155425
21	0xbaffeda6	-0.0019525781
22	0xbae69e18	-0.0017594723
23	0xbf384a65	-0.7198852
24	0xbf3a621e	-0.72805965
25	0xbae69e0f	-0.0017594713
26	0xbae0079b	-0.001709211
27	0xbae8989e	-0.0017745679
28	0x3ecf7a05	0.4052278
29	0xbadf6b0b	-0.0017045451
30	0xbae69e1a	-0.0017594725
31	0xbad63221	-0.0016341844
32	0xbae82852	-0.0017712212
33	0xbae69e1c	-0.0017594728
34	0xbae69e23	-0.0017594736
35	0xbae69e2d	-0.0017594747
36	0xbadcbbb6	-0.001684061
37	0xbae69e18	-0.0017594723
38	0x3f0442a9	0.51664215
39	0xbae2a555	-0.0017291704
40	0xbdb3d620	-0.087810755
41	0xbae69e1b	-0.0017594727
42	0xbae69e20	-0.0017594732
43	0x3f06370a	0.5242773
44	0xbae5b9bc	-0.0017526667
45	0xbae69e1a	-0.0017594725
46	0xbae69e24	-0.0017594737
47	0xbad1dd9c	-0.0016011479
48	0xbae69e1a	-0.0017594725
49	0xbf6d8123	-0.9277517
50	0xbaf753d0	-0.0018869583
51	0xbae69e22	-0.0017594735
52	0xbad5850c	-0.0016290261
53	0xbaebc6dc	-0.0017988342
54	0xbae69e18	-0.0017594723
55	0x3f5b3625	0.85629493
56	0xbae69e1b	-0.0017594727
57	0xbadcf1ee	-0.0016856769
58	0xbda93e02	-0.0826378
59	0xbae69e1d	-0.0017594729
60	0xbed9d1a6	-0.42542762
61	0xbae69e18	-0.0017594723
62	0x3ec6c359	0.38820913
63	0xbb36c49f	-0.0027888191
64	0xbae28bcc	-0.0017284094
65	0xbadaf355	-0.0016704599
66	0xbae69e1f	-0.0017594731
67	0xbae69e1d	-0.0017594729
68	0xbae69e0e	-0.0017594711
69	0xbae69e1d	-0.0017594729
70	0xbae69e06	-0.0017594702
71	0xbae69e14	-0.0017594718
72	0xbae69e18	-0.0017594723
73	0xbae69e1f	-0.0017594731
74	0xbae05b94	-0.0017117136
75	0xbaf1a278	-0.001843526
76	0x3d51eddf	0.051252242
77	0xbaf3c538	-0.0018598204
78	0xbae69e16	-0.0017594721
79	0xbae69e25	-0.0017594738
80	0xbae69e15	-0.001759472
81	0xbae69e27	-0.001759474
82	0xbae26107	-0.0017271348
83	0xbae69e18	-0.0017594723
84	0xbae69e30	-0.0017594751
85	0xbae69e13	-0.0017594717
86	0xbae5915b	-0.0017514633
87	0xbae69e15	-0.001759472
88	0xbad63564	-0.0016342816
89	0xbab333a3	-0.0013672005
90	0xbaf23511	-0.001847895
91	0xbeef17b1	-0.46697763
92	0xbae69e1b	-0.0017594727
93	0xbae69e1b	-0.0017594727
94	0xbaf55d07	-0.0018719741
95	0xbae69e1c	-0.0017594728
96	0xbd8ac3bf	-0.06775617
97	0xbee5b519	-0.4486473
98	0xba8a4b47	-0.0010550999
99	0xba8acbff	-0.001058936
100	0xba8a7792	-0.0010564199
101	0xba8acc02	-0.0010589364
102	0xba8acc06	-0.0010589368
103	0x3c791bbc	0.015204366
104	0xba8acc05	-0.0010589367
105	0xba8acbfc	-0.0010589357
106	0xba920cf6	-0.0011142779
107	0xba965efd	-0.00114724
108	0x3d714b9a	0.05890999
109	0xba8acc04	-0.0010589366
110	0xbf1bca56	-0.60855615
111	0xba86d4ca	-0.0010286805
112	0xba8d7084	-0.0010790979
113	0xba8acbfd	-0.0010589358
114	0x3d93c6cf	0.07215654
115	0xba91532e	-0.0011087412
116	0x3e5b11da	0.21393529
117	0xbaa0c11e	-0.0012264585
118	0xba8acc06	-0.0010589368
119	0x3f1e9c18	0.6195693
120	0x3f2f043c	0.68365836
121	0xba8acc03	-0.0010589365
122	0xba928152	-0.0011177456
123	0xba8c9979	-0.0010726891
124	0xbf785d56	-0.9701742
125	0xba88056a	-0.001037759
126	0xba8acc05	-0.0010589367
127	0xba83a336	-0.0010043147
128	0xba8ab022	-0.0010581056
129	0xba8acc01	-0.0010589362
130	0xba8acbfe	-0.0010589359
131	0xba8acc04	-0.0010589366
132	0xba858c96	-0.0010188993
133	0xba8acc09	-0.0010589372
134	0xbe18f12f	-0.14935754
135	0xba8a0fb5	-0.0010533246
136	0xbf705895	-0.93885165
137	0xba8acc10	-0.001058938
138	0xba8acbfc	-0.0010589357
139	0x3ed12662	0.40849596
140	0xba81ff56	-0.0009918015
141	0xba8acc04	-0.0010589366
142	0xba8acc0a	-0.0010589373
143	0xba811bdf	-0.0009850225
144	0xba8acc08	-0.001058937
145	0x3f4349ec	0.7628467
146	0xbaa85a0f	-0.0012844222
147	0xba8acc06	-0.0010589368
148	0xba8948bb	-0.0010473946
149	0xba8f578e	-0.0010936128
150	0xba8acc01	-0.0010589362
151	0xbf0b811c	-0.5449388
152	0xba8acbfe	-0.0010589359
153	0xba86b33d	-0.0010276806
154	0xbf00ee2a	-0.5036341
155	0xba8acbfb	-0.0010589355
156	0xbe63a4f5	-0.22230895
157	0xba8acc09	-0.0010589372
158	0xbf660fdf	-0.8986797
159	0xbaf86aea	-0.0018952761
160	0xba80ea68	-0.0009835484
161	0xba83802e	-0.0010032707
162	0xba8acc04	-0.0010589366
163	0xba8acc06	-0.0010589368
164	0xba8acc0a	-0.0010589373
165	0xba8acc0b	-0.0010589374
166	0xba8acc0a	-0.0010589373
167	0xba8acc01	-0.0010589362
168	0xba8acc0c	-0.0010589375
169	0xba8acc06	-0.0010589368
170	0xba84e412	-0.0010138771
171	0xba920ed9	-0.0011143341
172	0xbb2a8897	-0.0026021355
173	0xba88cb67	-0.0010436595
174	0xba8acc08	-0.001058937
175	0xba8acc04	-0.0010589366
176	0xba8acbfb	-0.0010589355
177	0xba8acc04	-0.0010589366
178	0xba87e22f	-0.001036709
179	0xba8acbfd	-0.0010589358
180	0xba8acc04	-0.0010589366
181	0xba8acc06	-0.0010589368
182	0xba8a8ea0	-0.001057107
183	0xba8acc00	-0.0010589361
184	0xba57019c	-0.0008201839
185	0xba7108e0	-0.0009194743
186	0xba6dc019	-0.00090694573
187	0xbe860c73	-0.26181373
188	0xba8acc02	-0.0010589364
189	0xba8acc06	-0.0010589368
190	0xba8c804d	-0.0010719389
191	0xba8acc08	-0.001058937
192	0x3e95e9de	0.2927999
193	0xbe9269db	-0.28596386
194	0x3957bdc8	0.00020574697
195	0x3952ce51	0.0002010402
196	0x392393ea	0.00015599994
197	0x3952ceb3	0.00020104162
198	0x3952ce9b	0.00020104127
199	0x3e4a4e3d	0.19756408
200	0x3952ce91	0.00020104113
201	0x3952ced9	0.00020104217
202	0x3904247f	0.00012602097
203	0x39a32877	0.0003111993
204	0xbd09ef50	-0.03367549
205	0x3952cee7	0.00020104238
206	0x3e73dd5f	0.23814915
207	0x395b47ab	0.00020912166
208	0x395feb41	0.00021354576
209	0x3952ce86	0.00020104097
210	0x3c840b7e	0.016118761
211	0x39568c0f	0.00020460806
212	0x3e5e8727	0.21731244
213	0x39386db4	0.00017588475
214	0x3952cf36	0.00020104353
215	0xbd8ab61e	-0.06773017
216	0xbe536921	-0.20645572
217	0x3952ce9f	0.00020104133
218	0x39898ccf	0.00026235587
219	0x395fdb76	0.00021348693
220	0x3d956d8d	0.07296286
221	0x395e34b2	0.000211912
222	0x3952cf04	0.0002010428
223	0x3968b66e	0.00022193204
224	0x394c2f59	0.00019472594
225	0x3952ce93	0.00020104116
226	0x3952ce7f	0.00020104086
227	0x3952cec6	0.0002010419
228	0x393fc882	0.00018289874
229	0x3952ce4b	0.00020104011
230	0x3c8bc55f	0.017061887
231	0x3960163a	0.00021370585
232	0xbeab7f0b	-0.33495364
233	0x3952ce51	0.0002010402
234	0x3952cf07	0.00020104284
235	0xbf3354f9	-0.70051533
236	0x3937b03e	0.00017517895
237	0x3952ce70	0.00020104065
238	0x3952cefa	0.00020104265
239	0x396ae351	0.00022400661
240	0x3952cebd	0.00020104177
241	0xbe19c9e4	-0.15018421
242	0x39214960	0.00015381491
243	0x3952ce93	0.00020104116
244	0x399250c6	0.0002790747
245	0x394fcdaf	0.00019817681
246	0x3952ced3	0.00020104209
247	0xbe005c09	-0.12535109
248	0x3952ce85	0.00020104095
249	0x393c4cc9	0.00017957682
250	0xbe51818a	-0.20459571
251	0x3952ce69	0.00020104054
252	0x3c4bee7e	0.012446998
253	0x3952ce79	0.00020104078
254	0xbd9b32b2	-0.07578029
255	0xb8bf407c	-9.119601e-05

lstm.bias_hh_l0 f4 [384]
0	0xbf908b93	-1.1292595
1	0xbf94e349	-1.1631862
2	0xbae6a784	-0.0017597531
3	0xbae69e0d	-0.001759471
4	0xbb0334d0	-0.0020020492
5	0xbae69e29	-0.0017594743
6	0xbae69e22	-0.0017594735
7	0x3eb5ee49	0.3553336
8	0xbae69e1b	-0.0017594727
9	0xbae69e17	-0.0017594722
10	0xbaf5883b	-0.0018732616
11	0xbaf1f87c	-0.0018460895
12	0xbdb23b24	-0.087026864
13	0xbae69e23	-0.0017594736
14	0x3f139783	0.57653064
15	0xbae56d94	-0.001750397
16	0xbad69cb4	-0.0016373605
17	0xbae69e27	-0.001759474
18	0x3e39d306	0.18146905
19	0xbaf73569	-0.0018860522
20	0xbf03fba2	-0.51555836
21	0xbaffeda6	-0.0019525781
22	0xbae69e18	-0.0017594723
23	0xbf384a49	-0.7198835
24	0xbf3a627f	-0.72806543
25	0xbae69e0f	-0.0017594713
26	0xbae0079b	-0.001709211
27	0xbae8989e	-0.0017745679
28	0x3ecde2a0	0.40211964
29	0xbadf6b0b	-0.0017045451
30	0xbae69e1a	-0.0017594725
31	0xbad63221	-0.0016341844
32	0xbae82852	-0.0017712212
33	0xbae69e1c	-0.0017594728
34	0xbae69e23	-0.0017594736
35	0xbae69e2d	-0.0017594747
36	0xbadcbbb6	-0.001684061
37	0xbae69e18	-0.0017594723
38	0x3f0443b1	0.5166579
39	0xbae2a555	-0.0017291704
40	0xbdbfe068	-0.09368974
41	0xbae69e1b	-0.0017594727
42	0xbae69e20	-0.0017594732
43	0x3f0607f3	0.5235588
44	0xbae5b9bc	-0.0017526667
45	0xbae69e1a	-0.0017594725
46	0xbae69e24	-0.0017594737
47	0xbad1dd9c	-0.0016011479
48	0xbae69e1a	-0.0017594725
49	0xbf79f797	-0.9764342
50	0xbaf753d0	-0.0018869583
51	0xbae69e22	-0.0017594735
52	0xbad5850c	-0.0016290261
53	0xbaebc6dc	-0.0017988342
54	0xbae69e18	-0.0017594723
55	0x3f66647c	0.89997077
56	0xbae69e1b	-0.0017594727
57	0xbadcf1ee	-0.0016856769
58	0xbdb2bd40	-0.08727503
59	0xbae69e1d	-0.0017594729
60	0xbed9caec	-0.4253763
61	0xbae69e18	-0.0017594723
62	0x3ebba8a4	0.366521
63	0xbb36c49f	-0.0027888191
64	0xbae28bcc	-0.0017284094
65	0xbadaf355	-0.0016704599
66	0xbae69e1f	-0.0017594731
67	0xbae69e1d	-0.0017594729
68	0xbae69e0e	-0.0017594711
69	0xbae69e1d	-0.0017594729
70	0xbae69e06	-0.0017594702
71	0xbae69e14	-0.0017594718
72	0xbae69e18	-0.0017594723
73	0xbae69e1f	-0.0017594731
74	0xbae05b94	-0.0017117136
75	0xbaf1a278	-0.001843526
76	0x3d51eddf	0.051252242
77	0xbaf3c538	-0.0018598204
78	0xbae69e16	-0.0017594721
79	0xbae69e25	-0.0017594738
80	0xbae69e15	-0.001759472
81	0xbae69e27	-0.001759474
82	0xbae26107	-0.0017271348
83	0xbae69e18	-0.0017594723
84	0xbae69e30	-0.0017594751
85	0xbae69e13	-0.0017594717
86	0xbae5915b	-0.0017514633
87	0xbae69e15	-0.001759472
88	0xbad63564	-0.0016342816
89	0xbab333a3	-0.0013672005
90	0xbaf23511	-0.001847895
91	0xbef39553	-0.47574863
92	0xbae69e1b	-0.0017594727
93	0xbae69e1b	-0.0017594727
94	0xbaf55d07	-0.0018719741
95	0xbae69e1c	-0.0017594728
96	0xbd936ff9	-0.071990915
97	0xbee5b519	-0.4486473
98	0xba8a4b47	-0.0010550999
99	0xba8acbff	-0.001058936
100	0xba8a7792	-0.0010564199
101	0xba8acc02	-0.0010589364
102	0xba8acc06	-0.0010589368
103	0x3c78e8ad	0.015192193
104	0xba8acc05	-0.0010589367
105	0xba8acbfc	-0.0010589357
106	0xba920cf6	-0.0011142779
107	0xba965efd	-0.00114724
108	0x3d714b9a	0.05890999
109	0xba8acc04	-0.0010589366
110	0xbf1bca5c	-0.6085565
111	0xba86d4ca	-0.0010286805
112	0xba8d7084	-0.0010790979
113	0xba8acbfd	-0.0010589358
114	0x3d93c6cf	0.07215654
115	0xba91532e	-0.0011087412
116	0x3e5b11da	0.21393529
117	0xbaa0c11e	-0.0012264585
118	0xba8acc06	-0.0010589368
119	0x3f1e9c18	0.6195693
120	0x3f2f043c	0.68365836
121	0xba8acc03	-0.0010589365
122	0xba928152	-0.0011177456
123	0xba8c9979	-0.0010726891
124	0xbf785d77	-0.97017616
125	0xba88056a	-0.001037759
126	0xba8acc05	-0.0010589367
127	0xba83a336	-0.0010043147
128	0xba8ab022	-0.0010581056
129	0xba8acc01	-0.0010589362
130	0xba8acbfe	-0.0010589359
131	0xba8acc04	-0.0010589366
132	0xba858c96	-0.0010188993
133	0xba8acc09	-0.0010589372
134	0xbe1abd4e	-0.15111277
135	0xba8a0fb5	-0.0010533246
136	0xbf705528	-0.9387994
137	0xba8acc10	-0.001058938
138	0xba8acbfc	-0.0010589357
139	0x3ed1222f	0.40846393
140	0xba81ff56	-0.0009918015
141	0xba8acc04	-0.0010589366
142	0xba8acc0a	-0.0010589373
143	0xba811bdf	-0.0009850225
144	0xba8acc08	-0.001058937
145	0x3f4484cc	0.7676513
146	0xbaa85a0f	-0.0012844222
147	0xba8acc06	-0.0010589368
148	0xba8948bb	-0.0010473946
149	0xba8f578e	-0.0010936128
150	0xba8acc01	-0.0010589362
151	0xbf0b91d7	-0.5451941
152	0xba8acbfe	-0.0010589359
153	0xba86b33d	-0.0010276806
154	0xbf00f045	-0.5036662
155	0xba8acbfb	-0.0010589355
156	0xbe63a4f3	-0.22230892
157	0xba8acc09	-0.0010589372
158	0xbf669a45	-0.90079147
159	0xbaf86aea	-0.0018952761
160	0xba80ea68	-0.0009835484
161	0xba83802e	-0.0010032707
162	0xba8acc04	-0.0010589366
163	0xba8acc06	-0.0010589368
164	0xba8acc0a	-0.0010589373
165	0xba8acc0b	-0.0010589374
166	0xba8acc0a	-0.0010589373
167	0xba8acc01	-0.0010589362
168	0xba8acc0c	-0.0010589375
169	0xba8acc06	-0.0010589368
170	0xba84e412	-0.0010138771
171	0xba920ed9	-0.0011143341
172	0xbb2a8897	-0.0026021355
173	0xba88cb67	-0.0010436595
174	0xba8acc08	-0.001058937
175	0xba8acc04	-0.0010589366
176	0xba8acbfb	-0.0010589355
177	0xba8acc04	-0.0010589366
178	0xba87e22f	-0.001036709
179	0xba8acbfd	-0.0010589358
180	0xba8acc04	-0.0010589366
181	0xba8acc06	-0.0010589368
182	0xba8a8ea0	-0.001057107
183	0xba8acc00	-0.0010589361
184	0xba57019c	-0.0008201839
185	0xba7108e0	-0.0009194743
186	0xba6dc019	-0.00090694573
187	0xbe85ee0b	-0.26158175
188	0xba8acc02	-0.0010589364
189	0xba8acc06	-0.0010589368
190	0xba8c804d	-0.0010719389
191	0xba8acc08	-0.001058937
192	0x3ea326ad	0.31865445
193	0xbe92b209	-0.28651455
194	0x3957bdc8	0.00020574697
195	0x3952ce51	0.0002010402
196	0x392393ea	0.00015599994
197	0x3952ceb3	0.00020104162
198	0x3952ce9b	0.00020104127
199	0x3e4a6717	0.19765888
200	0x3952ce91	0.00020104113
201	0x3952ced9	0.00020104217
202	0x3904247f	0.00012602097
203	0x39a32877	0.0003111993
204	0xbc961969	-0.018322663
205	0x3952cee7	0.00020104238
206	0x3e76d88b	0.24106042
207	0x395b47ab	0.00020912166
208	0x395feb41	0.00021354576
209	0x3952ce86	0.00020104097
210	0x3c80b7fa	0.015712727
211	0x39568c0f	0.00020460806
212	0x3e4f42d0	0.2024033
213	0x39386db4	0.00017588475
214	0x3952cf36	0.00020104353
215	0xbdb71bcd	-0.089408495
216	0xbe5c03cb	-0.21485822
217	0x3952ce9f	0.00020104133
218	0x39898ccf	0.00026235587
219	0x395fdb76	0.00021348693
220	0x3ddf36a5	0.108990945
221	0x395e34b2	0.000211912
222	0x3952cf04	0.0002010428
223	0x3968b66e	0.00022193204
224	0x394c2f59	0.00019472594
225	0x3952ce93	0.00020104116
226	0x3952ce7f	0.00020104086
227	0x3952cec6	0.0002010419
228	0x393fc882	0.00018289874
229	0x3952ce4b	0.00020104011
230	0x3d217209	0.039415393
231	0x3960163a	0.00021370585
232	0xbed2f387	-0.41201422
233	0x3952ce51	0.0002010402
234	0x3952cf07	0.00020104284
235	0xbf335671	-0.70053774
236	0x3937b03e	0.00017517895
237	0x3952ce70	0.00020104065
238	0x3952cefa	0.00020104265
239	0x396ae351	0.00022400661
240	0x3952cebd	0.00020104177
241	0xbe3a54bb	-0.18196385
242	0x39214960	0.00015381491
243	0x3952ce93	0.00020104116
244	0x399250c6	0.0002790747
245	0x394fcdaf	0.00019817681
246	0x3952ced3	0.00020104209
247	0xbd8cf9e7	-0.068836026
248	0x3952ce85	0.00020104095
249	0x393c4cc9	0.00017957682
250	0xbe4e5a05	-0.20151527
251	0x3952ce69	0.00020104054
252	0x3d1f4c4f	0.038891133
253	0x3952ce79	0.00020104078
254	0xbc8f444f	-0.017488627
255	0xb8bf407c	-9.119601e-05

layer_norm.weight f4 [96]
0	0x4018e0dc	2.3887243
1	0x3f9ef73c	1.24192
2	0xbb290a2b	-0.0025793414
3	0x39822ad6	0.00024827447
4	0xbc9ba81e	-0.019001063
5	0x39822a67	0.00024827124
6	0x398229f2	0.00024826784
7	0x3fb91f43	1.4462665
8	0x398229f9	0.00024826804
9	0x398229e1	0.00024826734
10	0x3cc1f5ff	0.02367687
11	0xbceb1c9c	-0.028700165
12	0x3f4120ed	0.75440866
13	0x39822b41	0.0002482776
14	0x3f9778c1	1.1833726
15	0x3b8ad3af	0.0042366604
16	0x3c54330b	0.012951623
17	0x39822aa7	0.0002482731
18	0x3f3a41a3	0.72756404
19	0x3cac34de	0.021021303
20	0x3ea011dd	0.3126363
21	0x3c8664bf	0.016405461
22	0x3982299f	0.00024826542
23	0x3f8df9ce	1.1091859
24	0x3f132472	0.57477486
25	0x39822b3b	0.0002482774
26	0xbc3b42a8	-0.011429466
27	0xbc14e833	-0.009088564
28	0x3ff9dd9b	1.9520754
29	0x3b0ca1cf	0.002145875
30	0x398229ea	0.0002482676
31	0xb9ce3fc3	-0.00039338888
32	0x3b39c21a	0.0028344453
33	0x398229cb	0.0002482667
34	0x39822ab7	0.00024827357
35	0x39822a08	0.00024826848
36	0xbb618393	-0.00344107
37	0x398229d1	0.00024826688
38	0x3fb9fc5d	1.453014
39	0x3a911557	0.0011068982
40	0x3fcf0498	1.6173277
41	0x39822a10	0.0002482687
42	0x39822acf	0.00024827427
43	0x3c592ec7	0.0132557815
44	0x3be1fe8a	0.0068967985
45	0x39822aa4	0.00024827302
46	0x39822ae2	0.00024827482
47	0x3b4f55f8	0.0031636935
48	0x398229c7	0.0002482666
49	0x3f5a94eb	0.8538348
50	0xbd3618be	-0.04445719
51	0x39822aef	0.0002482752
52	0xbb2bd3d8	-0.0026218798
53	0x3c6d10cf	0.0144693395
54	0x398229cf	0.00024826682
55	0x4003246d	2.0490983
56	0x39822a1d	0.0002482691
57	0xbc6a9f07	-0.014320142
58	0x3f9ab125	1.208531
59	0x398229ea	0.0002482676
60	0x3fa082c3	1.2539905
61	0x39822a44	0.00024827023
62	0x3ff6f4a9	1.9293414
63	0x3d02b1dd	0.031907905
64	0x3c0aaa13	0.0084634
65	0xbc4e1250	-0.012577608
66	0x398229a2	0.0002482655
67	0x39822a5e	0.00024827098
68	0x39822a19	0.00024826897
69	0x39822ba8	0.0002482806
70	0x398229a6	0.00024826563
71	0x39822a0e	0.00024826865
72	0x39822aa2	0.00024827296
73	0x39822a63	0.00024827113
74	0xbbc6a3c5	-0.0060620033
75	0x3be68110	0.0070344284
76	0x3f0452cb	0.5168883
77	0x3ca505af	0.020144312
78	0x39822a5b	0.0002482709
79	0x398229b3	0.000248266
80	0x398229d4	0.00024826697
81	0x39822ad3	0.0002482744
82	0x3b318556	0.002708753
83	0x39822a66	0.00024827122
84	0x398229fe	0.0002482682
85	0x39822a89	0.00024827223
86	0x3b1e638c	0.0024168221
87	0x398229b3	0.000248266
88	0x3c8df9b9	0.017330991
89	0xbbefbd96	-0.0073163016
90	0xbd0342dd	-0.032046188
91	0x3fad8056	1.355479
92	0x39822a92	0.0002482725
93	0x39822a71	0.00024827154
94	0xbc1ed8c6	-0.0096952375
95	0x39822abf	0.0002482738

layer_norm.bias f4 [96]
0	0x3e8689d7	0.26277038
1	0x3d901f2e	0.07037197
2	0x394f0970	0.00019744574
3	0x39002143	0.00012219422
4	0xbe1a779f	-0.15084694
5	0x390020b9	0.00012219221
6	0x39002047	0.00012219055
7	0x3e973530	0.29532766
8	0x390020b2	0.00012219211
9	0x39002067	0.00012219102
10	0x3d80f45b	0.06296607
11	0xbd4f65ef	-0.05063432
12	0xbe3c3df3	-0.18383007
13	0x390021c3	0.00012219608
14	0xbe476cb9	-0.19475068
15	0x3b61cd84	0.0034454772
16	0x3ea35376	0.31899613
17	0x390020c3	0.00012219236
18	0xbdab6496	-0.083687946
19	0x3da3b64a	0.07993753
20	0xbe9b63fa	-0.30349714
21	0x3e64b57e	0.22334859
22	0x39002021	0.00012219
23	0x3f245630	0.6419401
24	0x3e5264c9	0.20546259
25	0x390021ca	0.00012219619
26	0xbdebf4f5	-0.11521331
27	0xbd9bfa9c	-0.07616159
28	0x3d26cab7	0.040720668
29	0x3b12b8a2	0.0022387882
30	0x39002061	0.00012219093
31	0x3d1d4cb1	0.038403217
32	0xbb752eca	-0.0037411922
33	0x39001ff2	0.00012218932
34	0x39002177	0.00012219498
35	0x390020a5	0.00012219192
36	0x3c5b6c82	0.0133925695
37	0x39001f8f	0.00012218788
38	0xbecdf479	-0.4022558
39	0x3c8feada	0.01756804
40	0xbdc9167a	-0.0981874
41	0x39002074	0.00012219121
42	0x39002182	0.00012219514
43	0xbce2f827	-0.027706219
44	0xbb861150	-0.0040914193
45	0x390021ce	0.00012219624
46	0x39002122	0.00012219374
47	0x3d8b047e	0.06787966
48	0x39001fb3	0.0001221884
49	0x3e761587	0.2403165
50	0xbe45771b	-0.19283716
51	0x3900217c	0.00012219505
52	0xbd8ae3af	-0.067817084
53	0x3d39a479	0.04532287
54	0x39001ffc	0.00012218946
55	0xbe0c5b03	-0.13706593
56	0x39002068	0.00012219104
57	0xbd596db5	-0.05308314
58	0x3f1db27a	0.6160046
59	0x39002037	0.00012219032
60	0xbde9eb02	-0.11421777
61	0x390020a0	0.00012219185
62	0xbed90d81	-0.42393115
63	0x3ecbe95e	0.39826483
64	0xbe05fcac	-0.13084668
65	0xbc138108	-0.009002931
66	0x39001fc5	0.00012218866
67	0x3900211b	0.00012219364
68	0x3900201e	0.00012218996
69	0x39002237	0.00012219777
70	0x39001fd5	0.0001221889
71	0x3900209e	0.00012219182
72	0x39002145	0.00012219425
73	0x390020df	0.00012219277
74	0x3cacbe47	0.021086825
75	0x3d8ec315	0.06970803
76	0x3e750ac5	0.2392989
77	0x3d566d2e	0.052350216
78	0x390020d7	0.00012219265
79	0x39001fee	0.00012218926
80	0x39001fc1	0.0001221886
81	0x390021be	0.00012219601
82	0x3c2c80ff	0.010528802
83	0x3900213c	0.00012219412
84	0x3900204c	0.00012219063
85	0x3900213f	0.00012219416
86	0x38c9da62	9.625104e-05
87	0x39002029	0.00012219012
88	0x3c99dddc	0.018782549
89	0x3e9efe1f	0.31053254
90	0xbd95b098	-0.07309073
91	0xbf0c0913	-0.54701346
92	0x39002118	0.0001221936
93	0x39002147	0.00012219428
94	0xbcaebdf3	-0.02133081
95	0x39002143	0.00012219422

exp_avg f4 [384, 1]
0	0x3ee5116c	0.44739854
1	0x4063cb39	3.5592787
2	0x37b1381c	2.1126172e-05
3	0x37c6ce0a	2.3699384e-05
4	0x38f2d626	0.000115793475
5	0x37c6ce07	2.3699378e-05
6	0x37c6ce15	2.3699404e-05
7	0x40068bf3	2.1022918
8	0x37c6cdcf	2.3699276e-05
9	0x37c6ce21	2.3699426e-05
10	0x3841c5dd	4.619906e-05
11	0x3886e198	6.431638e-05
12	0xbc870e82	-0.01648641
13	0x37c6cde9	2.3699324e-05
14	0x3ead6a28	0.33870053
15	0x37da1964	2.5999449e-05
16	0x393af194	0.00017828337
17	0x37c6cdef	2.3699335e-05
18	0xbd15f32a	-0.036608852
19	0x38dfce5c	0.00010671906
20	0x3fdafc26	1.71082
21	0x3916bed7	0.00014376208
22	0x37c6cdee	2.3699333e-05
23	0x3fc536cb	1.5407346
24	0x4091ad7a	4.5524263
25	0x37c6ce28	2.3699438e-05
26	0xb5b46f68	-1.3443469e-06
27	0x38aa3b80	8.1173144e-05
28	0x409c8efb	4.8924537
29	0x37a49921	1.962163e-05
30	0x37c6cda8	2.3699205e-05
31	0x37a94b9f	2.0181584e-05
32	0x380bb33d	3.330711e-05
33	0x37c6ce28	2.3699438e-05
34	0x37c6cdf9	2.3699353e-05
35	0x37c6cd9a	2.369918e-05
36	0x35fa9aa1	1.8671454e-06
37	0x37c6cdfb	2.3699356e-05
38	0x401b2461	2.4240954
39	0x37e2bca1	2.7029137e-05
40	0x41b1568e	22.167263
41	0x37c6ce31	2.3699455e-05
42	0x37c6ce38	2.3699467e-05
43	0xbf822ca6	-1.0169876
44	0xb65aa95d	-3.2583114e-06
45	0x37c6ce3f	2.369948e-05
46	0x37c6cde2	2.3699311e-05
47	0x36811e79	3.848047e-06
48	0x37c6ce66	2.3699551e-05
49	0x41b535f7	22.65135
50	0x38a9d989	8.099067e-05
51	0x37c6ce1d	2.3699418e-05
52	0x383b9a7e	4.4728156e-05
53	0xb6298158	-2.525825e-06
54	0x37c6ce50	2.3699511e-05
55	0x41048c72	8.284288
56	0x37c6ce1e	2.369942e-05
57	0xb73bf9f4	-1.1204265e-05
58	0x40125a0c	2.286746
59	0x37c6ce63	2.3699546e-05
60	0x3f95ff8f	1.1718615
61	0x37c6ce02	2.369937e-05
62	0x413115be	11.067808
63	0x3877ff41	5.9127113e-05
64	0x3663665e	3.3885221e-06
65	0xb8a9e8a3	-8.10188e-05
66	0x37c6cd9d	2.3699185e-05
67	0x37c6ce2e	2.369945e-05
68	0x37c6ce72	2.3699573e-05
69	0x37c6cdc2	2.3699253e-05
70	0x37c6ce57	2.3699524e-05
71	0x37c6cdb0	2.369922e-05
72	0x37c6cdf2	2.369934e-05
73	0x37c6cdb4	2.3699227e-05
74	0x35a2ff7e	1.2144299e-06
75	0x37b11d0d	2.1113572e-05
76	0x3c8e6e2a	0.017386515
77	0x3878f5d4	5.9356753e-05
78	0x37c6ce0a	2.3699384e-05
79	0x37c6cdc0	2.369925e-05
80	0x37c6cdbf	2.3699247e-05
81	0x37c6cdeb	2.3699327e-05
82	0x3826c112	3.9757295e-05
83	0x37c6ce4a	2.36995e-05
84	0x37c6cd97	2.3699175e-05
85	0x37c6ce02	2.369937e-05
86	0x37c14653	2.304014e-05
87	0x37c6cddf	2.3699306e-05
88	0xb715fe3f	-8.940288e-06
89	0x375aeb95	1.3048663e-05
90	0xb8a494d3	-7.84785e-05
91	0x41229fea	10.1640415
92	0x37c6ce3a	2.3699471e-05
93	0x37c6ce18	2.369941e-05
94	0x38310058	4.220041e-05
95	0x37c6cdd8	2.3699293e-05
96	0xbf76c2df	-0.963911
97	0xbf02eb42	-0.51140225
98	0x38518c54	4.9960174e-05
99	0x384fbc3c	4.9527953e-05
100	0x3834d24c	4.31112e-05
101	0x384fbc39	4.9527942e-05
102	0x384fbc58	4.9528055e-05
103	0xbfbf92c1	-1.4966661
104	0x384fbc42	4.9527975e-05
105	0x384fbc56	4.9528047e-05
106	0x37fda4f8	3.023677e-05
107	0x3890d038	6.905239e-05
108	0xbdf5957d	-0.11991403
109	0x384fbc50	4.9528026e-05
110	0xbf77d8e6	-0.96815336
111	0x3857d157	5.1454957e-05
112	0x38c2a1e4	9.280795e-05
113	0x384fbc4b	4.9528007e-05
114	0x3bdf64f2	0.0068174535
115	0x38355242	4.323037e-05
116	0xbea26381	-0.3171654
117	0x37bd846c	2.259222e-05
118	0x384fbc65	4.9528102e-05
119	0x3bc865be	0.0061156442
120	0xbe7c19f5	-0.24619277
121	0x384fbc5a	4.9528062e-05
122	0x388112ff	6.154738e-05
123	0x386d0122	5.650626e-05
124	0xbf8d1248	-1.1021204
125	0x3856deef	5.12292e-05
126	0x384fbc3a	4.9527946e-05
127	0x385f5988	5.3250726e-05
128	0x38508a03	4.9719598e-05
129	0x384fbc43	4.952798e-05
130	0x384fbc37	4.9527935e-05
131	0x384fbc38	4.952794e-05
132	0x382fc8ca	4.191025e-05
133	0x384fbc45	4.9527986e-05
134	0xc0005209	-2.005007
135	0x38538d0b	5.0437677e-05
136	0xc00fcbc1	-2.2468112
137	0x384fbc4c	4.952801e-05
138	0x384fbc5d	4.9528073e-05
139	0xbf820c7a	-1.0160058
140	0x3843c6a4	4.667662e-05
141	0x384fbc43	4.952798e-05
142	0x384fbc63	4.9528095e-05
143	0x384745f8	4.751046e-05
144	0x384fbc3f	4.9527964e-05
145	0xbe8d3670	-0.27580595
146	0x38d23830	0.00010024046
147	0x384fbc4a	4.9528004e-05
148	0x3862f3e4	5.410974e-05
149	0x385a5e82	5.2063268e-05
150	0x384fbc5d	4.9528073e-05
151	0xc089fb13	-4.3118987
152	0x384fbc44	4.9527982e-05
153	0x38413309	4.6062316e-05
154	0xbf515452	-0.8176929
155	0x384fbc51	4.952803e-05
156	0xbf39e57d	-0.72615796
157	0x384fbc4e	4.952802e-05
158	0xc012c4e3	-2.293267
159	0xb75f04fc	-1.3292996e-05
160	0x383fdc5b	4.574317e-05
161	0x382a3443	4.057983e-05
162	0x384fbc4e	4.952802e-05
163	0x384fbc4e	4.952802e-05
164	0x384fbc4c	4.952801e-05
165	0x384fbc3f	4.9527964e-05
166	0x384fbc5b	4.9528066e-05
167	0x384fbc51	4.952803e-05
168	0x384fbc72	4.952815e-05
169	0x384fbc48	4.9527996e-05
170	0x3845da3b	4.7171703e-05
171	0x384e45a5	4.917909e-05
172	0xba995850	-0.0011699293
173	0x3869760c	5.566147e-05
174	0x384fbc61	4.9528087e-05
175	0x384fbc49	4.9528e-05
176	0x384fbc55	4.9528044e-05
177	0x384fbc3e	4.952796e-05
178	0x38571b3c	5.128536e-05
179	0x384fbc4a	4.9528004e-05
180	0x384fbc3a	4.9527946e-05
181	0x384fbc5c	4.952807e-05
182	0x38522bf3	5.0108833e-05
183	0x384fbc53	4.9528036e-05
184	0x383a3f4a	4.44048e-05
185	0x38809d9c	6.132873e-05
186	0x386fc0bc	5.716154e-05
187	0xbfc29785	-1.520249
188	0x384fbc5d	4.9528073e-05
189	0x384fbc47	4.9527993e-05
190	0x383058b1	4.204427e-05
191	0x384fbc51	4.952803e-05
192	0xc22b02a7	-42.75259
193	0xbe515488	-0.20442402
194	0x3c8f30c2	0.017479304
195	0x3c870f75	0.016486863
196	0xbd0dfcd7	-0.034664955
197	0x3c870f5e	0.01648682
198	0x3c870f1e	0.0164867
199	0xc131728f	-11.090468
200	0x3c870f21	0.016486706
201	0x3c870f14	0.016486682
202	0x3c6a96e2	0.0143182
203	0x3cfecdb8	0.031103954
204	0xc09e9322	-4.9554605
205	0x3c870f20	0.016486704
206	0x416e4716	14.892355
207	0x3c9d38d6	0.01919214
208	0xbbdccac4	-0.0067380387
209	0x3c870f5e	0.01648682
210	0x3ed6c549	0.41947392
211	0x3ac53b49	0.0015047576
212	0x4148a07d	12.539182
213	0xbd18dc82	-0.037319668
214	0x3c870eeb	0.016486606
215	0x409b9b97	4.862743
216	0x413874bd	11.528501
217	0x3c870f51	0.016486796
218	0x3c3f7058	0.0116845
219	0x3c5f38be	0.013624368
220	0x40c40e46	6.1267424
221	0x3c5c64cf	0.013451769
222	0x3c870f4f	0.016486792
223	0x3c65832f	0.014008327
224	0x3c5db53b	0.013531978
225	0x3c870f50	0.016486794
226	0x3c870f67	0.016486837
227	0x3c870f4b	0.016486784
228	0x3c4c0536	0.012452414
229	0x3c870f66	0.016486835
230	0x400156db	2.0209262
231	0x3c850de9	0.016241984
232	0x414897c5	12.537053
233	0x3c870f32	0.016486738
234	0x3c870f59	0.01648681
235	0x3f6d05aa	0.9258677
236	0x3c76c40e	0.0150613915
237	0x3c870f50	0.016486794
238	0x3c870f1c	0.016486697
239	0x3bd34cdc	0.0064483713
240	0x3c870f4d	0.016486788
241	0xc11eb8d2	-9.920122
242	0xbaf46f89	-0.0018648963
243	0x3c870f35	0.016486743
244	0x3c6d33f5	0.01447772
245	0x3cec5465	0.028848836
246	0x3c870f33	0.01648674
247	0xc0fa9ba4	-7.831499
248	0x3c870f3d	0.016486758
249	0xb99af4ec	-0.0002955565
250	0xbf919be5	-1.13757
251	0x3c870f13	0.01648668
252	0x405fea7e	3.4986873
253	0x3c870f2d	0.016486729
254	0xc187a2cd	-16.954493
255	0xbc3b08e5	-0.011415695

exp_avg_sq f4 [384, 1]
0	0x4560baa6	3595.6655
1	0x441fbc8e	638.94617
2	0x3701351f	7.701367e-06
3	0x36fe0dd7	7.571401e-06
4	0x3780d826	1.5359441e-05
5	0x36fe0dd7	7.571401e-06
6	0x36fe0df6	7.571415e-06
7	0x445c7890	881.8838
8	0x36fe0deb	7.57141e-06
9	0x36fe0dfd	7.5714183e-06
10	0x36cdc00f	6.1318347e-06
11	0x36de06e3	6.6169173e-06
12	0x40c0853e	6.016265
13	0x36fe0dcb	7.5713956e-06
14	0x441e0056	632.00525
15	0x37039e53	7.845071e-06
16	0x37c07108	2.2940818e-05
17	0x36fe0de5	7.5714074e-06
18	0x3ebab356	0.36464947
19	0x370ad73c	8.275554e-06
20	0x4371f597	241.95934
21	0x36eea803	7.112512e-06
22	0x36fe0e13	7.5714283e-06
23	0x432eaf25	174.68416
24	0x4392b82e	293.4389
25	0x36fe0ded	7.571411e-06
26	0x36dd0448	6.5868117e-06
27	0x372633b5	9.90641e-06
28	0x450f33f6	2291.2476
29	0x3711aeef	8.683403e-06
30	0x36fe0dbb	7.5713883e-06
31	0x37346fda	1.07548785e-05
32	0x3707e68e	8.100307e-06
33	0x36fe0ddb	7.571403e-06
34	0x36fe0dd9	7.571402e-06
35	0x36fe0da9	7.57138e-06
36	0x3713d2a0	8.810923e-06
37	0x36fe0de7	7.5714083e-06
38	0x4581a1f0	4148.242
39	0x37092c0d	8.176093e-06
40	0x47c3c703	100238.02
41	0x36fe0dfb	7.5714174e-06
42	0x36fe0df0	7.5714124e-06
43	0x4439018d	740.02423
44	0x36f437d0	7.278264e-06
45	0x36fe0dd1	7.5713983e-06
46	0x36fe0dd1	7.5713983e-06
47	0x373af6ef	1.1143958e-05
48	0x36fe0df0	7.5714124e-06
49	0x46c975d3	25786.912
50	0x378c9916	1.6760587e-05
51	0x36fe0dd7	7.571401e-06
52	0x37408ef3	1.1477375e-05
53	0x36fefd4b	7.599277e-06
54	0x36fe0e05	7.571422e-06
55	0x46ac2299	22033.299
56	0x36fe0dee	7.5714115e-06
57	0x36ae8a12	5.2016776e-06
58	0x44df9421	1788.629
59	0x36fe0e01	7.57142e-06
60	0x452d162b	2769.3855
61	0x36fe0dcf	7.5713974e-06
62	0x4635e4d0	11641.203
63	0x36212f97	2.401857e-06
64	0x36e3d5f3	6.790034e-06
65	0x37070dd1	8.049844e-06
66	0x36fe0ddd	7.571404e-06
67	0x36fe0de9	7.5714092e-06
68	0x36fe0e17	7.57143e-06
69	0x36fe0dc7	7.571394e-06
70	0x36fe0e19	7.571431e-06
71	0x36fe0dcb	7.5713956e-06
72	0x36fe0ddb	7.571403e-06
73	0x36fe0dd5	7.5714e-06
74	0x36f0f270	7.180781e-06
75	0x3709cd46	8.21363e-06
76	0x3f553386	0.83281744
77	0x371b65b7	9.262402e-06
78	0x36fe0deb	7.57141e-06
79	0x36fe0dcb	7.5713956e-06
80	0x36fe0ded	7.571411e-06
81	0x36fe0dd3	7.5713992e-06
82	0x371038be	8.59628e-06
83	0x36fe0de9	7.5714092e-06
84	0x36fe0db7	7.5713865e-06
85	0x36fe0ddb	7.571403e-06
86	0x37059cff	7.963971e-06
87	0x36fe0dd9	7.571402e-06
88	0x36992cbd	4.5649635e-06
89	0x377376e1	1.4511607e-05
90	0x36b7f47c	5.4822867e-06
91	0x45c3258c	6244.6934
92	0x36fe0e11	7.5714274e-06
93	0x36fe0dd3	7.5713992e-06
94	0x37120da9	8.705459e-06
95	0x36fe0dc9	7.5713947e-06
96	0x44e35ed2	1818.9631
97	0x413f7942	11.967104
98	0x349b3395	2.890853e-07
99	0x349bdd21	2.9031892e-07
100	0x35049fcf	4.9406384e-07
101	0x349bdd17	2.9031864e-07
102	0x349bdd35	2.903195e-07
103	0x451f6835	2550.513
104	0x349bdd0e	2.9031838e-07
105	0x349bdd2d	2.9031926e-07
106	0x34724653	2.256359e-07
107	0x34d61e20	3.9882525e-07
108	0x400cf033	2.2021606
109	0x349bdd1b	2.9031875e-07
110	0x435bccf3	219.80058
111	0x3490fd0a	2.70062e-07
112	0x3586e1cf	1.0049497e-06
113	0x349bdd10	2.9031844e-07
114	0x3e0070ab	0.1254298
115	0x348f6cc4	2.6714963e-07
116	0x42a3a65a	81.824905
117	0x34975cd6	2.819349e-07
118	0x349bdd38	2.9031958e-07
119	0x408d540e	4.4165106
120	0x4064cfdb	3.5751865
121	0x349bdd2b	2.903192e-07
122	0x3492b930	2.732936e-07
123	0x34bca476	3.513739e-07
124	0x4387fa4e	271.9555
125	0x34a5390e	3.0775158e-07
126	0x349bdd0d	2.9031835e-07
127	0x34ac0ae3	3.2045418e-07
128	0x349e20f2	2.9453764e-07
129	0x349bdd0d	2.9031835e-07
130	0x349bdd0d	2.9031835e-07
131	0x349bdd08	2.903182e-07
132	0x34798309	2.3237602e-07
133	0x349bdd27	2.903191e-07
134	0x45247930	2631.5742
135	0x349e7e30	2.9521607e-07
136	0x43f4314f	488.38522
137	0x349bdd34	2.9031946e-07
138	0x349bdd24	2.90319e-07
139	0x43ea88a3	469.06747
140	0x346c87b6	2.2028584e-07
141	0x349bdd17	2.9031864e-07
142	0x349bdd31	2.9031938e-07
143	0x348fddfb	2.6797338e-07
144	0x349bdd16	2.903186e-07
145	0x438a1c7c	276.22253
146	0x35c67e1a	1.478885e-06
147	0x349bdd26	2.9031906e-07
148	0x34ad0a22	3.2231134e-07
149	0x34b25a1e	3.3220653e-07
150	0x349bdd2d	2.9031926e-07
151	0x4509449d	2196.2883
152	0x349bdd2d	2.9031926e-07
153	0x346b245f	2.1899312e-07
154	0x43ca893d	405.07217
155	0x349bdd2d	2.9031926e-07
156	0x4340ee7c	192.93158
157	0x349bdd2d	2.9031926e-07
158	0x44012f3a	516.7379
159	0x34c7673f	3.714176e-07
160	0x34774fb7	2.3032668e-07
161	0x346b5eb2	2.192053e-07
162	0x349bdd14	2.9031855e-07
163	0x349bdd2c	2.9031924e-07
164	0x349bdd29	2.9031915e-07
165	0x349bdd11	2.9031847e-07
166	0x349bdd33	2.9031943e-07
167	0x349bdd0d	2.9031835e-07
168	0x349bdd2c	2.9031924e-07
169	0x349bdd18	2.9031867e-07
170	0x3477980f	2.3058986e-07
171	0x349577fd	2.7840716e-07
172	0x3d9fe733	0.078077696
173	0x34e92783	4.342838e-07
174	0x349bdd23	2.9031898e-07
175	0x349bdd1e	2.9031884e-07
176	0x349bdd2c	2.9031924e-07
177	0x349bdd15	2.9031858e-07
178	0x34999e69	2.861373e-07
179	0x349bdd18	2.9031867e-07
180	0x349bdd0e	2.9031838e-07
181	0x349bdd42	2.9031986e-07
182	0x349e50b8	2.9488524e-07
183	0x349bdd2a	2.9031918e-07
184	0x340ce3c2	1.3121374e-07
185	0x34faa935	4.6689243e-07
186	0x34757875	2.2861225e-07
187	0x43d210ed	420.13223
188	0x349bdd37	2.9031955e-07
189	0x349bdd3a	2.9031963e-07
190	0x348523e5	2.4799297e-07
191	0x349bdd25	2.9031904e-07
192	0x4845f9c9	202727.14
193	0x43e8498c	464.5746
194	0x3fe2882a	1.7697804
195	0x3fe35309	1.7759715
196	0x403fc040	2.996109
197	0x3fe352ff	1.7759703
198	0x3fe35302	1.7759707
199	0x46f6d22a	31593.082
200	0x3fe35300	1.7759705
201	0x3fe3530f	1.7759722
202	0x400501cc	2.0782347
203	0x3ffa30ab	1.9546102
204	0x45650bc8	3664.7363
205	0x3fe352fe	1.7759702
206	0x47c24a55	99476.664
207	0x3fd98012	1.6992209
208	0x4042557e	3.036468
209	0x3fe35308	1.7759714
210	0x448fa6e9	1149.216
211	0x3ff2ec61	1.8978387
212	0x4718ceb5	39118.707
213	0x3ff432a0	1.907795
214	0x3fe35308	1.7759714
215	0x46050735	8513.802
216	0x461efd10	10175.266
217	0x3fe35301	1.7759706
218	0x3fcbd2ba	1.5923684
219	0x3ff9770b	1.9489454
220	0x456813b6	3713.232
221	0x3fe4f92c	1.7888541
222	0x3fe3530f	1.7759722
223	0x3fe43875	1.7829729
224	0x3fe8b605	1.8180548
225	0x3fe35300	1.7759705
226	0x3fe35302	1.7759707
227	0x3fe35301	1.7759706
228	0x3fdbbbb0	1.7166653
229	0x3fe35301	1.7759706
230	0x471708da	38664.85
231	0x3fe354f7	1.7760304
232	0x47ceb9ed	105843.85
233	0x3fe35306	1.7759712
234	0x3fe35300	1.7759705
235	0x43f96e15	498.86002
236	0x3fc76287	1.5576943
237	0x3fe352fe	1.7759702
238	0x3fe35300	1.7759705
239	0x3fd61f81	1.6728364
240	0x3fe35305	1.775971
241	0x46ff6166	32688.7
242	0x405f8a93	3.492833
243	0x3fe35306	1.7759712
244	0x3fe2eb4d	1.7728058
245	0x3fdf4659	1.7443343
246	0x3fe35309	1.7759715
247	0x480403b3	135182.8
248	0x3fe35303	1.7759708
249	0x3fc148ef	1.5100383
250	0x45fd7bcc	8111.4746
251	0x3fe3530a	1.7759717
252	0x4718283c	38952.234
253	0x3fe352ff	1.7759703
254	0x479b3be8	79479.81
255	0x4003c526	2.058908
