model/lstm_decoder.pt (torch, 348141 bytes, 15 tensors)

attn.weight f4 [6, 193]
00000000: 320d c93e 4d2d bc3d c7de 18bd 764f e5b8
00000010: dc4f e5b8 874f e5b8 344f e5b8 c5bc 2fb7
00000020: 804f e5b8 d18d 743d 3d80 bebc d14f e5b8
00000030: 504f e5b8 824f e5b8 7f4f e5b8 3f91 61bd
00000040: debd cebb 0415 123e edd6 3fbe 38f4 a43e
00000050: eb4e e5b8 534f e5b8 674f e5b8 324b a1bd
00000060: 3d4f e5b8 f231 49be 464f e5b8 bff0 afbb
00000070: 1187 8ebd cc9d 1c3b 6a4f e5b8 fec2 a3bd
00000080: 874f e5b8 2024 dabd 4c4f e5b8 b45a 643d
00000090: f7b6 833e 3c4f e5b8 49da a3bd f74e e5b8
000000a0: 9859 e0bc 5d4f e5b8 564f e5b8 4374 073c
000000b0: ddd2 23be ad4f e5b8 a615 91b8 e33b 6bbe
000000c0: f307 333e 744f e5b8 794f e5b8 504b 7938
000000d0: 4eb8 233d 344f e5b8 6e0c eab8 f4b6 1f3e
000000e0: 554f e5b8 7c4f e5b8 7a4f e5b8 654f e5b8
000000f0: e386 473e 6a2d 383e 426b 3e3e b94f e5b8
00000100: 3ac1 b3bd 52c5 80be 994f e5b8 ec27 7fb7
00000110: 275b 43be 894f e5b8 02bb 25ba 708a 30be
00000120: 9a4f e5b8 dcf7 6db9 5900 eebd 1e09 063c
00000130: 644f e5b8 284f e5b8 ae4f e5b8 6b4f e5b8
00000140: 0dc8 893d 3c4f e5b8 264f e5b8 909a b03e
00000150: 7cc7 bfbd 3c4f e5b8 6f4f e5b8 4146 b73c
00000160: a87b 9b3d 664f e5b8 aa00 b4bd 834f e5b8
00000170: bc4f e5b8 3c4f e5b8 cc4f e5b8 324f e5b8
00000180: 9d92 3b3d b2c2 b33d 9285 02be f22d 043c
00000190: 342e 043c b32d 043c e62d 043c 9293 0c3c
000001a0: c72d 043c 3c8a b8bb 1704 cdbb 152e 043c
000001b0: cf2d 043c f52d 043c df2d 043c f1b7 b93d
000001c0: 772e 07bc 9c3d 92bd 9afa 6b3e baab ae3d
000001d0: 0c2e 043c ee2d 043c 332e 043c fe19 f63c
000001e0: fd2d 043c 8e25 9ebe e92d 043c dc0c a73d
000001f0: d364 35bc eed3 2ebc 142e 043c 2d77 713d
00000200: e42d 043c ae7b 5a3e ec2d 043c ff97 323e
00000210: 0292 433e e02d 043c 399b 52be 092e 043c
00000220: cfc4 85bd d82d 043c b62d 043c 7c2b 05be
00000230: 0e25 19be f12d 043c 1aa4 e03c 8e8b bbbd
00000240: 9488 3dbc fb2d 043c ea2d 043c 03fa ef3d
00000250: 9d6c dc3d f62d 043c 4f36 fb3b 7627 9f3d
00000260: df2d 043c fa2d 043c f02d 043c 042e 043c
00000270: e768 7bbd ee05 1fbd c026 08be f92d 043c
00000280: 1ce0 163d 8ae0 10be 0f2e 043c 1822 0bbe
00000290: a249 81bc ec2d 043c 90b8 023c 08f3 87bc
000002a0: ea2d 043c 8d0a f03d 4eee 0bbe c43c f1bc
000002b0: e42d 043c de2d 043c d12d 043c fc2d 043c
000002c0: aefb 2b3e d42d 043c 042e 043c 7d13 493d
000002d0: bc9a 8a3d e12d 043c 012e 043c 5478 c3bc
000002e0: 820b fd3d 152e 043c b7eb 4c3c e92d 043c
000002f0: c72d 043c bb2d 043c ef2d 043c cd2d 043c
00000300: fb34 1ebe 5861 d03e 5c03 76bd cf09 223c
00000310: 67a6 3bba 6ca6 3bba 61a6 3bba 85a6 3bba
00000320: eb6b 04bb 69a6 3bba 8399 95bd 66d9 00be
00000330: 79a6 3bba 53a6 3bba 57a6 3bba 5ba6 3bba
00000340: c04c c83d f514 5ebc e170 8b3d 0dd9 f03d
00000350: 908b 093f 65a6 3bba 5ea6 3bba 62a6 3bba
00000360: ff56 fdbd 5aa6 3bba 17e0 fcbe 43a6 3bba
00000370: f382 5b3e d6b3 27bd ff76 b83c 51a6 3bba
00000380: 09fb 0c3d 39a6 3bba 00d8 39be 5ea6 3bba
00000390: cda0 403d d86a 9e3e 4ca6 3bba 104d 973d
000003a0: 4aa6 3bba fff0 d9bd 71a6 3bba 3ba6 3bba
000003b0: 489b ecbc e5b9 b2be 58a6 3bba a150 4db9
000003c0: 56f0 28be 2788 1ebe 3aa6 3bba 87a6 3bba
000003d0: 4db8 f8ba e735 db3d 69a6 3bba f95a d5ba
000003e0: 25a9 e33d 65a6 3bba 61a6 3bba 46a6 3bba
000003f0: 46a6 3bba 284a 953d 7027 7a3e b4e0 a9bd
0.3926788 0.09188328 -0.037321832 -0.00010934372 -0.00010934446 -0.00010934384 -0.00010934324 -1.0474764e-05
-0.00010934379 0.05970556 -0.023254508 -0.00010934438 -0.00010934344 -0.000109343804 -0.00010934378 -0.055070158
-0.006309255 0.1426583 -0.18734331 0.32217574 -0.000109342705 -0.00010934346 -0.00010934361 -0.078756705
-0.0001093433 -0.19647959 -0.00010934337 -0.0053692753 -0.069593556 0.0023897765 -0.00010934363 -0.07996176
-0.00010934384 -0.106514215 -0.00010934341 0.055750564 0.2572553 -0.000109343295 -0.08000619 -0.00010934279
-0.027386472 -0.000109343535 -0.000109343484 0.008267465 -0.15998407 -0.00010934412 -6.918171e-05 -0.22972064
0.17483501 -0.0001093437 -0.00010934374 5.9436366e-05 0.03997069 -0.00010934324 -0.00011160305 0.15597135
-0.00010934348 -0.00010934376 -0.000109343746 -0.00010934359 0.19485049 0.17986074 0.18595603 -0.000109344204
-0.087770894 -0.25150543 -0.00010934397 -1.5208479e-05 -0.1907774 -0.000109343855 -0.0006322117 -0.1724031
-0.00010934398 -0.00022694416 -0.1162116 0.008180885 -0.000109343586 -0.00010934315 -0.000109344124 -0.00010934364
0.0672761 -0.000109343295 -0.000109343135 0.34492922 -0.093642205 -0.000109343295 -0.000109343666 0.022372367
0.07591945 -0.0001093436 -0.08789189 -0.00010934381 -0.000109344226 -0.000109343295 -0.00010934434 -0.00010934322
0.04579412 0.087773696 -0.12746266 0.008067595 0.008067656 0.008067536 0.008067584 0.008580105
0.008067555 -0.005631713 -0.006256591 0.008067627 0.008067562 0.008067598 0.008067577 0.09068287
-0.008250824 -0.07140657 0.23044816 0.08528848 0.008067619 0.008067591 0.008067655 0.03004169
0.008067605 -0.30888027 0.008067586 0.081567496 -0.011071402 -0.010670645 0.0080676265 0.058951546
0.008067582 0.21336243 0.008067589 0.17440794 0.19098666 0.008067578 -0.20567025 0.008067616
-0.06531679 0.008067571 0.008067539 -0.13004869 -0.14955541 0.008067594 0.027422 -0.09157477
-0.011568207 0.008067603 0.008067587 0.11717608 0.10762904 0.008067599 0.007666386 0.077711985
0.008067577 0.008067602 0.008067593 0.008067612 -0.06137934 -0.038824014 -0.13296032 0.008067601
0.03683482 -0.14148155 0.008067622 -0.13587224 -0.015782181 0.008067589 0.007978573 -0.016595379
0.008067587 0.117207624 -0.13665125 -0.02944792 0.008067582 0.008067576 0.008067564 0.008067604
0.16795227 0.008067567 0.008067612 0.04909085 0.067677945 0.008067579 0.008067609 -0.023861088
0.123557106 0.008067627 0.012507371 0.008067586 0.008067555 0.008067544 0.008067592 0.00806756
-0.15449898 0.40699267 -0.060061797 0.009890034 -0.000715828 -0.00071582827 -0.0007158276 -0.0007158297
-0.0020205926 -0.0007158281 -0.07304671 -0.12582931 -0.000715829 -0.0007158268 -0.00071582705 -0.0007158273
0.09780264 -0.013554801 0.06808639 0.11760149 0.5372858 -0.00071582786 -0.00071582745 -0.0007158277
-0.12370109 -0.0007158272 -0.49389717 -0.0007158259 0.21436672 -0.04094299 0.02251768 -0.0007158267
0.034419093 -0.0007158253 -0.18148804 -0.00071582745 0.04702835 0.3094089 -0.0007158264 0.073877454
-0.0007158263 -0.106416695 -0.00071582856 -0.0007158254 -0.028882638 -0.3490745 -0.0007158271 -0.0001958036
-0.16497931 -0.15481625 -0.00071582536 -0.00071582984 -0.0018975824 0.107036404 -0.0007158281 -0.0016277722
0.11116246 -0.00071582786 -0.0007158276 -0.00071582606 -0.00071582606 0.07289535 0.24429107 -0.08294812

attn.bias f4 [6]
00000000: 5492 09be 6d0b 19bc 2da9 c0bd 693e 4e3d
00000010: 70a1 843d 7d72 673e
-0.13434726 -0.009341103 -0.09407268 0.050352488 0.06476104 0.22602268

attn_combine.weight f4 [96, 97]
00000000: fdcf 6c3c e183 5837 659b 15b7 73ce 88b8
00000010: 0ccf 88b8 41cf 88b8 bace 88b8 eccc 0f39
00000020: b3cd 88b8 2df5 f236 c453 8738 c7cd 88b8
00000030: 37cf 88b8 c6ce 88b8 dece 88b8 6d32 1439
00000040: a65c 2e37 8662 7037 84ab 91b7 880a f2bc
00000050: 1acf 88b8 1cd1 88b8 afcd 88b8 38a1 41b7
00000060: a4cf 88b8 66b1 a63b 11cf 88b8 6588 c438
00000070: 30a7 7cb8 2de5 f5b7 face 88b8 f1ba adb8
00000080: 06d1 88b8 3e66 943d c1cf 88b8 e522 00b9
00000090: e120 323e face 88b8 ad53 7838 00d0 88b8
000000a0: 181e 85b8 2ccf 88b8 f5d1 88b8 5c64 88b8
000000b0: c791 bdbb 03cf 88b8 0535 8738 e8ac 793d
000000c0: 4513 8638 3fcf 88b8 7fce 88b8 48e0 8d37
000000d0: 10a0 9738 3ad0 88b8 e1a3 e2b8 51d4 8138
000000e0: a7cf 88b8 f3cd 88b8 e6cd 88b8 16ce 88b8
000000f0: 48e9 e3b7 8b3c b7b6 c58f 1c3e 03cf 88b8
00000100: 7b3c 9638 d61d c3bc 0dcf 88b8 5c90 bab8
00000110: e1d2 16b8 efcd 88b8 6794 c439 f2f7 9eb8
00000120: ddcf 88b8 cf3a c438 74ca db3c ff0f 8b35
00000130: accf 88b8 9cce 88b8 65cf 88b8 f4ce 88b8
00000140: ddd0 33bd c3cf 88b8 52cf 88b8 6603 8ab8
00000150: 44f7 e2b7 30d1 88b8 c5cf 88b8 acfd 9fb8
00000160: 23b7 0d3e ffce 88b8 b49c 163e e7ce 88b8
00000170: cbcf 88b8 f0ce 88b8 edce 88b8 61d1 88b8
00000180: 9a86 9838 d300 0000 c807 0080 b703 0080
00000190: 1a08 0080 a907 0000 6204 0000 2b03 0000
000001a0: d107 0080 eb03 0080 c60b 0000 bc08 0000
000001b0: 1904 0000 1f04 0000 c403 0000 bc08 0000
000001c0: b30e 0080 710a 0080 6201 0000 4a0b 0080
000001d0: e201 0000 5c03 0000 6403 0000 3203 0000
000001e0: de03 0080 8209 0000 7402 0080 ce08 0000
000001f0: b002 0000 c00d 0000 d804 0000 4b04 0000
00000200: ba02 0000 2304 0000 8802 0000 610d 0000
00000210: b902 0080 7000 0000 6404 0000 320a 0080
00000220: 8108 0000 c002 0000 1004 0080 3104 0000
00000230: d708 0000 6b08 0000 b703 0000 630e 0000
00000240: b601 0080 6203 0000 5c0d 0000 0b03 0000
00000250: 4906 0000 9a0a 0000 4108 0000 b70a 0080
00000260: 6a05 0080 b708 0000 1c04 0080 2904 0080
00000270: 5c0d 0000 d607 0000 cc01 0000 3a00 0080
00000280: 9d08 0000 7308 0000 9e02 0000 1708 0080
00000290: d909 0000 f20b 0080 0204 0000 cc02 0080
000002a0: a508 0000 fa03 0080 ef07 0080 9804 0000
000002b0: b308 0080 4403 0000 3103 0000 5d0d 0000
000002c0: bc07 0000 fb00 0080 f203 0080 4708 0000
000002d0: 1209 0000 e103 0000 7203 0000 e403 0080
000002e0: c10b 0080 a701 0080 e903 0080 8002 0000
000002f0: 8108 0000 4204 0000 2004 0080 a407 0000
00000300: 0f03 0000 4c03 0080 a809 0080 030d 0080
00000310: 9a08 0080 ee02 0000 d003 0080 8308 0000
00000320: 0508 0000 590e 0080 7207 0000 870c 0080
00000330: e80e 0080 2504 0000 d003 0080 4506 0000
00000340: 8304 0080 8303 0080 2809 0080 2a0d 0080
00000350: 860e 0000 f507 0000 5e03 0000 7404 0000
00000360: 4506 0000 dc08 0080 7207 0000 8703 0000
00000370: 4906 0000 240d 0080 860b 0000 b40c 0000
00000380: 4906 0000 4806 0080 ce07 0000 0401 0000
00000390: cc03 0080 7304 0000 8f0d 0000 0103 0000
000003a0: 000f 0080 f502 0000 890d 0000 4104 0000
000003b0: 0004 0000 fd0d 0000 a80c 0080 0703 0000
000003c0: c00c 0080 fd07 0080 a90c 0080 af02 0000
000003d0: 6d04 0000 c90b 0080 1306 0000 5d04 0000
000003e0: d70c 0000 d40c 0000 d003 0080 2b04 0000
000003f0: 4504 0000 0103 0000 ab03 0080 e103 0080
0.014453885 1.2905309e-05 -8.917273e-06 -6.5234395e-05 -6.523551e-05 -6.5235894e-05 -6.523491e-05 0.00013713882
-6.5233e-05 7.2407042e-06 6.452904e-05 -6.5233144e-05 -6.523582e-05 -6.5235e-05 -6.5235174e-05 0.00014133165
1.039278e-05 1.4328054e-05 -1.7365215e-05 -0.029546037 -6.523561e-05 -6.523935e-05 -6.523297e-05 -1.1541233e-05
-6.5236614e-05 0.0050870655 -6.5235545e-05 9.371414e-05 -6.0237187e-05 -2.9312994e-05 -6.523538e-05 -8.2841034e-05
-6.523919e-05 0.07246064 -6.5236825e-05 -0.0001222003 0.17395355 -6.523538e-05 5.9205737e-05 -6.5237284e-05
-6.3475396e-05 -6.523574e-05 -6.524093e-05 -6.503679e-05 -0.0057852003 -6.523544e-05 6.447177e-05 0.060955912
6.393207e-05 -6.523588e-05 -6.523448e-05 1.6912949e-05 7.230055e-05 -6.5237706e-05 -0.000108070446 6.190746e-05
-6.5236636e-05 -6.5233464e-05 -6.523337e-05 -6.523372e-05 -2.7169139e-05 -5.460873e-06 0.15289219 -6.523544e-05
7.163823e-05 -0.023817938 -6.5235516e-05 -8.89606e-05 -3.5959183e-05 -6.5233435e-05 0.00037494602 -7.5802105e-05
-6.523703e-05 9.356962e-05 0.026829936 1.0360963e-06 -6.523667e-05 -6.523469e-05 -6.5236156e-05 -6.5235334e-05
-0.04390036 -6.523684e-05 -6.523602e-05 -6.580986e-05 -2.7056441e-05 -6.5239496e-05 -6.5236854e-05 -7.628961e-05
0.13839392 -6.5235414e-05 0.14708215 -6.523524e-05 -6.52369e-05 -6.5235305e-05 -6.523528e-05 -6.523985e-05
7.272996e-05 2.96e-43 -2.791e-42 -1.333e-42 -2.906e-42 2.748e-42 1.572e-42 1.136e-42
-2.804e-42 -1.406e-42 4.224e-42 3.133e-42 1.47e-42 1.478e-42 1.351e-42 3.133e-42
-5.273e-42 -3.746e-42 4.96e-43 -4.05e-42 6.75e-43 1.205e-42 1.216e-42 1.146e-42
-1.387e-42 3.411e-42 -8.8e-43 3.159e-42 9.64e-43 4.933e-42 1.738e-42 1.54e-42
9.78e-43 1.484e-42 9.08e-43 4.8e-42 -9.77e-43 1.57e-43 1.575e-42 -3.657e-42
3.05e-42 9.87e-43 -1.457e-42 1.504e-42 3.171e-42 3.02e-42 1.333e-42 5.161e-42
-6.14e-43 1.214e-42 4.792e-42 1.092e-42 2.255e-42 3.803e-42 2.961e-42 -3.844e-42
-1.942e-42 3.126e-42 -1.474e-42 -1.492e-42 4.792e-42 2.811e-42 6.45e-43 -8.1e-44
3.09e-42 3.031e-42 9.39e-43 -2.902e-42 3.533e-42 -4.285e-42 1.438e-42 -1.003e-42
3.101e-42 -1.427e-42 -2.846e-42 1.648e-42 -3.12e-42 1.171e-42 1.145e-42 4.794e-42
2.775e-42 -3.52e-43 -1.415e-42 2.97e-42 3.254e-42 1.391e-42 1.236e-42 -1.396e-42
-4.217e-42 -5.93e-43 -1.403e-42 8.97e-43 3.05e-42 1.527e-42 -1.48e-42 2.741e-42
1.097e-42 -1.183e-42 -3.464e-42 -4.668e-42 -3.086e-42 1.051e-42 -1.368e-42 3.053e-42
2.877e-42 -5.147e-42 2.671e-42 -4.494e-42 -5.347e-42 1.487e-42 -1.368e-42 2.249e-42
-1.618e-42 -1.26e-42 -3.285e-42 -4.722e-42 5.21e-42 2.854e-42 1.208e-42 1.597e-42
2.249e-42 -3.178e-42 2.671e-42 1.265e-42 2.255e-42 -4.714e-42 4.134e-42 4.557e-42
2.255e-42 -2.253e-42 2.8e-42 3.64e-43 -1.362e-42 1.596e-42 4.864e-42 1.078e-42
-5.381e-42 1.061e-42 4.855e-42 1.526e-42 1.435e-42 5.018e-42 -4.54e-42 1.086e-42
-4.574e-42 -2.866e-42 -4.542e-42 9.63e-43 1.588e-42 -4.228e-42 2.179e-42 1.565e-42
4.606e-42 4.602e-42 -1.368e-42 1.495e-42 1.532e-42 1.078e-42 -1.316e-42 -1.391e-42

attn_combine.bias f4 [96]
00000000: 8014 25b7 1004 0080 f007 0080 220e 0080
00000010: 137c 8138 8d07 0080 aa77 82b8 2104 0080
00000020: 6506 0000 36b0 0c14 510d 0080 6a09 0080
00000030: cb07 0080 2b0f 0080 2104 0080 0c0c 0000
00000040: a103 0080 a101 0000 50ee 908e 630d 0000
00000050: 3e4a cd38 9d07 0000 a803 0000 5b04 0000
00000060: bc08 0000 5e04 0080 16fb 1438 0930 5db8
00000070: 6d08 0080 4641 35b2 7b05 45a9 390c 0000
00000080: 9609 0080 5a42 10b8 16ab 4e10 fffb f0b7
00000090: 5203 0080 7a0e 0080 6208 0080 2b24 cb30
000000a0: 1de6 2c38 f403 0000 e904 0080 f80c 0080
000000b0: be0d 0000 850e 0080 179d 8524 ab03 0080
000000c0: c900 7b36 4803 0080 8a0c 0080 aa08 0080
000000d0: 7c0c 0080 07d9 07b6 aaa4 4a38 3c08 0000
000000e0: 3a3e 6138 ce08 0000 5404 0080 0d0f 0000
000000f0: 210d 0000 cfb1 45b8 b30d 0000 5a04 0000
00000100: 0409 0080 7a0d 0080 8d08 0000 ca07 0080
00000110: be53 bcb7 d008 0080 3b0d 0080 7b0c 0000
00000120: f00c 0080 7d0c 0000 a90b 0080 b8a9 82b7
00000130: b107 0000 4804 0080 4d08 0080 790c 0080
00000140: 1b08 0000 5008 0080 f807 0080 b002 0080
00000150: 760c 0080 3b04 0000 cb03 0080 fa0d 0080
00000160: 1504 0000 b407 0000 3f06 0000 490c 0000
00000170: 050e 0e02 bd43 d384 ca08 0080 0003 0000
-9.839539e-06 -1.457e-42 -2.847e-42 -5.07e-42 6.17431e-05 -2.709e-42 -6.221172e-05 -1.481e-42
2.294e-42 7.102945e-27 -4.777e-42 -3.377e-42 -2.796e-42 -5.441e-42 -1.481e-42 4.322e-42
-1.302e-42 5.84e-43 -3.5728227e-30 4.802e-42 9.7889904e-05 2.731e-42 1.312e-42 1.562e-42
3.133e-42 -1.567e-42 3.551979e-05 -5.2735242e-05 -3.023e-42 -1.0550428e-08 -4.374754e-14 4.385e-42
-3.439e-42 -3.439407e-05 4.0758136e-29 -2.8727574e-05 -1.191e-42 -5.193e-42 -3.007e-42 1.4780474e-09
4.1222305e-05 1.418e-42 -1.761e-42 -4.652e-42 4.93e-42 -5.209e-42 5.7945676e-17 -1.316e-42
3.7402372e-06 -1.177e-42 -4.498e-42 -3.108e-42 -4.479e-42 -2.0242894e-06 4.831391e-05 2.954e-42
5.3702133e-05 3.159e-42 -1.553e-42 5.399e-42 4.71e-42 -4.7134057e-05 4.914e-42 1.561e-42
-3.234e-42 -4.834e-42 3.067e-42 -2.794e-42 -2.2450342e-05 -3.161e-42 -4.746e-42 4.477e-42
-4.641e-42 4.48e-42 -4.183e-42 -1.557624e-05 2.759e-42 -1.536e-42 -2.978e-42 -4.474e-42
2.908e-42 -2.982e-42 -2.859e-42 -9.64e-43 -4.47e-42 1.518e-42 -1.36e-42 -5.014e-42
1.464e-42 2.763e-42 2.24e-42 4.407e-42 1.0436536e-37 -4.966807e-36 -3.153e-42 1.076e-42

bn.weight f4 [96]
00000000: b5c5 083f 610e d825 6006 0080 9901 0000
00000010: a17c ee3e 31b7 14ae fe1f 1b3f b209 f1b7
00000020: 4206 0080 22df 9ab7 8c0c 0000 5a01 0080
00000030: 1d07 0080 8f0d 0080 d80b 0000 162f 8eb6
00000040: 9d00 0080 ae00 0000 8a39 fcb8 d101 0080
00000050: eb6d 6d3f 5103 0080 6301 0000 8c01 0000
00000060: 3102 0080 3111 e731 ed77 2a3f 0e2a 1d3f
00000070: 2cb4 5035 f9c3 3639 bbac 33b5 8501 0000
00000080: 0a00 0080 2d39 063f 349c 9fb8 0f8d 143f
00000090: 6d01 0080 2f0e 0000 4ee7 73b4 9911 76b9
000000a0: f462 153f 4e01 0080 f30d 0080 c208 0000
000000b0: b301 0080 c404 0000 0c4b 8338 fb44 2a38
000000c0: 7274 f63e 4406 0080 8245 cb37 d0f6 1438
000000d0: 4c00 0000 8b9b 463f 8bf5 343f f300 0080
000000e0: d8bf 263f c69a d337 aa02 0080 ef55 6638
000000f0: b65f 3a37 ec31 273f 2adf 3f2c d00e 0000
00000100: 1e02 0000 2d0d 0000 ff00 0000 7f02 0000
00000110: 6eb8 5c3f d11b 8519 a581 b0a6 0c0d 0000
00000120: 1a05 0000 d562 f0b7 6c00 0080 548e 203f
00000130: 9404 0000 15b5 5301 4544 4ab3 1e1e 54ac
00000140: a402 0000 7abd c2b6 9838 0ca3 f30a 0000
00000150: 0495 f98a 7b09 0000 b8a4 aab6 ce04 0080
00000160: 9987 8a36 e903 0000 7e08 0000 1d01 0000
00000170: 6359 8538 0105 9c10 65e5 75b6 7c01 0080
0.53426677 3.747977e-16 -2.287e-42 5.73e-43 0.4657946 -3.381401e-11 0.6059569 -2.8733954e-05
-2.245e-42 -1.8462135e-05 4.501e-42 -4.85e-43 -2.552e-42 -4.864e-42 4.249e-42 -4.2374113e-06
-2.2e-43 2.44e-43 -0.00012027014 -6.52e-43 0.92745847 -1.19e-42 4.97e-43 5.55e-43
-7.86e-43 6.7249393e-09 0.6658924 0.61392295 7.774822e-07 0.00017429878 -6.693405e-07 5.45e-43
-1.4e-44 0.52430993 -7.610806e-05 0.5802774 -5.11e-43 5.088e-42 -2.2715287e-07 -0.00023466944
0.58354115 -4.68e-43 -5.004e-42 3.142e-42 -6.1e-43 1.71e-42 6.260545e-05 4.05954e-05
0.48135716 -2.248e-42 2.4231853e-05 3.551581e-05 1.06e-43 0.7758109 0.7068717 -3.4e-43
0.6513648 2.5225232e-05 -9.56e-43 5.4916305e-05 1.1108748e-05 0.6531055 2.7266613e-12 5.314e-42
7.6e-43 4.727e-42 3.57e-43 8.95e-43 0.8621892 1.3763113e-23 -1.2247593e-15 4.68e-42
1.83e-42 -2.8656252e-05 -1.51e-43 0.62717175 1.642e-42 3.88845e-38 -4.709388e-08 -3.014373e-12
9.47e-43 -5.8037085e-06 -7.601399e-18 3.928e-42 -2.4033881e-32 3.401e-42 -5.0855706e-06 -1.724e-42
4.128506e-06 1.403e-42 3.046e-42 4e-43 6.358584e-05 6.153886e-29 -3.664137e-06 -5.32e-43

bn.bias f4 [96]
00000000: 5c73 053f 702e c9b0 f929 e4ad e309 87aa
00000010: 458a 483f 461a f2b2 80d4 a33e 0802 23b9
00000020: 7bb2 f5b5 c7ba 1ab9 8903 2db7 3f6a 208e
00000030: dd04 f5b7 3cc5 5380 eaa0 2fa3 f02e e1b8
00000040: 47eb 4c8b 91a8 fdb7 174d 5cba d52e 2cb3
00000050: d948 8f3e 2402 97a4 c1b1 a5b8 7fa6 56ac
00000060: 517b c7a8 15c0 52b5 48e4 2dbe 46ac ed3e
00000070: 04e7 81b8 afac afb9 6eec 29b8 e49f acb3
00000080: 5461 34a0 980b 1d3f 5654 07ba c437 093f
00000090: d1f3 d8b3 d0c9 0ab9 233b 8eb7 eb3a 66ba
000000a0: 99d3 a23e c038 d4b7 cf7e 07b9 62ad 1ab2
000000b0: 8fba d8ad fcb8 48ad 93bc 8eb9 f350 82b9
000000c0: a5bd d03e 1887 d8b5 34b6 7bb9 b096 fbb6
000000d0: 1c1f 8093 1572 843e a5b6 e23e 7d4b 8bac
000000e0: be04 d83e b83c a7b8 df38 2428 06d7 a3b8
000000f0: b1c2 5ab8 32c4 533e 2a06 8aa7 54c6 b49f
00000100: 998b ffb7 c30a 06b3 d97e 66b1 ad05 2085
00000110: a22c 1bbe 2b8c 23b3 474c 9ba0 0e8c 1ca3
00000120: b279 8ba5 0520 17b9 398e 6d8b 91c5 9a3e
00000130: 600f 21b7 4898 3484 41c6 13b5 48a3 6fac
00000140: 9490 2387 134c d7b6 ee77 9ca4 de24 15b4
00000150: c809 cfb3 d44b 8ab4 9c9c b5b8 44c7 4a85
00000160: 4bdc 72b7 bb79 fa8c ada5 5ab6 4130 158a
00000170: 96e3 1fba 345f 99b9 5d31 17b8 9a4c 2bb5
0.5212915 -1.4637873e-09 -2.5939239e-11 -2.3987678e-13 0.7833598 -2.8184456e-08 0.31998062 -0.00015545648
-1.8305867e-06 -0.00014756164 -1.0312427e-05 -1.9772678e-30 -2.920854e-05 -7.6931e-39 -9.520844e-18 -0.00010737579
-3.9465974e-32 -3.0238445e-05 -0.0008403821 -4.0089464e-08 0.27985266 -6.548944e-17 -7.900922e-05 -3.0503653e-12
-2.2146918e-14 -7.851061e-07 -0.16981614 0.46420497 -6.194229e-05 -0.0003350726 -4.0512932e-05 -8.038458e-08
-1.5278796e-19 0.61345816 -0.00051624083 0.53600717 -1.0102634e-07 -0.00013235887 -1.6955257e-05 -0.0008782583
0.3180206 -2.5298796e-05 -0.00012921843 -9.0034025e-09 -2.4639206e-11 -1.14097586e-11 -0.0002722485 -0.00024855844
0.40769687 -1.6132572e-06 -0.00024005101 -7.4979253e-06 -3.234242e-27 0.25868288 0.44279972 -3.9589985e-12
0.42191118 -7.97449e-05 9.116161e-15 -7.812497e-05 -5.215657e-05 0.20680311 -3.8309377e-15 -7.656107e-20
-3.0463374e-05 -3.1209094e-08 -3.354151e-09 -7.524206e-36 -0.15153745 -3.8078877e-08 -2.6308497e-19 -8.486435e-18
-2.419512e-16 -0.0001441241 -4.5751536e-32 0.30228856 -9.599928e-06 -2.1228822e-36 -5.5050265e-07 -3.4054582e-12
-1.2305245e-34 -6.4163555e-06 -6.7857384e-17 -1.3890119e-07 -9.640968e-08 -2.5759675e-07 -8.659923e-05 -9.534594e-36
-1.4475615e-05 -3.8591863e-31 -3.2580967e-06 -7.1831646e-33 -0.00060992816 -0.00029253366 -3.604718e-05 -6.3813934e-07

bn.running_mean f4 [96]
00000000: 8be1 de3d b03b 0000 695e 0180 5412 0000
00000010: 0ad8 923f cb1b 552c 30e5 6ebf f191 cbbb
00000020: 5970 0000 7d06 96bb cdd9 0280 6319 0000
00000030: e1e3 0180 ac65 0200 3b25 0080 cb5c a0b9
00000040: 5d43 0000 2f07 0080 8c89 3ebc f007 0000
00000050: 3b93 2dbf 4400 0100 6835 0080 a76a 0080
00000060: 3eef 0000 ceae cab3 9a66 f13f 7765 68bf
00000070: d103 0fb8 61c1 b5bc 0f12 8c3c 381d 0000
00000080: bd0b 0000 35fc 033e 997c 84bc b293 4ebf
00000090: 6b54 0080 58e3 0000 196b 682c 5aed bbbc
000000a0: 51a0 783c 8939 0000 0955 0180 0014 0100
000000b0: 2942 0080 d03e 0180 7cdd 8abb 1d6f 8fba
000000c0: 31a4 203d 79c4 0080 e63b 073c ce66 55b8
000000d0: 1615 0000 aac7 ec3e a330 ae3e aa2a f89e
000000e0: 8619 e7bf 6a1c 733a 4e62 0080 f33e 0b3a
000000f0: c0e1 5d3b 1cdc 24bf a253 ad26 c4b3 0000
00000100: 4339 0100 3d19 0280 6e18 0000 cb32 0080
00000110: 2856 58bf db0a 1506 e535 0080 3534 0180
00000120: d012 0180 8c8b 76b9 c9a7 0080 0f43 99be
00000130: 375e 0100 462a 0000 2a78 bb31 8c48 9ba0
00000140: 4f9f 0080 cfc6 8038 2005 0000 10b4 0180
00000150: de27 0080 fd96 0080 93bd 893a d284 0180
00000160: 277c 0738 c902 0180 9b33 0180 d493 0100
00000170: bbcd 8a3c b45b 8014 2dce 06b8 f2a3 0000
0.10882863 2.1412e-41 -1.25703e-40 6.575e-42 1.147218 3.0284549e-12 -0.9331846 -0.006212466
4.0303e-41 -0.00457841 -2.61803e-40 9.107e-42 -1.73583e-40 2.20144e-40 -1.3356e-41 -0.00030586714
2.4165e-41 -2.577e-42 -0.011629473 2.847e-42 -0.6780278 9.1931e-41 -1.9159e-41 -3.826e-41
8.5824e-41 -9.438155e-08 1.8859437 -0.90779823 -3.409741e-05 -0.022186937 0.017098455 1.0482e-41
4.211e-42 0.12889178 -0.016172694 -0.80694115 -3.0283e-41 8.1556e-41 3.3028634e-12 -0.022940326
0.015174941 2.064e-41 -1.2234e-40 9.901e-41 -2.3734e-41 -1.14368e-40 -0.004237829 -0.0010943149
0.039219085 -7.0481e-41 0.008254027 -5.08789e-05 7.564e-42 0.46246082 0.34021482 -2.6275667e-20
-1.8054664 0.00092739484 -3.5265e-41 0.00053118094 0.0033856481 -0.6439836 1.2026955e-15 6.4488e-41
1.12377e-40 -1.92725e-40 8.764e-42 -1.8221e-41 -0.84506464 2.803176e-35 -1.9334e-41 -1.10564e-40
-9.8584e-41 -0.00023512373 -6.019e-41 -0.29933974 1.25633e-40 1.5165e-41 5.4560774e-09 -2.630603e-19
-5.7149e-41 6.1405466e-05 1.839e-42 -1.5643e-40 -1.4302e-41 -5.4164e-41 0.0010508768 -1.39482e-40
3.2302134e-05 -9.2835e-41 -1.10348e-40 1.44866e-40 0.016943803 1.2960868e-26 -3.2140106e-05 5.8812e-41

bn.running_var f4 [96]
00000000: 8ae3 8b3d 0400 0000 0400 0000 0400 0000
00000010: 1783 9a3c 605a 7717 7106 143d cd22 4f36
00000020: 0400 0000 e981 3a36 0400 0000 0400 0000
00000030: 0400 0000 0400 0000 0400 0000 220a 0532
00000040: 0400 0000 0400 0000 1b29 7337 0400 0000
00000050: e2e5 2a3d 0400 0000 0400 0000 0400 0000
00000060: 0400 0000 34be 5f26 98cb 2d3d 7039 173d
00000070: 62d7 de2e 08a4 4338 644a 5537 0400 0000
00000080: 0400 0000 bc8c 323d ca36 4937 7c97 e73d
00000090: 0400 0000 0400 0000 ad66 9317 b44b 5538
000000a0: bbf7 9b3c 0400 0000 0400 0000 0400 0000
000000b0: 0400 0000 0400 0000 d734 1836 1483 e133
000000c0: 2b72 1d3d 0400 0000 9256 c336 a708 782f
000000d0: 0400 0000 10da 973d a5e6 143d b8a7 0000
000000e0: 13f0 853c a6f7 a033 0400 0000 9d3b d332
000000f0: a58a 9535 c374 9a3c ac9f 230c 0400 0000
00000100: 0400 0000 0400 0000 0400 0000 0400 0000
00000110: e5a9 963d 0400 0000 0400 0000 0400 0000
00000120: 0400 0000 dc11 a631 0400 0000 10d0 253c
00000130: 0400 0000 0400 0000 456a 3f22 4daa 4100
00000140: 0400 0000 71a4 b42f 0400 0000 0400 0000
00000150: 0400 0000 0400 0000 b8a0 d233 0400 0000
00000160: f2f3 c72e 0400 0000 0400 0000 0400 0000
00000170: f6e8 cf37 0400 0000 b5f3 c52e 0400 0000
0.06830509 6e-45 6e-45 6e-45 0.018861337 7.9924074e-25 0.036138956 3.086566e-06
6e-45 2.7791777e-06 6e-45 6e-45 6e-45 6e-45 6e-45 7.743923e-09
6e-45 6e-45 1.4493499e-05 6e-45 0.04172314 6e-45 6e-45 6e-45
6e-45 7.762644e-16 0.04243049 0.03692001 1.0133651e-10 4.664439e-05 1.271311e-05 6e-45
6e-45 0.043591246 1.199329e-05 0.1130819 6e-45 6e-45 9.525571e-25 5.085366e-05
0.019039026 6e-45 6e-45 6e-45 6e-45 6e-45 2.2680522e-06 1.0501222e-07
0.038438957 6e-45 5.821531e-06 2.2558543e-10 6e-45 0.07414639 0.036352772 6.0166e-41
0.016349828 7.4956276e-08 6e-45 2.4590742e-08 1.1141716e-06 0.018854504 1.2605113e-31 6e-45
6e-45 6e-45 6e-45 6e-45 0.073566236 6e-45 6e-45 6e-45
6e-45 4.8332662e-09 6e-45 0.010120407 6e-45 6e-45 2.5941585e-18 6.0304e-39
6e-45 3.2858652e-10 6e-45 6e-45 6e-45 6e-45 9.8081216e-08 6e-45
9.092806e-11 6e-45 6e-45 6e-45 2.4784804e-05 6e-45 9.001814e-11 6e-45

layer_norm.weight f4 [96]
00000000: 1859 683f 8835 d63d a35c cd38 cf5b cd38
00000010: 475a cd38 5d5c cd38 61e5 ea37 c95b cd38
00000020: ff39 573f c287 443f ac5c cd38 825b cd38
00000030: 5d5b cd38 615b cd38 ace4 a33f ab8f 283e
00000040: 09b6 573f 6285 4e3f ba58 c8bd 5c5c cd38
00000050: ab5b cd38 dc5c cd38 23e6 723f fc5b cd38
00000060: 3e33 9abe ae5c cd38 613b 453f 008e 5c3f
00000070: 5d4a 02be b35c cd38 49a4 8f3f 765a cd38
00000080: a22f 1a3f f75b cd38 4f6c 7c3f 5109 453e
00000090: e55b cd38 da62 093f 525c cd38 bfe3 163f
000000a0: f95a cd38 745a cd38 6a4d 293f 898f 4540
000000b0: 105c cd38 e356 2fb8 b358 673d 5a81 553f
000000c0: 335b cd38 5b5c cd38 5f1b b6b8 3acb 543f
000000d0: 845b cd38 5977 c638 f600 da3f e35b cd38
000000e0: aa5c cd38 f25b cd38 a95c cd38 6b97 633f
000000f0: e89d b63f 41d5 a93e cb5b cd38 2021 5b3f
00000100: 7adb 8e3f f85c cd38 c52c 2c38 03f4 0140
00000110: 2f5b cd38 c934 8138 0a1f ea3f 7a5b cd38
00000120: dece 5838 02c3 443c 5008 c6bd 265b cd38
00000130: 2d5c cd38 265b cd38 2e5c cd38 f3c1 883e
00000140: 9c5b cd38 e45c cd38 5f79 923f a703 643f
00000150: 555b cd38 655b cd38 2fa0 bf3f 5152 9b3c
00000160: 385c cd38 87a3 433e dc5b cd38 a25a cd38
00000170: 975b cd38 555b cd38 ed5a cd38 21d4 713f
0.90760946 0.10459429 9.792417e-05 9.7922624e-05 9.791977e-05 9.792366e-05 2.8001787e-05 9.792258e-05
0.8407287 0.7676965 9.792423e-05 9.7922064e-05 9.7921795e-05 9.7921824e-05 1.280416 0.16461055
0.8426214 0.80672276 -0.09782548 9.792365e-05 9.792236e-05 9.792458e-05 0.9488241 9.792295e-05
-0.3011722 9.792425e-05 0.7704373 0.86154175 -0.1272368 9.792428e-05 1.1222011 9.7920114e-05
0.6022893 9.7922915e-05 0.98602766 0.19241835 9.7922784e-05 0.5366646 9.792358e-05 0.5894126
9.792107e-05 9.79201e-05 0.6613375 3.0868857 9.79231e-05 -4.180417e-05 0.056481075 0.834005
9.792149e-05 9.792364e-05 -8.6835345e-05 0.831226 9.792208e-05 9.463606e-05 1.7031543 9.792277e-05
9.792422e-05 9.792288e-05 9.792421e-05 0.8890292 1.4266939 0.33170512 9.7922595e-05 0.8559742
1.1160729 9.7924785e-05 4.104969e-05 2.0305183 9.792146e-05 6.161031e-05 1.8290722 9.7922006e-05
5.1691073e-05 0.012009384 -0.09669554 9.7921395e-05 9.792331e-05 9.7921395e-05 9.7923315e-05 0.26710472
9.792225e-05 9.792464e-05 1.144329 0.89068073 9.792174e-05 9.792185e-05 1.4970759 0.01896015
9.792339e-05 0.1910535 9.792272e-05 9.7920434e-05 9.792222e-05 9.792174e-05 9.792098e-05 0.9446431

layer_norm.bias f4 [96]
00000000: f836 5a3d 2ef1 3b3b 48fc 3eb7 95ff 3eb7
00000010: 5804 3fb7 a8fd 3eb7 68d2 a3b8 8cff 3eb7
00000020: 9350 c73d 71af b03c a4fd 3eb7 1000 3fb7
00000030: 9500 3fb7 faff 3eb7 31e1 0bbe 1ec6 8fbc
00000040: 987e 0cbd a54c 033e 2d57 b9bd e2fe 3eb7
00000050: ae01 3fb7 2df9 3eb7 b683 f2bc 6efd 3eb7
00000060: 9543 333e 42fc 3eb7 e9de b1bc d4fc a43d
00000070: 5baa 0cbc defc 3eb7 40a0 133d db01 3fb7
00000080: 2f2d 5e3d 1602 3fb7 6e26 ffbb 919c bebd
00000090: 0100 3fb7 0918 59bd 2dfd 3eb7 de87 863d
000000a0: 6200 3fb7 4804 3fb7 47c3 793b 034c a43e
000000b0: 84fd 3eb7 7cca 33b8 048f 3e3d 5de5 7a3c
000000c0: 4d02 3fb7 47fe 3eb7 e194 4bb8 933f afbd
000000d0: f502 3fb7 a16a 12b9 0408 57be adff 3eb7
000000e0: acfd 3eb7 b9fe 3eb7 92f9 3eb7 ae85 1ebc
000000f0: 4a67 08be 9a5f 45bc ccff 3eb7 3b53 ddbc
00000100: 9004 303e 32fd 3eb7 c3ce ff37 7b11 a53d
00000110: 0d00 3fb7 7cb7 b0b8 0b87 da3d e501 3fb7
00000120: 7162 cfb7 d453 e3bc 8391 c83b d700 3fb7
00000130: d3ff 3eb7 cb01 3fb7 43fd 3eb7 4dd6 98bd
00000140: 72ff 3eb7 e8fc 3eb7 029c d7bd 35ae da3c
00000150: 7501 3fb7 bfff 3eb7 aa28 b2bc 1780 0abd
00000160: 9afe 3eb7 cb73 bd3c a3fe 3eb7 7b02 3fb7
00000170: 0102 3fb7 8402 3fb7 6302 3fb7 dacd 48bd
0.05327508 0.002867769 -1.1383621e-05 -1.138439e-05 -1.13854985e-05 -1.13839415e-05 -7.811637e-05 -1.1384382e-05
0.09732165 0.021568032 -1.1383938e-05 -1.1384502e-05 -1.1384623e-05 -1.1384482e-05 -0.13660122 -0.017550524
-0.034300417 0.12822206 -0.090498306 -1.1384227e-05 -1.1384878e-05 -1.1382898e-05 -0.02960382 -1.1383889e-05
0.17506249 -1.1383616e-05 -0.021712737 0.08056036 -0.008585538 -1.1383758e-05 0.0360415 -1.1384919e-05
0.05424231 -1.1384973e-05 -0.0077865636 -0.093072064 -1.1384488e-05 -0.053001437 -1.138383e-05 0.06568883
-1.1384576e-05 -1.1385484e-05 0.003811078 0.32089242 -1.1383909e-05 -4.2865504e-05 0.04652311 0.0153134735
-1.1385023e-05 -1.1384086e-05 -4.8537626e-05 -0.08557048 -1.1385176e-05 -0.00013963367 -0.20999151 -1.1384412e-05
-1.1383945e-05 -1.138419e-05 -1.138299e-05 -0.009675426 -0.13320652 -0.012046719 -1.138444e-05 -0.027017226
0.1718924 -1.1383834e-05 3.049465e-05 0.08059975 -1.1384499e-05 -8.4265106e-05 0.10670289 -1.1384928e-05
-2.4722163e-05 -0.027749933 0.006120862 -1.1384683e-05 -1.1384446e-05 -1.1384905e-05 -1.138385e-05 -0.0746275
-1.1384358e-05 -1.1383767e-05 -0.10527803 0.026694397 -1.1384826e-05 -1.1384428e-05 -0.021747906 -0.033813562
-1.1384162e-05 0.023126503 -1.138417e-05 -1.1385065e-05 -1.1384954e-05 -1.1385073e-05 -1.1385043e-05 -0.04902444

lstm.weight_ih_l0 f4 [384, 96]
00000000: 199c 0dbd 2400 0080 7202 0000 5100 0000
00000010: 4ccf 163d ec01 0080 3cad 50bd e164 32a8
00000020: a004 0000 a186 cd33 30de 3395 a700 0000
00000030: ab70 9c84 a10c 0180 95b7 409f 0400 0000
00000040: b31d bd0a 677e 1c1a e48b 2fb8 ff02 0000
00000050: 8068 8ebd 4104 0000 9f23 188a df02 0080
00000060: f337 1d27 2002 0080 4f94 46bd daa9 9a3d
00000070: 2901 0080 22cb 0538 42e2 c1b6 2903 0080
00000080: 5fe9 bc82 aea3 cf3d 0d4a 9eb6 9e17 29bd
00000090: 2903 0000 2c1e 59b6 5901 0000 7606 02b7
000000a0: 7daf 0b3d b6b1 5c99 f960 ec33 b700 0000
000000b0: 6942 b02b 2905 0000 4503 0239 883c 70a8
000000c0: 8ddd e0bd 5500 0080 4ad2 4226 1102 0000
000000d0: 0606 0080 8216 eb3d 4699 dd3b 5e00 0000
000000e0: 7845 b63c bb01 0080 e2a3 e428 3d10 0000
000000f0: 6112 152b e904 313c bd05 0080 6a9e 9620
00000100: 9d01 0080 ca05 0080 11fb 1781 09fc 2500
00000110: c6b8 68bd 0a00 0080 a002 0000 5703 0000
00000120: f33c 85a1 6200 0080 ef13 a289 001b d7bb
00000130: 9333 bab3 b88c 3c00 7302 0000 5500 0000
00000140: defa 0b87 2900 0000 c702 0080 5702 0000
00000150: b201 0000 3c96 66b1 9d59 372d 3604 0080
00000160: 3a01 0080 c312 ab0a 1fdc 5d14 4a71 2a84
00000170: 92b5 2eb7 49c4 a737 4a01 0000 0aaa 0080
00000180: 6e87 19bd 3a00 0080 0200 0000 5300 0080
00000190: 4c22 33bd 6300 0080 0182 93ba 2af1 b4ac
000001a0: 6000 0080 7f36 1436 52e5 3796 f402 0000
000001b0: 9092 6484 1074 0100 3ab4 d09e 8c2e c0a8
000001c0: 5c1b 308b 2a76 a49a dfbe b1b5 9602 0000
000001d0: b30d 2ebc 7402 0080 61b9 c9b3 0e04 0000
000001e0: e8c2 3728 f701 0080 3a0f ebbd 6e37 65bd
000001f0: c8ef 7512 aae1 8939 7b6a abb7 4801 0000
00000200: f7d9 a203 ef10 3bbd 71fa 07b6 a76e f33c
00000210: e900 0080 867d 44b7 5700 0000 95a9 dab6
00000220: 43c6 7a3b 97c5 a199 3d1e a4b4 6600 0000
00000230: 7dfb 19ac 4b00 0000 8f0f fcb8 bd08 ae09
00000240: c3a4 b9bb 2a03 0000 f1b4 21b0 1902 0080
00000250: 0504 0080 ae55 ba3d a4e8 cbbd 4101 0080
00000260: 62af 29be 4208 0080 8a25 5fa9 3d34 2325
00000270: 0d0c 8334 d06b 06be ae01 0000 851c 6e9f
00000280: 5c01 0000 e30c 0000 a046 7a82 a2ca ca00
00000290: 123d 8dbd 2700 0000 1500 0080 af00 0080
000002a0: 0370 c3a3 6101 0080 23ff bc0b bb48 82bd
000002b0: fcc7 09b3 7792 0704 8501 0000 f001 0080
000002c0: e7fa dc87 e301 0000 c003 0000 1002 0080
000002d0: db00 0000 4b89 8533 a160 a129 2b02 0000
000002e0: b501 0000 a70e 6c0b 66fc a315 6486 7487
000002f0: 6522 e8b5 41ec 9038 d624 0d0c 7d2b 0480
00000300: 48d0 27bb 2a0a 0000 1606 0080 9306 0080
00000310: 4123 fbba a909 0000 aa47 79bb 6403 0000
00000320: 4302 0080 6281 739a 1c61 6812 2c0c 0000
00000330: 1a96 9402 640d 0000 4650 f71c ad02 0000
00000340: ca04 2807 f9c1 3b96 6d29 e291 3a0c 0080
00000350: 703c 1fbb f507 0080 12f3 0000 b401 0080
00000360: f695 7d24 d404 0080 0b1b 8bb8 c798 69bb
00000370: a207 0000 bbb3 f335 127d 542d 7d04 0080
00000380: eafd 0c00 842d deba 48a8 b693 f9e3 acba
00000390: f905 0000 0ca4 1e34 c700 0080 0814 dfb5
000003a0: 549c 743a 62c2 0e94 debf 2eb2 fa06 0080
000003b0: b131 22a8 570c 0080 e39b 5129 db00 0080
000003c0: 267b 81bb b802 0080 3104 0000 5409 0000
000003d0: 5108 0080 44d5 e3b9 3290 cbba 0900 0080
000003e0: 0eb9 8ebb ab02 0080 0c78 a225 ef05 0000
000003f0: 4e03 0080 7c02 8abb a505 0080 f34b ce1a
-0.034572694 -5e-44 8.77e-43 1.14e-43 0.036818787 -6.9e-43 -0.05094646 -9.9028595e-15
1.659e-42 9.570545e-08 -3.6324037e-26 2.34e-43 -3.6778893e-36 -9.6366e-41 -4.0809437e-20 6e-45
1.821121e-32 3.236215e-23 -4.1853535e-05 1.075e-42 -0.069535255 1.526e-42 -7.3252334e-33 -1.03e-42
2.1818457e-15 -7.62e-43 -0.04848128 0.07551928 -4.16e-43 3.1898853e-05 -5.778188e-06 -1.134e-42
-2.7758066e-37 0.10138641 -4.7173876e-06 -0.04128229 1.134e-42 -3.2353082e-06 4.83e-43 -7.750108e-06
0.034102906 -1.1409622e-23 1.10072456e-07 2.56e-43 1.2523985e-12 1.851e-42 0.00012398984 -1.3335802e-14
-0.109797575 -1.19e-43 6.7592266e-16 7.41e-43 -2.161e-42 0.114789024 0.0067626564 1.32e-43
0.022249922 -6.21e-43 2.5384158e-14 5.825e-42 5.296094e-13 0.010804393 -2.059e-42 2.5515818e-19
-5.79e-43 -2.077e-42 -2.791445e-38 3.488327e-39 -0.05681684 -1.4e-44 9.42e-43 1.198e-42
-9.028564e-19 -1.37e-43 -3.9018827e-33 -0.006564498 -8.670681e-08 5.56061e-39 8.79e-43 1.19e-43
-1.0530921e-34 5.7e-44 -9.96e-43 8.4e-43 6.08e-43 -3.3554803e-09 1.0422244e-11 -1.51e-42
-4.4e-43 1.6473758e-32 1.120106e-26 -2.0035424e-36 -1.0413483e-05 1.9999354e-05 4.62e-43 -6.0999e-41
-0.03748267 -8.1e-44 3e-45 -1.16e-43 -0.04373388 -1.39e-43 -0.0011253954 -5.1426823e-12
-1.35e-43 2.208544e-06 -1.4854983e-25 1.06e-42 -2.686857e-36 1.33471e-40 -2.2097397e-20 -2.1336469e-14
-3.391695e-32 -6.8019715e-23 -1.3243078e-06 9.28e-43 -0.010623383 -8.8e-43 -9.393512e-08 1.455e-42
1.0200804e-14 -7.05e-43 -0.114775136 -0.055961065 7.760392e-28 0.0002629881 -2.0434372e-05 4.6e-43
9.5715465e-37 -0.045670446 -2.0262344e-06 0.02971585 -3.27e-43 -1.1711736e-05 1.22e-43 -6.516648e-06
0.0038265146 -1.6726816e-23 -3.0569382e-07 1.43e-43 -2.1882212e-12 1.05e-43 -0.000120191944 4.1897194e-33
-0.005665393 1.135e-42 -5.882859e-10 -7.52e-43 -1.442e-42 0.09098373 -0.09956482 -4.5e-43
-0.1657081 -2.962e-42 -4.9548507e-14 1.4155695e-16 2.440942e-07 -0.13127065 6.03e-43 -5.042205e-20
4.88e-43 4.623e-42 -1.8387368e-37 1.8623461e-38 -0.06896414 5.5e-44 -3e-44 -2.45e-43
-2.1189381e-17 -4.95e-43 7.2798853e-32 -0.063615285 -3.2079683e-08 1.5936427e-36 5.45e-43 -6.95e-43
-3.3249388e-34 6.77e-43 1.345e-42 -7.4e-43 3.07e-43 6.2182686e-08 7.166599e-14 7.78e-43
6.12e-43 4.546297e-32 6.623339e-26 -1.8396014e-34 -1.7295357e-06 6.910461e-05 1.087333e-31 -3.82943e-40
-0.0025606323 3.646e-42 -2.183e-42 -2.358e-42 -0.0019160287 3.465e-42 -0.00380371 1.216e-42
-8.11e-43 -5.0355737e-23 7.332599e-28 4.366e-42 2.18328e-37 4.804e-42 1.6365839e-21 9.6e-43
1.2640323e-34 -1.5166947e-25 -3.5682044e-28 -4.386e-42 -0.0024297498 -2.854e-42 8.7197e-41 -6.11e-43
5.4987652e-17 -1.732e-42 -6.633074e-05 -0.003564404 2.738e-42 1.8157219e-06 1.2078576e-11 -1.61e-42
1.193113e-39 -0.001695082 -4.6109197e-27 -0.00131905 2.143e-42 1.4774577e-07 -2.79e-43 -1.6620625e-06
0.0009331156 -7.207503e-27 -1.01717585e-08 -2.503e-42 -9.003582e-15 -4.427e-42 4.6542533e-14 -3.07e-43
-0.003951448 -9.75e-43 1.504e-42 3.346e-42 -2.983e-42 -0.0004345571 -0.0015530644 -1.3e-44
-0.0043555563 -9.57e-43 2.8183867e-16 2.129e-42 -1.185e-42 -0.004211722 -2.025e-42 8.5322306e-23

lstm.weight_hh_l0 f4 [384, 96]
00000000: 8e89 043d 827e 623c 613f 00b8 8840 00b8
00000010: de42 00b8 423f 00b8 f17e 4cb9 0b40 00b8
00000020: 819c 2fbc 18fa 0b3d 4f3f 00b8 c240 00b8
00000030: b940 00b8 eb40 00b8 336d 293d 7eec 613b
00000040: 1154 9abd 743c 853c 7087 523e dc3e 00b8
00000050: c540 00b8 aa3f 00b8 318b 9e3c 3c40 00b8
00000060: 524a 823c b33e 00b8 1fbd 883c 0e3f 2fbd
00000070: e04c 773b ea3e 00b8 d828 b4bd 0c42 00b8
00000080: 56c6 a4bd 6440 00b8 87de ddbd 1940 fa3c
00000090: ff3f 00b8 b774 0cbd 1c3f 00b8 e6e0 b4bc
000000a0: 7041 00b8 aa41 00b8 bb13 afbb 797f 4abd
000000b0: 2340 00b8 e4c4 e3b9 ddc6 65bd a6ed 4b3d
000000c0: 9741 00b8 9d3f 00b8 80f7 b1b9 7815 703d
000000d0: c540 00b8 5d4c b7b8 134c 963d 6c40 00b8
000000e0: ab3f 00b8 6740 00b8 0c3f 00b8 ff2c 363d
000000f0: 5791 af3d 36db c13c 6640 00b8 8149 3c3d
00000100: 7cec a0bd df3e 00b8 0271 a139 40c4 a03b
00000110: 5b41 00b8 0254 1439 21b1 8d3b 4b40 00b8
00000120: ad05 40b9 e444 7ebe e9e8 533c 8140 00b8
00000130: 0140 00b8 0b42 00b8 613f 00b8 d607 e03d
00000140: a640 00b8 d43e 00b8 4a51 2ebc 6956 c23d
00000150: 3640 00b8 1d41 00b8 6fd5 4e3c 06a1 573e
00000160: d33f 00b8 6ec1 9a3d 5240 00b8 b441 00b8
00000170: 8d40 00b8 1c42 00b8 2b41 00b8 c048 223b
00000180: 0f0c b2bd eea9 8f3b 178f c537 068f c537
00000190: bd90 c537 ed8e c537 1b65 0e37 1c8f c537
000001a0: 1eb1 88bd 006a 6d3d 108f c537 a88f c537
000001b0: a48f c537 1d8f c537 1e4a a93d 6a58 bf3a
000001c0: a388 a33d 97a1 a4bd 6814 51be 438f c537
000001d0: 0f90 c537 7c8e c537 e082 ed3c 4d8e c537
000001e0: 9e80 443d 138e c537 1dd9 7bbd 65f4 e13b
000001f0: b2bf d03c e78e c537 1d05 8b3d 3c90 c537
00000200: b3d5 733d e48f c537 c341 d13d befa 203d
00000210: 808f c537 ef3c 10bd 148e c537 385b b83c
00000220: dd8f c537 1790 c537 e0c7 10bd 0b89 28bd
00000230: 968e c537 c6fa 7138 825b 3e3d 571a 8bbd
00000240: 5590 c537 a88f c537 6854 9739 aac5 41bb
00000250: 7690 c537 823c 46b7 32f3 033e 228f c537
00000260: 5c8e c537 cd8e c537 7f8e c537 4a03 0f3e
00000270: e92e 8ebd 6d51 d9bd f68e c537 b160 95bd
00000280: ff99 eebd 688e c537 14af 7038 9e71 c139
00000290: 3d8f c537 6ee2 f738 f709 093d e18f c537
000002a0: 126b f5b8 a1ca 29bd b16b e2ba 6e8f c537
000002b0: 4a8f c537 3290 c537 478e c537 604e 323e
000002c0: 588f c537 5e8e c537 0743 19be 0e0f b7bd
000002d0: d78f c537 f98e c537 c224 a73d b14c 4c3e
000002e0: c28e c537 114f 06be 468f c537 e58f c537
000002f0: a78f c537 2590 c537 3790 c537 6a8f 7fba
00000300: eb6f 863a 2c76 2db8 cdd8 c335 d7d6 c335
00000310: b4d2 c335 5cdb c335 a096 cb36 fad9 c335
00000320: 9fd3 9d3a 1e02 e7b9 0bda c335 03d6 c335
00000330: d2d6 c335 34d6 c335 b40a f539 44d4 a438
00000340: c101 14ba 04b9 2bb9 22c0 9aba 3edc c335
00000350: 96d7 c335 0bd4 c335 4f7c ed39 04d5 c335
00000360: 02a3 68bc 7ddb c335 b963 0bba 9543 70b9
00000370: 35d1 eab8 7cda c335 a5c8 60ba 44d1 c335
00000380: ff5e f03a 99d9 c335 2019 b13a 827a 633b
00000390: e3d9 c335 d9f3 31b8 65d8 c335 5a67 2f39
000003a0: a3d4 c335 53d8 c335 4560 8239 b3b3 00bc
000003b0: 6ad7 c335 2f39 0338 fb4c 253c 32e8 083a
000003c0: 22d5 c335 c7da c335 d2a8 1d38 6b47 a13a
000003d0: 12d9 c335 78d4 3d38 84c8 a23b 88d8 c335
000003e0: 5dd9 c335 82d7 c335 d5d5 c335 8b1f 2eba
000003f0: 7f99 4a3b ff0c 90bb 0dd7 c335 4554 573a
0.032357745 0.013824107 -3.0576604e-05 -3.0577678e-05 -3.0579853e-05 -3.057649e-05 -0.00019502245 -3.0577223e-05
-0.010718466 0.034174055 -3.057654e-05 -3.057789e-05 -3.0577856e-05 -3.0578038e-05 0.041363906 0.0034473236
-0.07535566 0.016264178 0.20559478 -3.057612e-05 -3.05779e-05 -3.057687e-05 0.019353481 -3.05774e-05
0.01590458 -3.057597e-05 0.016691742 -0.042784743 0.003773503 -3.057617e-05 -0.08796853 -3.057909e-05
-0.08045642 -3.0577547e-05 -0.10833459 0.030548142 -3.057718e-05 -0.034290995 -3.0576353e-05 -0.022079896
-3.057852e-05 -3.0578733e-05 -0.005342928 -0.049437974 -3.057731e-05 -0.0004344351 -0.056097854 0.049787186
-3.0578663e-05 -3.0576823e-05 -0.00033944473 0.058614224 -3.05779e-05 -8.740344e-05 0.07338729 -3.0577576e-05
-3.0576874e-05 -3.0577557e-05 -3.0576295e-05 0.044476505 0.08572643 0.023664098 -3.0577554e-05 0.045968536
-0.07857606 -3.057613e-05 0.0003079251 0.0049062073 -3.0578445e-05 0.00014145675 0.004324094 -3.0577456e-05
-0.00018312661 -0.24830967 0.012933948 -3.0577652e-05 -3.0577186e-05 -3.0579085e-05 -3.0576604e-05 0.109389946
-3.0577787e-05 -3.057609e-05 -0.010639498 0.09489138 -3.057738e-05 -3.057822e-05 0.012624129 0.2105752
-3.057702e-05 0.07556425 -3.057748e-05 -3.057877e-05 -3.0577696e-05 -3.0579147e-05 -3.057827e-05 0.00247626
-0.08693706 0.004384271 2.3550861e-05 2.355083e-05 2.3551629e-05 2.3550785e-05 8.4874e-06 2.355087e-05
-0.066744074 0.057962418 2.3550849e-05 2.3551125e-05 2.3551118e-05 2.3550872e-05 0.0826609 0.0014598493
0.07985046 -0.08038633 -0.2041794 2.3550941e-05 2.3551313e-05 2.355058e-05 0.02899307 2.3550494e-05
0.04797422 2.3550389e-05 -0.061486352 0.006895589 0.025482032 2.3550774e-05 0.06788085 2.3551394e-05
0.05952997 2.3551234e-05 0.10217621 0.039301626 2.3551052e-05 -0.03521436 2.355039e-05 0.022504434
2.3551222e-05 2.3551327e-05 -0.035346866 -0.04114632 2.3550627e-05 5.769243e-05 0.046473987 -0.06792133
2.355144e-05 2.3551125e-05 0.00028863852 -0.002956728 2.35515e-05 -1.1815808e-05 0.1288574 2.3550881e-05
2.3550521e-05 2.3550727e-05 2.3550585e-05 0.13966098 -0.06942541 -0.10611234 2.3550801e-05 -0.07293833
-0.11650466 2.3550543e-05 5.7383513e-05 0.0003689648 2.355093e-05 0.000118200536 0.03345677 2.3551229e-05
-0.00011702454 -0.041453008 -0.0017274526 2.355102e-05 2.3550954e-05 2.3551376e-05 2.3550483e-05 0.1741271
2.355098e-05 2.3550525e-05 -0.14966975 -0.08938418 2.355121e-05 2.3550807e-05 0.08161308 0.1995113
2.3550707e-05 -0.13116099 2.3550947e-05 2.3551236e-05 2.3551123e-05 2.3551353e-05 2.3551385e-05 -0.00097488484
0.0010256743 -4.135647e-05 1.459173e-06 1.4591159e-06 1.4589955e-06 1.4592474e-06 6.0674065e-06 1.4592072e-06
0.0012041217 -0.0004406133 1.4592091e-06 1.4590918e-06 1.4591153e-06 1.4590973e-06 0.00046738016 7.859667e-05
-0.00056460133 -0.00016376755 -0.0011806528 1.4592731e-06 1.4591376e-06 1.4590345e-06 0.0004529678 1.4590628e-06
-0.01419902 1.4592512e-06 -0.0005317289 -0.0002291336 -0.00011196957 1.459222e-06 -0.000857482 1.4589536e-06
0.0018338858 1.4591961e-06 0.0013511516 0.0034710472 1.4592046e-06 -4.242719e-05 1.4591611e-06 0.00016727802
1.4590518e-06 1.4591591e-06 0.0002486726 -0.007855344 1.4591326e-06 3.128609e-05 0.010089154 0.0005222588
1.4590662e-06 1.4592305e-06 3.7588943e-05 0.0012304609 1.4591808e-06 4.525899e-05 0.004967751 1.4591651e-06
1.4591893e-06 1.4591353e-06 1.4590865e-06 -0.00066422735 0.0030914245 -0.0043960805 1.459122e-06 0.0008214156

lstm.bias_ih_l0 f4 [384]
00000000: 29f9 d3bc 9eb4 c8bc b5b7 6fba 26b8 6fba
00000010: 8cb6 6fba 42b8 6fba 0e60 77ba ccb7 6fba
00000020: de49 63bd 9608 50bc 2ab8 6fba 5db7 6fba
00000030: 3eb7 6fba 30b7 6fba f516 8bbd 87f6 8abc
00000040: 2b3b abbc 7485 bcbb 361a eeb9 73b7 6fba
00000050: 03b7 6fba 56b8 6fba 6437 b2bc c8b7 6fba
00000060: 37b6 4fbc 57b7 6fba 00d0 3d3c 3578 acbd
00000070: f286 e2bc 97b7 6fba 27a0 babd fdb6 6fba
00000080: 64ea feba 46b7 6fba 4c96 e5bd 3046 40bb
00000090: 7eb7 6fba 21b9 f4bc d0b7 6fba dfaa 9fbb
000000a0: f0b6 6fba 8eb6 6fba 011f 84bc 61c4 47be
000000b0: 56b7 6fba 7f3b 5bbc ab6c ea3c 04fa 43bc
000000c0: adb6 6fba c6b7 6fba bdee 78bd 80f1 703c
000000d0: 59b7 6fba 7cae 87ba 4f4b a83c 0bb7 6fba
000000e0: 0db8 6fba 54b7 6fba 26b8 6fba 4a72 54bd
000000f0: a84d 82bd 0c79 6d3b c1b7 6fba 2d03 cbbc
00000100: 2818 f5ba f5b7 6fba cc1b 7abc b9e9 46bd
00000110: 53b7 6fba 9fdd 6aba 08f7 05be bbb6 6fba
00000120: 21b5 bdbc da67 d7bb 4e12 6cbc f7b6 6fba
00000130: b5b7 6fba 26b7 6fba 9cb7 6fba 59f7 3e3c
00000140: 4db7 6fba 06b8 6fba e169 4fbd fd67 8ebd
00000150: 32b7 6fba 55b7 6fba abdc 4d3d 78a1 85bc
00000160: cab7 6fba 222a 25bc 0fb8 6fba d1b6 6fba
00000170: 3db7 6fba c9b6 6fba cfb6 6fba c08a 7fba
00000180: d180 613c 452b 873b 3f71 e8b9 8f71 e8b9
00000190: 9371 e8b9 9f71 e8b9 fd86 02ba 8d71 e8b9
000001a0: de28 16bb 547a 2c3b 6c71 e8b9 9c71 e8b9
000001b0: 9771 e8b9 6371 e8b9 32f4 ed3b dd2b de3b
000001c0: aab2 f33c 24cc 9a3b 3a09 84bd 6371 e8b9
000001d0: 7571 e8b9 5171 e8b9 df4b 25bc 3b71 e8b9
000001e0: 71ff 64bd 1571 e8b9 16f4 e3bc 0a2b 443d
000001f0: 2255 fc3b 7e71 e8b9 196b 3f3d 9671 e8b9
00000200: 7d40 44bd 6b71 e8b9 593e e9bb 93e4 0abd
00000210: d571 e8b9 0a56 253a 6671 e8b9 f4e0 ea3a
00000220: 5e71 e8b9 ba71 e8b9 a61a 9e3a edfc ff3c
00000230: 7a71 e8b9 40b0 59bb e2c4 b4bd 0147 a6bc
00000240: a971 e8b9 3c71 e8b9 3ed0 8c37 38b0 cebb
00000250: ce71 e8b9 d63e 1dba be64 60bc 4f71 e8b9
00000260: a071 e8b9 cd71 e8b9 4871 e8b9 d6c7 a7bb
00000270: 78f8 79bc 7fa8 bdbb 8871 e8b9 dfab 84bb
00000280: 0081 1c3d 0d71 e8b9 bc3b 453c 3c85 90bd
00000290: 3d71 e8b9 0519 01ba 0189 ab3c 6a71 e8b9
000002a0: e3ed 9a3c aae6 86bd debf 653b 8771 e8b9
000002b0: 9171 e8b9 ca71 e8b9 6171 e8b9 64d7 5fbd
000002c0: 6471 e8b9 8071 e8b9 7548 52bc e272 f0bc
000002d0: 5a71 e8b9 6571 e8b9 9a4e 50bd b140 c2bd
000002e0: a771 e8b9 0d19 53bd 8f71 e8b9 5371 e8b9
000002f0: 5c71 e8b9 f471 e8b9 9871 e8b9 84f2 2abc
00000300: 9ba2 9d3d 7f8e ddbc a43f 6db7 c56a 6cb7
00000310: 5085 6cb7 aab1 6cb7 5042 fcb9 c687 6cb7
00000320: 54fd c0bc 8cc2 6c3d 5065 6cb7 b829 6db7
00000330: 63aa 6cb7 0ed9 6cb7 a2cf f23c 2582 76bd
00000340: 582a a73d 12ae f93c 4e68 12bb 7a9c 6cb7
00000350: d61a 6db7 fb66 6db7 c12b c6bc 3958 6cb7
00000360: fa51 e23d 2856 6cb7 af15 5fbd 6744 dcbc
00000370: a504 a63d 824c 6cb7 72d8 4b3c 0ce6 6cb7
00000380: cb3f 093d d28f 6cb7 2c7b c7bc 52bb 283d
00000390: 1939 6db7 33a1 85bc bd09 6db7 7043 da3c
000003a0: 09dd 6cb7 016e 6cb7 4a8b 16bd 8858 5abb
000003b0: 04b3 6cb7 81aa 85bc f5ae 3a3d 7cd6 92bc
000003c0: 482e 6cb7 7d34 6cb7 e32d 04bd 797c b7bd
000003d0: ae17 6db7 7fdb f4b9 7f27 7dbd f737 6db7
000003e0: c09e 6cb7 6470 6cb7 c920 6db7 a915 4b3d
000003f0: 7f7d 23bd a257 0cbd 323c 6cb7 86d3 79bd
-0.025875645 -0.024500187 -0.0009144501 -0.0009144567 -0.0009144328 -0.0009144583 -0.00094366155 -0.00091445143
-0.055490367 -0.01269736 -0.0009144569 -0.000914445 -0.00091444317 -0.00091444235 -0.06791488 -0.016963257
-0.020902237 -0.0057532135 -0.00045414426 -0.00091444625 -0.00091443973 -0.00091445947 -0.021754928 -0.0009144512
-0.012677721 -0.0009144446 0.011585236 -0.08421365 -0.027652238 -0.00091444835 -0.09112578 -0.0009144394
-0.0019448516 -0.00091444363 -0.112103075 -0.002933871 -0.0009144469 -0.029873433 -0.00091445167 -0.0048726643
-0.0009144386 -0.0009144329 -0.016128065 -0.19508506 -0.00091444456 -0.013380884 0.02861627 -0.011961464
-0.0009144347 -0.0009144511 -0.060774554 0.014706016 -0.00091444474 -0.0010351683 0.020543722 -0.0009144402
-0.0009144552 -0.00091444445 -0.0009144567 -0.051866807 -0.06362468 0.003623548 -0.0009144508 -0.024781788
-0.0018699216 -0.0009144538 -0.015265416 -0.04856274 -0.0009144444 -0.0008959416 -0.13082516 -0.00091443554
-0.023157658 -0.0065736594 -0.014408661 -0.00091443904 -0.0009144501 -0.00091444177 -0.00091444864 0.011655652
-0.00091444404 -0.0009144548 -0.050638083 -0.06953428 -0.00091444247 -0.0009144445 0.050259273 -0.016312346
-0.0009144513 -0.010080846 -0.00091445533 -0.0009144368 -0.0009144431 -0.00091443636 -0.0009144367 -0.00097481534
0.013763622 0.004125031 -0.00044334863 -0.00044335096 -0.00044335108 -0.00044335143 -0.0004979221 -0.0004433509
-0.0022912542 0.002631803 -0.00044334994 -0.00044335134 -0.0004433512 -0.00044334968 0.0072617764 0.0067801313
0.02974828 0.0047240425 -0.06447072 -0.00044334968 -0.0004433502 -0.00044334916 -0.01008889 -0.00044334852
-0.05590767 -0.0004433474 -0.02782635 0.047892608 0.0077005783 -0.00044335047 0.046732996 -0.00044335116
-0.047913063 -0.0004433499 -0.007118028 -0.03390939 -0.000443353 0.00063070713 -0.00044334977 0.0017919824
-0.00044334953 -0.0004433522 0.0012062385 0.031248534 -0.00044335035 -0.0033216625 -0.08826615 -0.02029753
-0.00044335172 -0.00044334854 1.678627e-05 -0.006307628 -0.0004433528 -0.0005998438 -0.013695894 -0.0004433491
-0.00044335146 -0.00044335276 -0.0004433489 -0.005120258 -0.0152569935 -0.0057879086 -0.00044335076 -0.004048809
0.03820896 -0.00044334718 0.012038168 -0.070566624 -0.00044334857 -0.00049246877 0.020939352 -0.00044334988
0.018912261 -0.065869644 0.0035056989 -0.00044335073 -0.00044335102 -0.00044335268 -0.00044334962 -0.054648772
-0.0004433497 -0.00044335052 -0.012834658 -0.029351655 -0.00044334942 -0.00044334974 -0.05085621 -0.09484995
-0.00044335166 -0.051537562 -0.00044335096 -0.0004433492 -0.00044334948 -0.0004433539 -0.00044335122 -0.010433797
0.0769703 -0.027045486 -1.4141118e-05 -1.4091555e-05 -1.4097735e-05 -1.4108062e-05 -0.00048114592 -1.4098308e-05
-0.023558296 0.05780272 -1.4090285e-05 -1.4136014e-05 -1.4106367e-05 -1.4117233e-05 0.029640023 -0.06018271
0.08162373 0.030478511 -0.0022340002 -1.4103129e-05 -1.4132549e-05 -1.4150278e-05 -0.024190785 -1.4087237e-05
0.11050792 -1.4086756e-05 -0.05446404 -0.026888086 0.081063546 -1.40845095e-05 0.012441741 -1.4120258e-05
0.033508103 -1.4100182e-05 -0.024350725 0.041194268 -1.4139595e-05 -0.016312217 -1.4128568e-05 0.026643485
-1.411816e-05 -1.4092308e-05 -0.03675393 -0.003331693 -1.41083765e-05 -0.016316654 0.04557701 -0.01792454
-1.4077472e-05 -1.4078917e-05 -0.032270323 -0.08959288 -1.4131814e-05 -0.00046702844 -0.061805245 -1.4139331e-05
-1.4103658e-05 -1.4092864e-05 -1.4133934e-05 0.049581204 -0.039914604 -0.03426326 -1.40807115e-05 -0.06099274
