model/lstm_encoder.pt (torch, 156151 bytes, 6 tensors)

lstm.weight_ih_l0 f4 [384, 1]
000000 ab 02 a9 b9 8e 0b 38 b9 07 e5 8b b9 e7 e4 8b b9
       -0.0003223618 -0.00017551912 -0.00026682785 -0.00026682692
000010 0a e5 8b b9 10 e5 8b b9 7e 1b 56 3e cf e4 8b b9
       -0.00026682793 -0.0002668281 0.20908925 -0.00026682622
000020 b6 22 8e b9 53 88 99 b9 fa e4 8b b9 ed e4 8b b9
       -0.00027110212 -0.00029284004 -0.00026682747 -0.0002668271
000030 f7 e4 8b b9 ec e4 8b b9 99 f6 9f b9 58 e4 45 b9
       -0.00026682738 -0.00026682706 -0.00030510573 -0.00018872449
000040 30 e3 df b8 c3 9e a3 b9 67 7e 59 bf e0 e4 8b b9
       -0.000106757856 -0.0003120807 -0.849585 -0.0002668267
000050 d9 e4 8b b9 f6 e4 8b b9 19 bc 93 b9 14 e5 8b b9
       -0.0002668265 -0.00026682735 -0.0002817817 -0.00026682822
000060 e1 f1 9a 3d f6 e4 8b b9 de 2b 85 b9 32 8f 98 b9
       0.07565666 -0.00026682735 -0.0002540042 -0.00029098388
000070 0f b2 67 b9 12 e5 8b b9 7d fa b1 b9 09 e5 8b b9
       -0.00022096209 -0.00026682817 -0.000339467 -0.0002668279
000080 7e 56 f1 be f9 e4 8b b9 81 48 90 b9 dc bf 96 3e
       -0.471363 -0.00026682744 -0.0002751984 0.29443252
000090 fc e4 8b b9 3d 8a b4 b9 04 e5 8b b9 5d 98 8b b9
       -0.00026682753 -0.0003443527 -0.00026682776 -0.00026625665
0000a0 0c e5 8b b9 ff e4 8b b9 f3 19 91 b9 a3 f9 20 be
       -0.000266828 -0.0002668276 -0.0002767589 -0.15720229
0000b0 f3 e4 8b b9 f2 da 8c b9 d6 46 85 be 92 18 83 b9
       -0.00026682726 -0.00026866008 -0.26030606 -0.00025004573
0000c0 dc e4 8b b9 fe e4 8b b9 1b b6 6d b9 fa 06 8d b9
       -0.0002668266 -0.00026682758 -0.00022669921 -0.00026898814
0000d0 09 e5 8b b9 53 fd d8 be 76 3d 04 3a e8 e4 8b b9
       -0.0002668279 -0.4238077 0.0005044559 -0.00026682694
0000e0 04 e5 8b b9 fd e4 8b b9 16 e5 8b b9 cd 9d 6b b9
       -0.00026682776 -0.00026682756 -0.00026682828 -0.00022470132
0000f0 03 79 c8 b9 a2 22 30 bd e1 e4 8b b9 1c c6 96 b9
       -0.00038237133 -0.04300178 -0.00026682674 -0.00028757832
000100 f7 01 4c 3d f9 e4 8b b9 7c fa 8e b9 da 54 56 ba
       0.04980656 -0.00026682744 -0.00027270976 -0.0008176096
000110 e6 e4 8b b9 09 3d f0 3e 78 71 89 b9 08 e5 8b b9
       -0.0002668269 0.46921566 -0.00026215217 -0.00026682788
000120 8e c6 8b b9 c3 9b 7c 3e ef e5 af b9 e5 e4 8b b9
       -0.0002666008 0.24668793 -0.00033549915 -0.00026682686
000130 0c e5 8b b9 15 e5 8b b9 ed e4 8b b9 37 56 01 3f
       -0.000266828 -0.00026682825 -0.0002668271 0.5052218
000140 02 e5 8b b9 f4 e4 8b b9 e6 55 a5 b9 7e 13 83 b9
       -0.0002668277 -0.0002668273 -0.00031535252 -0.0002500079
000150 10 e5 8b b9 e1 e4 8b b9 d7 b0 a9 39 dd a4 ad 3d
       -0.0002668281 -0.00026682674 0.00032365948 0.08478711
000160 fb e4 8b b9 bd 61 d7 bf ea e4 8b b9 ff e4 8b b9
       -0.0002668275 -1.6826702 -0.000266827 -0.0002668276
000170 12 e5 8b b9 11 e5 8b b9 f0 e4 8b b9 62 cc 92 b9
       -0.00026682817 -0.00026682814 -0.00026682718 -0.00027999567
000180 de 8d a3 39 0c ef eb b8 59 e2 28 39 aa e2 28 39
       0.00031195482 -0.00011250199 0.0001610605 0.00016106167
000190 70 e2 28 39 70 e2 28 39 b3 97 53 3e 6d e2 28 39
       0.00016106083 0.00016106083 0.20663337 0.00016106079
0001a0 db 8d 6a 39 85 e8 3f 39 a2 e2 28 39 8e e2 28 39
       0.00022368824 0.000183018 0.00016106156 0.00016106127
0001b0 48 e2 28 39 5b e2 28 39 44 ad 0f 39 e9 f8 46 39
       0.00016106025 0.00016106052 0.00013702089 0.00018975478
0001c0 6c d1 ca 39 24 f7 42 39 9a 26 3f 3d 45 e2 28 39
       0.00038684474 0.00018593349 0.046667673 0.0001610602
0001d0 8c e2 28 39 21 e2 28 39 84 3a 71 38 6d e2 28 39
       0.00016106124 0.00016105968 5.7513374e-05 0.00016106079
0001e0 0d c2 de bd 64 e2 28 39 8e c9 22 39 9f 00 28 39
       -0.10876856 0.00016106066 0.00015524609 0.0001602196
0001f0 ab da 00 39 5b e2 28 39 43 e8 4d 39 7b e2 28 39
       0.00012288491 0.00016106052 0.00019636848 0.00016106099
000200 2c 1b 24 3f 45 e2 28 39 e6 dd 2c 39 1a 8f 35 bf
       0.6410396 0.0001610602 0.00016485862 -0.7092148
000210 5b e2 28 39 4d d0 1c 39 35 e2 28 39 4e c2 20 39
       0.00016106052 0.00014954917 0.00016105997 0.00015331173
000220 39 e2 28 39 4f e2 28 39 c5 de 35 39 77 ea b3 3b
       0.00016106003 0.00016106035 0.00017344493 0.005490597
000230 6d e2 28 39 51 76 33 39 4d 90 00 bf 85 6a 3e 39
       0.00016106079 0.00017114847 -0.50220186 0.00018159494
000240 6a e2 28 39 65 e2 28 39 10 13 a7 39 d9 8e 25 39
       0.00016106074 0.00016106067 0.00031866925 0.00015788841
000250 45 e2 28 39 61 cb 0e 3e 8d ce 8d b9 87 e2 28 39
       0.0001610602 0.1394477 -0.00027047508 0.00016106117
000260 59 e2 28 39 45 e2 28 39 4d e2 28 39 fb e3 8d 39
       0.0001610605 0.0001610602 0.00016106032 0.00027063474
000270 ed e5 2f b7 1f ad fd be 7c e2 28 39 95 d0 44 39
       -1.0484347e-05 -0.49546143 0.000161061 0.0001876972
000280 0d d6 5e 3c 58 e2 28 39 ab 2d 2a 39 e6 e3 34 b9
       0.013600838 0.00016106048 0.00016229476 -0.00017251036
000290 36 e2 28 39 f0 56 b7 be 51 25 39 39 7c e2 28 39
       0.00016105999 -0.35808516 0.00017656876 0.000161061
0002a0 38 d7 29 39 b4 ce d8 3e 95 f4 cb 38 52 e2 28 39
       0.00016197271 0.42345202 9.725351e-05 0.0001610604
0002b0 53 e2 28 39 20 e2 28 39 64 e2 28 39 8f 35 63 be
       0.00016106041 0.00016105967 0.00016106066 -0.221884
0002c0 78 e2 28 39 96 e2 28 39 28 5d 08 39 66 67 8d 38
       0.00016106095 0.00016106138 0.00013004674 6.7426634e-05
0002d0 8d e2 28 39 88 e2 28 39 0b 14 d9 b9 36 5a 1d 3e
       0.00016106125 0.00016106118 -0.00041404399 0.15366444
0002e0 36 e2 28 39 ff 89 12 3e 85 e2 28 39 8f e2 28 39
       0.00016105999 0.14310454 0.00016106114 0.00016106128
0002f0 4d e2 28 39 29 e2 28 39 3e e2 28 39 87 5a 29 39
       0.00016106032 0.0001610598 0.0001610601 0.0001615082
000300 ab 72 c8 39 92 fc d2 b9 ed 7f 27 b9 49 7f 27 b9
       0.00038232407 -0.000402425 -0.00015974017 -0.00015973778
000310 fc 7f 27 b9 32 80 27 b9 28 d1 8e 3d bb 7f 27 b9
       -0.00015974039 -0.00015974118 0.06973487 -0.00015973944
000320 09 94 5e b9 a0 78 39 b9 b0 7f 27 b9 b7 7f 27 b9
       -0.00021226717 -0.00017687911 -0.00015973928 -0.00015973939
000330 90 7f 27 b9 c9 7f 27 b9 fa 2d 3f b9 2a 61 2f b9
       -0.00015973882 -0.00015973965 -0.00018232307 -0.00016725497
000340 fb 14 87 b8 64 8d 88 39 65 17 06 3f 6f 7f 27 b9
       -6.4412096e-05 0.00026045286 0.5237945 -0.00015973834
000350 59 7f 27 b9 d2 7f 27 b9 dc 09 a3 ba ae 7f 27 b9
       -0.00015973802 -0.00015973978 -0.0012438851 -0.00015973925
000360 11 71 0f 3d 47 80 27 b9 41 a1 83 b9 3f ed 15 b9
       0.035019938 -0.00015974148 -0.0002510641 -0.00014298128
000370 95 1b 47 b9 6b 7f 27 b9 91 f3 c0 b9 a0 7f 27 b9
       -0.00018988394 -0.00015973828 -0.00036802565 -0.00015973905
000380 bb 2e 25 bf d2 7f 27 b9 42 c3 50 b9 9d 70 69 3d
       -0.6452443 -0.00015973978 -0.00019909165 0.056992162
000390 9b 7f 27 b9 98 27 4c b8 01 80 27 b9 6b 52 4b b9
       -0.00015973898 -4.8674265e-05 -0.00015974046 -0.00019390292
0003a0 ef 7f 27 b9 ca 7f 27 b9 ba a8 2f b9 54 c6 cf 3d
       -0.0001597402 -0.00015973966 -0.00016752156 0.1014525
0003b0 82 7f 27 b9 d7 81 13 b9 24 17 02 bf d2 7c 55 b9
       -0.00015973861 -0.00014067382 -0.5081656 -0.00020359762
0003c0 8b 7f 27 b9 f9 7f 27 b9 76 c8 ca b8 6f ef 47 b9
       -0.00015973875 -0.00015974035 -9.669449e-05 -0.00019067315
0003d0 ba 7f 27 b9 05 cc e7 be b0 4b 43 bb 56 7f 27 b9
       -0.00015973943 -0.45272842 -0.0029799752 -0.00015973797
0003e0 c3 7f 27 b9 34 80 27 b9 5b 80 27 b9 32 9d 60 38
       -0.00015973956 -0.0001597412 -0.00015974177 5.355216e-05
0003f0 4d 01 1b ba 3b 0d 3a 3e 5b 7f 27 b9 0f 9c a9 b9
       -0.00059129746 0.1816911 -0.00015973805 -0.00032350465

lstm.weight_hh_l0 f4 [384, 96]
000000 69 8f 99 b7 11 16 ba b7 91 cc 30 b7 5e cc 30 b7
       -1.8305802e-05 -2.2183203e-05 -1.0538047e-05 -1.0538e-05
000010 9e cc 30 b7 87 cc 30 b7 4d 5e 0d 39 76 cc 30 b7
       -1.0538059e-05 -1.0538038e-05 0.00013481938 -1.0538022e-05
000020 b1 66 5e b7 62 af 37 b7 7c cc 30 b7 98 cc 30 b7
       -1.3256141e-05 -1.09484845e-05 -1.0538028e-05 -1.0538053e-05
000030 89 cc 30 b7 9c cc 30 b7 b9 93 1a b7 a5 56 42 b7
       -1.05380395e-05 -1.0538057e-05 -9.21351e-06 -1.1583475e-05
000040 3a fe 83 b7 f2 0f 12 b7 3e 96 09 38 6d cc 30 b7
       -1.57348e-05 -8.705991e-06 3.280327e-05 -1.0538014e-05
000050 76 cc 30 b7 69 cc 30 b7 d1 6f 8e b7 7b cc 30 b7
       -1.0538022e-05 -1.053801e-05 -1.6979788e-05 -1.0538027e-05
000060 2d 37 c4 b8 bb cc 30 b7 b3 6c 2a b7 00 e9 32 b7
       -9.3562856e-05 -1.0538085e-05 -1.0158098e-05 -1.0663876e-05
000070 ea 34 49 b7 6c cc 30 b7 fe 7a 49 b7 a7 cc 30 b7
       -1.1992854e-05 -1.0538013e-05 -1.200917e-05 -1.0538067e-05
000080 7f 0e db 38 78 cc 30 b7 c1 34 28 b7 96 9e 5a 39
       0.00010445434 -1.0538024e-05 -1.0025863e-05 0.00020849178
000090 9a cc 30 b7 db 36 2f b7 a4 cc 30 b7 bc 6a 2d b7
       -1.0538055e-05 -1.0443585e-05 -1.0538064e-05 -1.0336455e-05
0000a0 a4 cc 30 b7 8e cc 30 b7 f5 1f 23 b7 77 11 bc b8
       -1.0538064e-05 -1.0538044e-05 -9.722998e-06 -8.967792e-05
0000b0 82 cc 30 b7 7f 04 31 b7 76 c6 a2 b8 38 10 28 b7
       -1.0538033e-05 -1.0551069e-05 -7.761728e-05 -1.00173565e-05
0000c0 72 cc 30 b7 95 cc 30 b7 58 05 2b b7 70 1f 28 b7
       -1.0538019e-05 -1.053805e-05 -1.0193638e-05 -1.00209e-05
0000d0 6d cc 30 b7 90 be e0 38 e9 04 8b 35 89 cc 30 b7
       -1.0538014e-05 0.000107166474 1.0357736e-06 -1.05380395e-05
0000e0 6b cc 30 b7 7c cc 30 b7 af cc 30 b7 7f 0c e5 b7
       -1.0538012e-05 -1.0538028e-05 -1.0538074e-05 -2.7304746e-05
0000f0 f2 eb 9d b7 f2 4d 11 b8 64 cc 30 b7 6d 28 33 b7
       -1.8825729e-05 -3.4643286e-05 -1.0538006e-05 -1.0678644e-05
000100 de a8 cf 38 a6 cc 30 b7 f6 77 26 b7 f3 6a 34 b7
       9.901983e-05 -1.0538066e-05 -9.922302e-06 -1.0753737e-05
000110 84 cc 30 b7 5c d3 da b8 60 35 3b b7 94 cc 30 b7
       -1.0538035e-05 -0.00010434419 -1.1158496e-05 -1.05380495e-05
000120 c8 4b 26 b7 eb 12 2c 39 7b 2c 28 b7 84 cc 30 b7
       -9.912015e-06 0.00016410246 -1.0023937e-05 -1.0538035e-05
000130 63 cc 30 b7 b9 cc 30 b7 77 cc 30 b7 dd e1 8f 38
       -1.0538005e-05 -1.0538083e-05 -1.0538023e-05 6.860842e-05
000140 7b cc 30 b7 a5 cc 30 b7 c1 bd aa b6 49 d3 3c b7
       -1.0538027e-05 -1.0538065e-05 -5.088485e-06 -1.1254867e-05
000150 9a cc 30 b7 90 cc 30 b7 9f 2b 07 37 55 e9 ff b7
       -1.0538055e-05 -1.0538046e-05 8.056783e-06 -3.0507023e-05
000160 76 cc 30 b7 45 88 40 b8 7e cc 30 b7 7f cc 30 b7
       -1.0538022e-05 -4.5903278e-05 -1.05380295e-05 -1.053803e-05
000170 63 cc 30 b7 92 cc 30 b7 b7 cc 30 b7 a7 f3 2f b7
       -1.0538005e-05 -1.0538048e-05 -1.0538081e-05 -1.0487543e-05
000180 35 85 d6 b7 b5 54 eb b7 ad 9d 93 b7 97 9d 93 b7
       -2.5572817e-05 -2.8053628e-05 -1.7597189e-05 -1.7597149e-05
000190 b1 9d 93 b7 a5 9d 93 b7 c8 36 79 37 a2 9d 93 b7
       -1.7597196e-05 -1.7597175e-05 1.4854311e-05 -1.7597169e-05
0001a0 1d ba a6 b7 a0 13 99 b7 a6 9d 93 b7 b6 9d 93 b7
       -1.9875408e-05 -1.824816e-05 -1.7597176e-05 -1.7597205e-05
0001b0 a8 9d 93 b7 b0 9d 93 b7 7a 94 88 b7 26 55 9d b7
       -1.759718e-05 -1.7597195e-05 -1.6281603e-05 -1.8755509e-05
0001c0 fe 40 be b7 c7 a0 8f b7 6f ed d5 b6 9c 9d 93 b7
       -2.268003e-05 -1.7121796e-05 -6.3755356e-06 -1.7597158e-05
0001d0 a1 9d 93 b7 96 9d 93 b7 0d 01 9a b7 a0 9d 93 b7
       -1.7597167e-05 -1.7597147e-05 -1.835872e-05 -1.7597165e-05
0001e0 0b 67 c6 37 bd 9d 93 b7 57 cf 8e b7 fe d1 92 b7
       2.3651422e-05 -1.7597218e-05 -1.702427e-05 -1.7502342e-05
0001f0 d8 13 a0 b7 9d 9d 93 b7 76 6b 9f b7 be 9d 93 b7
       -1.9082727e-05 -1.759716e-05 -1.9004317e-05 -1.759722e-05
000200 1e f6 68 39 a0 9d 93 b7 4a a5 8f b7 fa 26 de 38
       0.0002221693 -1.7597165e-05 -1.7123897e-05 0.00010593045
000210 b0 9d 93 b7 da dd 95 b7 b1 9d 93 b7 23 fd 91 b7
       -1.7597195e-05 -1.7865492e-05 -1.7597196e-05 -1.7403223e-05
000220 ae 9d 93 b7 a9 9d 93 b7 f6 d9 8e b7 66 26 92 b8
       -1.759719e-05 -1.7597182e-05 -1.7029215e-05 -6.968975e-05
000230 a7 9d 93 b7 ed 48 94 b7 c1 d6 b9 38 e4 a5 8e b7
       -1.7597178e-05 -1.7676934e-05 8.8614885e-05 -1.7004968e-05
000240 9e 9d 93 b7 ad 9d 93 b7 54 2b 91 b7 a0 a1 8f b7
       -1.7597162e-05 -1.7597189e-05 -1.7305523e-05 -1.7122191e-05
000250 9a 9d 93 b7 23 9e 14 39 25 5c 4c b5 ae 9d 93 b7
       -1.7597155e-05 0.0001417329 -7.613001e-07 -1.759719e-05
000260 9b 9d 93 b7 9c 9d 93 b7 b5 9d 93 b7 7f 0d 13 b8
       -1.7597156e-05 -1.7597158e-05 -1.7597204e-05 -3.50601e-05
000270 9e 3d c8 b7 fc c2 15 b9 96 9d 93 b7 78 f1 92 b7
       -2.387055e-05 -0.00014282385 -1.7597147e-05 -1.7516999e-05
000280 a8 de 08 39 ba 9d 93 b7 19 93 8e b7 7f 1c 97 b7
       0.00013052917 -1.7597213e-05 -1.6996217e-05 -1.8013872e-05
000290 a8 9d 93 b7 d9 cf 47 b9 3c c0 97 b7 b1 9d 93 b7
       -1.759718e-05 -0.00019055548 -1.8090119e-05 -1.7597196e-05
0002a0 9f 3e 8e b7 17 e5 b0 38 1d ef 99 b7 a8 9d 93 b7
       -1.695688e-05 8.435005e-05 -1.8350367e-05 -1.759718e-05
0002b0 93 9d 93 b7 be 9d 93 b7 98 9d 93 b7 9d ec c3 b7
       -1.7597142e-05 -1.759722e-05 -1.759715e-05 -2.3355993e-05
0002c0 a0 9d 93 b7 b5 9d 93 b7 bb 95 4e b7 56 c3 9c b7
       -1.7597165e-05 -1.7597204e-05 -1.2313419e-05 -1.868761e-05
0002d0 af 9d 93 b7 ab 9d 93 b7 e1 3a 9f 36 17 70 cc b8
       -1.7597193e-05 -1.7597185e-05 4.7454237e-06 -9.7483564e-05
0002e0 9a 9d 93 b7 18 fe ac b8 9f 9d 93 b7 a7 9d 93 b7
       -1.7597155e-05 -8.248928e-05 -1.7597164e-05 -1.7597178e-05
0002f0 94 9d 93 b7 a7 9d 93 b7 bc 9d 93 b7 7e 2a 94 b7
       -1.7597144e-05 -1.7597178e-05 -1.7597216e-05 -1.7662762e-05
000300 36 5a 05 b8 37 34 03 b8 25 ae c3 b7 15 ae c3 b7
       -3.1793687e-05 -3.1281463e-05 -2.3326904e-05 -2.3326875e-05
000310 24 ae c3 b7 1a ae c3 b7 47 e7 47 38 1e ae c3 b7
       -2.3326902e-05 -2.3326884e-05 4.766069e-05 -2.3326891e-05
000320 37 27 d7 b7 08 8b c9 b7 1f ae c3 b7 2b ae c3 b7
       -2.5648258e-05 -2.4025809e-05 -2.3326893e-05 -2.3326915e-05
000330 22 ae c3 b7 28 ae c3 b7 ef 06 bc b7 93 40 cc b7
       -2.3326898e-05 -2.332691e-05 -2.2414575e-05 -2.4348765e-05
000340 83 ff f5 b7 43 6e c0 b7 f3 ea ac 37 0f ae c3 b7
       -2.9325258e-05 -2.2939528e-05 2.0613405e-05 -2.3326864e-05
000350 1b ae c3 b7 0f ae c3 b7 13 f1 cb b7 19 ae c3 b7
       -2.3326886e-05 -2.3326864e-05 -2.4311745e-05 -2.3326882e-05
000360 6f 9b ce b5 2a ae c3 b7 27 30 c0 b7 14 f2 c3 b7
       -1.5393433e-06 -2.3326913e-05 -2.2910606e-05 -2.3358538e-05
000370 0a 00 cc b7 15 ae c3 b7 8b 2d d3 b7 2e ae c3 b7
       -2.4318713e-05 -2.3326875e-05 -2.5174368e-05 -2.332692e-05
000380 82 72 44 39 1a ae c3 b7 c9 fd c3 b7 8f 8b 0e 39
       0.00018734674 -2.3326884e-05 -2.336399e-05 0.00013594165
000390 28 ae c3 b7 bd 75 c9 b7 1e ae c3 b7 08 2e c4 b7
       -2.332691e-05 -2.4015893e-05 -2.3326891e-05 -2.3386456e-05
0003a0 23 ae c3 b7 1e ae c3 b7 9c b1 bd b7 d4 7b bd b8
       -2.33269e-05 -2.3326891e-05 -2.2613262e-05 -9.035287e-05
0003b0 1e ae c3 b7 10 e7 c3 b7 58 da bd 37 7b ed bf b7
       -2.3326891e-05 -2.3353408e-05 2.263223e-05 -2.287956e-05
0003c0 18 ae c3 b7 26 ae c3 b7 88 5a c9 b7 eb 09 c5 b7
       -2.332688e-05 -2.3326906e-05 -2.4003224e-05 -2.3488848e-05
0003d0 14 ae c3 b7 62 8e 24 39 3f 55 23 b7 2c ae c3 b7
       -2.3326873e-05 0.000156933 -9.735405e-06 -2.3326917e-05
0003e0 12 ae c3 b7 0c ae c3 b7 23 ae c3 b7 87 22 30 b8
       -2.332687e-05 -2.3326858e-05 -2.33269e-05 -4.1993826e-05
0003f0 e0 0f f8 b7 ff f1 1b b9 15 ae c3 b7 a0 d8 c9 b7
       -2.9571296e-05 -0.00014872102 -2.3326875e-05 -2.4061941e-05

lstm.bias_ih_l0 f4 [384]
000000 80 00 8a b9 3c 45 80 b9 8b c5 53 b9 ac c5 53 b9
       -0.00026321784 -0.00024465646 -0.00020196119 -0.00020196167
000010 8f c5 53 b9 5e c5 53 b9 98 9f 6f be cc c5 53 b9
       -0.00020196124 -0.00020196053 -0.23400724 -0.00020196213
000020 b0 53 38 b9 de 51 61 b9 63 c5 53 b9 93 c5 53 b9
       -0.00017578783 -0.0002148817 -0.0002019606 -0.0002019613
000030 8f c5 53 b9 d8 c5 53 b9 dd aa 75 b9 d3 13 8c b9
       -0.00020196124 -0.0002019623 -0.00023428672 -0.0002671765
000040 4a ee ee 37 52 54 d9 b8 64 63 82 3d 9e c5 53 b9
       2.8482773e-05 -0.00010363072 0.063666135 -0.00020196146
000050 9f c5 53 b9 c9 c5 53 b9 d8 5e c3 b9 ad c5 53 b9
       -0.00020196148 -0.00020196209 -0.00037263962 -0.00020196168
000060 6b 54 fe 3e a3 c5 53 b9 e2 48 4d b9 01 14 5b b9
       0.4967378 -0.00020196153 -0.00019577474 -0.0002089292
000070 a7 2c 40 b9 ac c5 53 b9 99 22 be b8 78 c5 53 b9
       -0.00018327181 -0.00020196167 -9.06635e-05 -0.00020196091
000080 8f 72 d3 be b5 c5 53 b9 7a 97 57 b9 25 58 e5 3e
       -0.4129834 -0.0002019618 -0.00020560427 0.4479381
000090 ba c5 53 b9 ce 5d 86 b9 d0 c5 53 b9 96 0e 3d b9
       -0.00020196187 -0.00025628362 -0.00020196219 -0.00018029878
0000a0 a9 c5 53 b9 8e c5 53 b9 2b c6 55 b9 13 4f 07 be
       -0.00020196162 -0.00020196123 -0.00020387086 -0.13213758
0000b0 d5 c5 53 b9 16 83 58 b9 33 9c 89 3e 37 d9 4e b9
       -0.00020196226 -0.00020648199 0.26876983 -0.0001972661
0000c0 c0 c5 53 b9 c6 c5 53 b9 57 28 30 b9 7e 5d 41 b9
       -0.00020196196 -0.00020196204 -0.00016799696 -0.00018440743
0000d0 99 c5 53 b9 1b b9 4a 3e fe fa a2 39 9e c5 53 b9
       -0.00020196139 0.19797175 0.00031086052 -0.00020196146
0000e0 b0 c5 53 b9 8b c5 53 b9 78 c5 53 b9 15 d7 88 b9
       -0.00020196172 -0.00020196119 -0.00020196091 -0.0002610019
0000f0 25 c7 95 b9 b6 39 0b 3f ed c5 53 b9 26 e6 32 b9
       -0.0002856787 0.54384935 -0.00020196261 -0.0001706114
000100 3f 2c 82 3d 86 c5 53 b9 e2 f1 5d b9 93 1c 15 ba
       0.063560955 -0.00020196111 -0.00021166311 -0.0005688157
000110 ca c5 53 b9 c6 bd c0 be ee 2d 58 b9 88 c5 53 b9
       -0.0002019621 -0.37644786 -0.00020616475 -0.00020196114
000120 f0 c8 59 b9 86 e6 de 3e ae 65 52 b9 cd c5 53 b9
       -0.00020769588 0.4353525 -0.0002006504 -0.00020196215
000130 a0 c5 53 b9 96 c5 53 b9 be c5 53 b9 e6 1e d0 3e
       -0.00020196149 -0.00020196135 -0.00020196193 0.40648574
000140 56 c5 53 b9 5d c5 53 b9 db 5a 88 b9 b3 cb 25 b9
       -0.00020196041 -0.00020196052 -0.00026007634 -0.0001581151
000150 99 c5 53 b9 7e c5 53 b9 93 02 da 39 c2 bb 34 be
       -0.00020196139 -0.000201961 0.00041582118 -0.17649749
000160 9c c5 53 b9 bb 03 16 bf 69 c5 53 b9 a8 c5 53 b9
       -0.00020196143 -0.5859944 -0.00020196069 -0.00020196161
000170 79 c5 53 b9 66 c5 53 b9 b3 c5 53 b9 be 9d 48 b9
       -0.00020196092 -0.00020196065 -0.00020196177 -0.0001913225
000180 6e 51 1a ba 36 e9 f1 b9 73 b7 ca b9 7d b7 ca b9
       -0.0005886768 -0.00046140858 -0.00038665123 -0.00038665152
000190 58 b7 ca b9 54 b7 ca b9 23 11 97 be 79 b7 ca b9
       -0.00038665044 -0.00038665032 -0.29505262 -0.0003866514
0001a0 78 76 bd b9 74 99 cb b9 6c b7 ca b9 6a b7 ca b9
       -0.00036137155 -0.0003883351 -0.00038665102 -0.00038665097
0001b0 78 b7 ca b9 75 b7 ca b9 fe 57 cc b9 7c 35 db b9
       -0.00038665137 -0.00038665129 -0.0003897547 -0.00041810784
0001c0 8a 9d 7d b9 3b 0a fb b9 87 36 29 bf 72 b7 ca b9
       -0.00024186648 -0.00047882073 -0.6609883 -0.0003866512
0001d0 79 b7 ca b9 77 b7 ca b9 19 d1 04 ba 76 b7 ca b9
       -0.0003866514 -0.00038665134 -0.00050665584 -0.0003866513
0001e0 52 d6 79 bf 56 b7 ca b9 1c d6 c8 b9 77 f9 c6 b9
       -0.9759265 -0.00038665038 -0.00038306497 -0.0003795137
0001f0 05 ca d1 b9 69 b7 ca b9 b2 e1 96 b9 59 b7 ca b9
       -0.00040014103 -0.00038665094 -0.00028778386 -0.00038665047
000200 a9 3e f2 be 79 b7 ca b9 4b 4b c8 b9 ae 0f 1c 3d
       -0.4731343 -0.0003866514 -0.0003820307 0.03810089
000210 7f b7 ca b9 cd 04 c2 b9 53 b7 ca b9 e4 4e ca b9
       -0.00038665158 -0.0003700614 -0.0003866503 -0.0003858722
000220 65 b7 ca b9 63 b7 ca b9 ea 7a c3 b9 a8 77 51 be
       -0.00038665082 -0.00038665076 -0.00037284876 -0.20455801
000230 7b b7 ca b9 e7 2d cf b9 33 a1 47 bf 80 f5 d5 b9
       -0.00038665146 -0.00039516317 -0.77980345 -0.00040809438
000240 72 b7 ca b9 75 b7 ca b9 e7 dd ae b9 7a da cc b9
       -0.0003866512 -0.00038665129 -0.00033353196 -0.0003907269
000250 76 b7 ca b9 3b ea 5f bb d2 a4 18 b7 77 b7 ca b9
       -0.0003866513 -0.0034166712 -9.098281e-06 -0.00038665134
000260 6c b7 ca b9 61 b7 ca b9 60 b7 ca b9 a8 09 0c ba
       -0.00038665102 -0.0003866507 -0.00038665067 -0.0005342015
000270 c3 6d d7 b9 30 64 a1 be 7b b7 ca b9 70 a1 d1 b9
       -0.00041089774 -0.3152175 -0.00038665146 -0.00039983867
000280 fd 0f 8f 3c 59 b7 ca b9 15 b6 cd b9 ba 96 20 ba
       0.017463678 -0.00038665047 -0.0003923631 -0.00061259756
000290 8a b7 ca b9 48 e8 e2 3c c9 f8 c1 b9 68 b7 ca b9
       -0.0003866519 0.027698651 -0.00036997188 -0.0003866509
0002a0 37 3e cb b9 5e 5d 30 bf 27 fb d7 b9 74 b7 ca b9
       -0.0003876553 -0.6889247 -0.0004119512 -0.00038665126
0002b0 62 b7 ca b9 6d b7 ca b9 72 b7 ca b9 15 a1 ba bc
       -0.00038665073 -0.00038665105 -0.0003866512 -0.022781888
0002c0 70 b7 ca b9 61 b7 ca b9 99 9b eb b9 d9 92 e7 b9
       -0.00038665114 -0.0003866507 -0.00044938622 -0.00044169163
0002d0 57 b7 ca b9 77 b7 ca b9 ba 73 95 ba a2 a6 ee 3e
       -0.0003866504 -0.00038665134 -0.0011402287 0.46611506
0002e0 5f b7 ca b9 c4 09 60 3d 6c b7 ca b9 77 b7 ca b9
       -0.00038665064 0.054696813 -0.00038665102 -0.00038665134
0002f0 69 b7 ca b9 6a b7 ca b9 69 b7 ca b9 25 8f c9 b9
       -0.00038665094 -0.00038665097 -0.00038665094 -0.00038444359
000300 1d c5 1e 38 14 22 0d 39 bd 44 26 39 c7 44 26 39
       3.785371e-05 0.00013459503 0.000158566 0.00015856615
000310 cd 44 26 39 87 45 26 39 b8 9d 1a be b6 44 26 39
       0.00015856624 0.00015856895 -0.15099227 0.0001585659
000320 5b b1 29 39 9f 4e 2f 39 c4 44 26 39 0f 45 26 39
       0.00016183166 0.00016718589 0.00015856611 0.0001585672
000330 f1 44 26 39 96 44 26 39 01 75 68 39 40 82 3f 39
       0.00015856676 0.00015856544 0.00022168831 0.00018263701
000340 d0 ea af 39 22 6e 33 b8 e8 f1 d0 3d 89 44 26 39
       0.0003355355 -4.2779495e-05 0.1020239 0.00015856525
000350 88 44 26 39 be 44 26 39 dd 75 0e 3a e9 44 26 39
       0.00015856524 0.00015856602 0.0005434433 0.00015856665
000360 6d f3 d8 bc 30 45 26 39 1d 9f 58 39 0f 9f 13 39
       -0.026483262 0.00015856768 0.0002065864 0.00014078266
000370 bb 51 1d 39 c1 44 26 39 c5 01 be 39 20 45 26 39
       0.00015003134 0.00015856606 0.00036240942 0.00015856745
000380 f0 ac 26 3d eb 44 26 39 25 2f 64 39 bd 9a 2d bd
       0.04069227 0.00015856668 0.00021761337 -0.042383898
000390 c4 44 26 39 c0 78 46 39 a9 44 26 39 ca c0 47 39
       0.00015856611 0.00018927734 0.00015856572 0.00019049938
0003a0 e3 44 26 39 eb 44 26 39 b5 38 40 39 f5 19 c2 bc
       0.00015856656 0.00015856668 0.00018331672 -0.023694018
0003b0 ce 44 26 39 bf 1e 28 39 e2 e7 75 3c 82 1f 46 39
       0.00015856625 0.00016033182 0.015008898 0.00018894489
0003c0 a2 44 26 39 e9 44 26 39 ca 40 25 39 a1 4a 60 39
       0.00015856561 0.00015856665 0.00015759762 0.00021390106
0003d0 df 44 26 39 d8 0b 92 3e 1b 1a 03 3b 96 44 26 39
       0.0001585665 0.2852466 0.0020004574 0.00015856544
0003e0 f9 44 26 39 22 45 26 39 26 45 26 39 0c f2 8a 39
       0.00015856688 0.00015856748 0.00015856753 0.0002650175
0003f0 86 ab bf 39 03 3c ff 3c 8a 44 26 39 56 9c 9c 39
       0.00036558154 0.031156546 0.00015856526 0.00029871118

lstm.bias_hh_l0 f4 [384]
000000 80 00 8a b9 3c 45 80 b9 8b c5 53 b9 ac c5 53 b9
       -0.00026321784 -0.00024465646 -0.00020196119 -0.00020196167
000010 8f c5 53 b9 5e c5 53 b9 be 49 6f be cc c5 53 b9
       -0.00020196124 -0.00020196053 -0.23367974 -0.00020196213
000020 b0 53 38 b9 de 51 61 b9 63 c5 53 b9 93 c5 53 b9
       -0.00017578783 -0.0002148817 -0.0002019606 -0.0002019613
000030 8f c5 53 b9 d8 c5 53 b9 dd aa 75 b9 d3 13 8c b9
       -0.00020196124 -0.0002019623 -0.00023428672 -0.0002671765
000040 4a ee ee 37 52 54 d9 b8 81 9f 7f 3d 9e c5 53 b9
       2.8482773e-05 -0.00010363072 0.062407974 -0.00020196146
000050 9f c5 53 b9 c9 c5 53 b9 d8 5e c3 b9 ad c5 53 b9
       -0.00020196148 -0.00020196209 -0.00037263962 -0.00020196168
000060 07 7b f1 3e a3 c5 53 b9 e2 48 4d b9 01 14 5b b9
       0.47164175 -0.00020196153 -0.00019577474 -0.0002089292
000070 a7 2c 40 b9 ac c5 53 b9 99 22 be b8 78 c5 53 b9
       -0.00018327181 -0.00020196167 -9.06635e-05 -0.00020196091
000080 66 95 c9 be b5 c5 53 b9 7a 97 57 b9 57 57 e7 3e
       -0.39371794 -0.0002019618 -0.00020560427 0.45183823
000090 ba c5 53 b9 ce 5d 86 b9 d0 c5 53 b9 96 0e 3d b9
       -0.00020196187 -0.00025628362 -0.00020196219 -0.00018029878
0000a0 a9 c5 53 b9 8e c5 53 b9 2b c6 55 b9 13 4f 07 be
       -0.00020196162 -0.00020196123 -0.00020387086 -0.13213758
0000b0 d5 c5 53 b9 16 83 58 b9 16 91 8c 3e 37 d9 4e b9
       -0.00020196226 -0.00020648199 0.27454442 -0.0001972661
0000c0 c0 c5 53 b9 c6 c5 53 b9 57 28 30 b9 7e 5d 41 b9
       -0.00020196196 -0.00020196204 -0.00016799696 -0.00018440743
0000d0 99 c5 53 b9 1b b9 4a 3e fe fa a2 39 9e c5 53 b9
       -0.00020196139 0.19797175 0.00031086052 -0.00020196146
0000e0 b0 c5 53 b9 8b c5 53 b9 78 c5 53 b9 15 d7 88 b9
       -0.00020196172 -0.00020196119 -0.00020196091 -0.0002610019
0000f0 25 c7 95 b9 93 06 09 3f ed c5 53 b9 26 e6 32 b9
       -0.0002856787 0.53525656 -0.00020196261 -0.0001706114
000100 3f 2c 82 3d 86 c5 53 b9 e2 f1 5d b9 93 1c 15 ba
       0.063560955 -0.00020196111 -0.00021166311 -0.0005688157
000110 ca c5 53 b9 5d 88 c4 be ee 2d 58 b9 88 c5 53 b9
       -0.0002019621 -0.38385287 -0.00020616475 -0.00020196114
000120 f0 c8 59 b9 75 ab dd 3e ae 65 52 b9 cd c5 53 b9
       -0.00020769588 0.43294874 -0.0002006504 -0.00020196215
000130 a0 c5 53 b9 96 c5 53 b9 be c5 53 b9 dd 1d d0 3e
       -0.00020196149 -0.00020196135 -0.00020196193 0.40647784
000140 56 c5 53 b9 5d c5 53 b9 db 5a 88 b9 b3 cb 25 b9
       -0.00020196041 -0.00020196052 -0.00026007634 -0.0001581151
000150 99 c5 53 b9 7e c5 53 b9 93 02 da 39 35 ad 36 be
       -0.00020196139 -0.000201961 0.00041582118 -0.1783951
000160 9c c5 53 b9 51 eb 15 bf 69 c5 53 b9 a8 c5 53 b9
       -0.00020196143 -0.5856219 -0.00020196069 -0.00020196161
000170 79 c5 53 b9 66 c5 53 b9 b3 c5 53 b9 be 9d 48 b9
       -0.00020196092 -0.00020196065 -0.00020196177 -0.0001913225
000180 6e 51 1a ba 36 e9 f1 b9 73 b7 ca b9 7d b7 ca b9
       -0.0005886768 -0.00046140858 -0.00038665123 -0.00038665152
000190 58 b7 ca b9 54 b7 ca b9 85 b1 95 be 79 b7 ca b9
       -0.00038665044 -0.00038665032 -0.29237 -0.0003866514
0001a0 78 76 bd b9 74 99 cb b9 6c b7 ca b9 6a b7 ca b9
       -0.00036137155 -0.0003883351 -0.00038665102 -0.00038665097
0001b0 78 b7 ca b9 75 b7 ca b9 fe 57 cc b9 7c 35 db b9
       -0.00038665137 -0.00038665129 -0.0003897547 -0.00041810784
0001c0 8a 9d 7d b9 3b 0a fb b9 d4 33 29 bf 72 b7 ca b9
       -0.00024186648 -0.00047882073 -0.6609471 -0.0003866512
0001d0 79 b7 ca b9 77 b7 ca b9 19 d1 04 ba 76 b7 ca b9
       -0.0003866514 -0.00038665134 -0.00050665584 -0.0003866513
0001e0 c2 10 7a bf 56 b7 ca b9 1c d6 c8 b9 77 f9 c6 b9
       -0.9768182 -0.00038665038 -0.00038306497 -0.0003795137
0001f0 05 ca d1 b9 69 b7 ca b9 b2 e1 96 b9 59 b7 ca b9
       -0.00040014103 -0.00038665094 -0.00028778386 -0.00038665047
000200 b0 ff f1 be 79 b7 ca b9 4b 4b c8 b9 d2 b5 1b 3d
       -0.47265387 -0.0003866514 -0.0003820307 0.038015194
000210 7f b7 ca b9 cd 04 c2 b9 53 b7 ca b9 e4 4e ca b9
       -0.00038665158 -0.0003700614 -0.0003866503 -0.0003858722
000220 65 b7 ca b9 63 b7 ca b9 ea 7a c3 b9 a8 77 51 be
       -0.00038665082 -0.00038665076 -0.00037284876 -0.20455801
000230 7b b7 ca b9 e7 2d cf b9 72 e1 46 bf 80 f5 d5 b9
       -0.00038665146 -0.00039516317 -0.7768775 -0.00040809438
000240 72 b7 ca b9 75 b7 ca b9 e7 dd ae b9 7a da cc b9
       -0.0003866512 -0.00038665129 -0.00033353196 -0.0003907269
000250 76 b7 ca b9 3b ea 5f bb d2 a4 18 b7 77 b7 ca b9
       -0.0003866513 -0.0034166712 -9.098281e-06 -0.00038665134
000260 6c b7 ca b9 61 b7 ca b9 60 b7 ca b9 a8 09 0c ba
       -0.00038665102 -0.0003866507 -0.00038665067 -0.0005342015
000270 c3 6d d7 b9 cf 4f a1 be 7b b7 ca b9 70 a1 d1 b9
       -0.00041089774 -0.31506202 -0.00038665146 -0.00039983867
000280 fd 0f 8f 3c 59 b7 ca b9 15 b6 cd b9 ba 96 20 ba
       0.017463678 -0.00038665047 -0.0003923631 -0.00061259756
000290 8a b7 ca b9 8a 8b e3 3c c9 f8 c1 b9 68 b7 ca b9
       -0.0003866519 0.027776498 -0.00036997188 -0.0003866509
0002a0 37 3e cb b9 95 66 30 bf 27 fb d7 b9 74 b7 ca b9
       -0.0003876553 -0.6890653 -0.0004119512 -0.00038665126
0002b0 62 b7 ca b9 6d b7 ca b9 72 b7 ca b9 e0 a1 ba bc
       -0.00038665073 -0.00038665105 -0.0003866512 -0.022782266
0002c0 70 b7 ca b9 61 b7 ca b9 99 9b eb b9 d9 92 e7 b9
       -0.00038665114 -0.0003866507 -0.00044938622 -0.00044169163
0002d0 57 b7 ca b9 77 b7 ca b9 ba 73 95 ba 09 a7 ee 3e
       -0.0003866504 -0.00038665134 -0.0011402287 0.46611813
0002e0 5f b7 ca b9 00 12 60 3d 6c b7 ca b9 77 b7 ca b9
       -0.00038665064 0.054704666 -0.00038665102 -0.00038665134
0002f0 69 b7 ca b9 6a b7 ca b9 69 b7 ca b9 25 8f c9 b9
       -0.00038665094 -0.00038665097 -0.00038665094 -0.00038444359
000300 1d c5 1e 38 14 22 0d 39 bd 44 26 39 c7 44 26 39
       3.785371e-05 0.00013459503 0.000158566 0.00015856615
000310 cd 44 26 39 87 45 26 39 db f5 66 be b6 44 26 39
       0.00015856624 0.00015856895 -0.22554724 0.0001585659
000320 5b b1 29 39 9f 4e 2f 39 c4 44 26 39 0f 45 26 39
       0.00016183166 0.00016718589 0.00015856611 0.0001585672
000330 f1 44 26 39 96 44 26 39 01 75 68 39 40 82 3f 39
       0.00015856676 0.00015856544 0.00022168831 0.00018263701
000340 24 38 30 b8 22 6e 33 b8 61 07 d5 3d 89 44 26 39
       -4.2013955e-05 -4.2779495e-05 0.10401798 0.00015856525
000350 88 44 26 39 be 44 26 39 dd 75 0e 3a e9 44 26 39
       0.00015856524 0.00015856602 0.0005434433 0.00015856665
000360 67 df df bc 30 45 26 39 1d 9f 58 39 0f 9f 13 39
       -0.027328206 0.00015856768 0.0002065864 0.00014078266
000370 bb 51 1d 39 c1 44 26 39 c5 01 be 39 20 45 26 39
       0.00015003134 0.00015856606 0.00036240942 0.00015856745
000380 89 61 9e 3b eb 44 26 39 25 2f 64 39 ea 6f cd bc
       0.0048334044 0.00015856668 0.00021761337 -0.025077779
000390 c4 44 26 39 c0 78 46 39 a9 44 26 39 ca c0 47 39
       0.00015856611 0.00018927734 0.00015856572 0.00019049938
0003a0 e3 44 26 39 eb 44 26 39 b5 38 40 39 76 9c 54 ba
       0.00015856656 0.00015856668 0.00018331672 -0.00081104727
0003b0 ce 44 26 39 bf 1e 28 39 7f ae 16 3d 82 1f 46 39
       0.00015856625 0.00016033182 0.036787506 0.00018894489
0003c0 a2 44 26 39 e9 44 26 39 ca 40 25 39 a1 4a 60 39
       0.00015856561 0.00015856665 0.00015759762 0.00021390106
0003d0 df 44 26 39 63 4d 92 3e 1b 1a 03 3b 96 44 26 39
       0.0001585665 0.28574666 0.0020004574 0.00015856544
0003e0 f9 44 26 39 22 45 26 39 26 45 26 39 0c f2 8a 39
       0.00015856688 0.00015856748 0.00015856753 0.0002650175
0003f0 86 ab bf 39 97 e8 80 3d 8a 44 26 39 56 9c 9c 39
       0.00036558154 0.06294363 0.00015856526 0.00029871118

layer_norm.weight f4 [96]
000000 4c de 73 3c ee b7 82 3c 81 4d 5d b8 a3 4f 5d b8
       0.014884543 0.015956845 -5.2762687e-05 -5.2764673e-05
000010 18 50 5d b8 57 4e 5d b8 43 43 5c b8 50 4b 5d b8
       -5.27651e-05 -5.2763466e-05 -5.251473e-05 -5.2760646e-05
000020 84 81 14 3c 57 d0 64 3b 94 4b 5d b8 af 4f 5d b8
       0.009064082 0.003491422 -5.2760894e-05 -5.2764717e-05
000030 90 4e 5d b8 c1 4e 5d b8 54 2a 72 3a a4 cd 38 3c
       -5.2763673e-05 -5.276385e-05 0.0009237875 0.011279497
000040 d9 00 05 3c 2c a4 23 bc 11 20 d2 3f 75 4f 5d b8
       0.008117878 -0.009987872 1.6416036 -5.2764506e-05
000050 6e 55 5d b8 50 4b 5d b8 d9 a4 53 3c 1b 51 5d b8
       -5.277007e-05 -5.2760646e-05 0.012917721 -5.276604e-05
000060 70 07 c4 3f 3d 4f 5d b8 95 2a a3 3a c2 23 48 bb
       1.531477 -5.2764302e-05 0.0012448604 -0.0030538891
000070 7b 3f f9 bb 24 4f 5d b8 b2 dc fb ba ef 54 5d b8
       -0.0076064444 -5.276421e-05 -0.0019215553 -5.2769607e-05
000080 5e fc 9c 3f 4e 51 5d b8 fd ad 6f ba 97 f0 9d 3f
       1.2264516 -5.2766227e-05 -0.0009143053 1.2339047
000090 06 4f 5d b8 2f fa 8d 3b 15 52 5d b8 a4 d6 21 bb
       -5.2764102e-05 0.0043328027 -5.276695e-05 -0.0024694586
0000a0 6a 4f 5d b8 cc 57 5d b8 ed 17 47 bb 9b 4e 67 3e
       -5.2764466e-05 -5.2772273e-05 -0.003037925 0.2258858
0000b0 47 4f 5d b8 bc 10 8e 3b f7 7c cc 3f 9b 05 40 3b
       -5.276434e-05 0.004335491 1.5975636 0.0029300216
0000c0 13 50 5d b8 c0 4d 5d b8 8d 7d 0f 3c 0a 74 a8 3a
       -5.276508e-05 -5.2762916e-05 0.008757961 0.0012851965
0000d0 bd 52 5d b8 2a c2 2e b9 0b 28 ab bc fc 50 5d b8
       -5.2767562e-05 -0.00016666265 -0.020893117 -5.276593e-05
0000e0 2b 4c 5d b8 03 4c 5d b8 4b 4c 5d b8 e1 42 a2 3c
       -5.2761443e-05 -5.2761297e-05 -5.276156e-05 0.019807281
0000f0 9b 64 57 3c e4 f9 bc 3f 76 4f 5d b8 d8 d5 2f 3b
       0.013146545 1.476376 -5.276451e-05 0.0026830342
000100 7d 10 f5 3e a5 4f 5d b8 65 de 1e bb b9 02 67 bc
       0.47864142 -5.276468e-05 -0.0024241444 -0.01409977
000110 eb 4b 5d b8 c0 cc 0c b9 6e 11 ca ba 80 51 5d b8
       -5.276121e-05 -0.00013427716 -0.0015416571 -5.276641e-05
000120 74 50 e8 3a 4d 07 a7 3f 29 45 98 3c 0c 51 5d b8
       0.0017724172 1.3049103 0.018587666 -5.2765987e-05
000130 ed 4d 5d b8 49 50 5d b8 10 4f 5d b8 98 3a 9e 3f
       -5.276308e-05 -5.2765277e-05 -5.276414e-05 1.2361631
000140 61 51 5d b8 4d 50 5d b8 d1 74 69 bb 21 e2 e9 bb
       -5.2766296e-05 -5.2765292e-05 -0.0035622607 -0.0071375524
000150 62 55 5d b8 5e 51 5d b8 ed a0 08 bd 4f 7a 96 3f
       -5.2770025e-05 -5.2766285e-05 -0.033356596 1.1756076
000160 23 4f 5d b8 fd 8f 7c 3f ec 4e 5d b8 2a 51 5d b8
       -5.2764208e-05 0.9865721 -5.2764008e-05 -5.2766096e-05
000170 f3 4e 5d b8 33 4f 5d b8 ef 55 5d b8 a9 f4 d8 39
       -5.2764033e-05 -5.2764266e-05 -5.2770538e-05 0.00041381016

layer_norm.bias f4 [96]
000000 fa f9 d3 bd 14 79 bc bd a2 85 7f b8 f3 86 7f b8
       -0.103504136 -0.09202781 -6.0921193e-05 -6.092242e-05
000010 13 89 7f b8 29 85 7f b8 44 c9 a3 b8 40 85 7f b8
       -6.0924398e-05 -6.0920753e-05 -7.809934e-05 -6.0920836e-05
000020 d3 64 5b bd 60 7f 82 bd 0c 85 7f b8 2d 87 7f b8
       -0.05356295 -0.06371951 -6.0920647e-05 -6.092263e-05
000030 ca 86 7f b8 f3 86 7f b8 28 fa a7 3d 61 2f 51 bd
       -6.092227e-05 -6.092242e-05 0.082020104 -0.051070575
000040 fe 23 90 be ff 6c fe 3d 54 e9 2a 3d 7d 85 7f b8
       -0.2815246 0.12423133 0.041726425 -6.092106e-05
000050 7e 88 7f b8 48 85 7f b8 5c 7c 11 be 4b 87 7f b8
       -6.0923856e-05 -6.0920866e-05 -0.14207596 -6.092274e-05
000060 2b 7f 0c be af 85 7f b8 80 89 40 3d 1c 2d b1 3e
       -0.13720386 -6.092124e-05 0.04700613 0.34604728
000070 dc e9 2e 3d d8 85 7f b8 15 b1 9f 3e 51 89 7f b8
       0.042703494 -6.092139e-05 0.3118979 -6.0924624e-05
000080 13 01 06 bf 7a 87 7f b8 43 71 9e bd df f1 0c be
       -0.5234539 -6.092291e-05 -0.07736447 -0.13764141
000090 24 86 7f b8 4e 4d 7e bd 8b 86 7f b8 f7 48 5a b9
       -6.0921666e-05 -0.062085442 -6.092204e-05 -0.00020817282
0000a0 97 87 7f b8 64 89 7f b8 1d a7 ef bd 9d 47 63 3e
       -6.0923016e-05 -6.0924693e-05 -0.11701796 0.22195287
0000b0 85 86 7f b8 a4 1f 9d 37 5a a6 f2 be 68 ee 53 3c
       -6.092202e-05 1.8730592e-05 -0.4739254 0.012935258
0000c0 82 88 7f b8 66 85 7f b8 e3 57 e0 3a 66 38 b9 3d
       -6.092387e-05 -6.0920975e-05 0.0017116036 0.0904396
0000d0 ac 87 7f b8 16 e4 ac 39 3c ff 84 bc ed 86 7f b8
       -6.0923092e-05 0.00032976334 -0.016234986 -6.0922397e-05
0000e0 77 85 7f b8 21 86 7f b8 2a 85 7f b8 74 51 84 bd
       -6.0921036e-05 -6.0921655e-05 -6.0920756e-05 -0.064608485
0000f0 2c ce 57 be e5 64 7d 3d 08 87 7f b8 0f 98 be bd
       -0.21074742 0.0618638 -6.0922495e-05 -0.093063466
000100 a0 6f 8d 3d 3b 85 7f b8 6d f1 7b bb 54 4b e4 bc
       0.069060564 -6.092082e-05 -0.0038443462 -0.02786795
000110 20 87 7f b8 69 75 8c b8 b5 6c 98 3e cd 86 7f b8
       -6.0922583e-05 -6.6975896e-05 0.29770437 -6.092228e-05
000120 5d c4 20 ba fa c3 fc 3e 38 a2 96 bd 1b 87 7f b8
       -0.0006132776 0.49368268 -0.073551595 -6.0922564e-05
000130 3e 86 7f b8 77 88 7f b8 c2 85 7f b8 6e 40 77 3e
       -6.092176e-05 -6.092383e-05 -6.092131e-05 0.24145672
000140 62 87 7f b8 29 86 7f b8 96 5a 50 bc 76 f7 8d 3d
       -6.0922823e-05 -6.0921684e-05 -0.01271691 0.06931965
000150 6d 87 7f b8 09 88 7f b8 66 22 73 3e 74 be 7f bd
       -6.0922863e-05 -6.092343e-05 0.2374359 -0.06243749
000160 5f 86 7f b8 8b e5 c1 3c ba 86 7f b8 35 88 7f b8
       -6.092188e-05 0.023669025 -6.092221e-05 -6.092359e-05
000170 96 86 7f b8 cc 88 7f b8 72 88 7f b8 c1 b1 32 3d
       -6.092208e-05 -6.092414e-05 -6.0923812e-05 0.04362655
