model/lstm_decoder.pt (torch, 348141 bytes, 15 tensors)

attn.weight f4 [6, 193]
00000000: 1005 5d3d 82a1 193e 9dbd aa3e 8b87 8cbc
00000010: 944e e53d 40d1 b93d a930 2e3f d5c7 b13c
00000020: 45fb c93d 4c4f 5bbd 97e4 1a3d 6854 92bd
00000030: 25e2 3bbc 9356 d63b f9bb a0be 41f6 8bbd
00000040: f8de 0c3d d652 c73d 17b1 3c3e 7c31 d13b
00000050: 6f93 87bc 0e37 a2bc 2453 5bbd 7fe3 e13c
00000060: 3927 25be 8c8a 7f3d e2e5 dfbe f26e 5bbd
00000070: b29f 323e 8744 3bbe 43ae c1bc 147f 14bd
00000080: fa36 c33d aa60 85bd c292 8838 abe9 863e
00000090: 329b c8bc 5425 7bbe 2214 9d3d 501f 90bd
000000a0: a4a0 15be a75d 993e acce 1abe 50b6 923d
000000b0: 48eb 0bbe cac2 4c3d d81b 4bbb 9ca2 673e
000000c0: 235a f3be 4c5c c2be 416f 9cbd a351 adbc
000000d0: 523d 0abf 53b9 09be 96cb 1d3e e06a 8c3e
000000e0: eefe 743d 656d c0be 7daf 893d 0385 3d3f
000000f0: b895 e03d f9ac 5e3d afde 7f3e e0a6 fb3d
00000100: b88f 493e 5eab eb3d 2ee8 173e 307c e7bd
00000110: 996d 4f38 1abc 90bd 8b4b 0dbe 19d2 f53d
00000120: 8b84 81bc 9a4b 1ebe dbb5 56bd 0b90 dd3e
00000130: 403a 9fbe 99c8 8ebc f913 1fbe 84e0 cd3c
00000140: 7bb8 e13c 0354 5a3e 152d 753e ac91 d13d
00000150: 508e 17bd e204 913c 373a 06bf 4b6e 023d
00000160: 04f6 07bf 0121 a13e 6d75 523f e1f4 f5bd
00000170: 3f3f 28be d520 29bf ba96 7fbd 3ff2 07be
00000180: e5a1 213d 47d9 163e 9264 8e3e 16c7 253d
00000190: edd9 e8bd 4fbf 8cbd 0bed 85bc 4d3f 0dbe
000001a0: 1f87 1cbe f9d2 b13e 47ec 5ebc 475b 6fbd
000001b0: f3f0 d5bd 0fec 5fbd 971c 9bbc 65b5 a4be
000001c0: 70f3 1dbe 1395 3cbd e3c5 9abc a308 283e
000001d0: 1abc 0d3f 48f5 b7be d42e 9a3e db7d d83e
000001e0: fcb6 3ebf 5ae4 d93d 9327 b63e 4d0c 3a3f
000001f0: abcc 3a3e 491a 403e 009b b3bd 8917 253d
00000200: f567 1cbe cc29 50be 42a7 b33d 142c b43e
00000210: 4e5d 9d3d b58d 5bbe 6328 863e 2375 bb3d
00000220: ffb7 0f3d d914 debc 2e36 5d3e 6186 403d
00000230: e6fd 453c 055f 443e f023 a03e e1aa 0dbd
00000240: c2f4 3abd b534 b2bf 0e11 b4be a72c f73e
00000250: 4cc8 d2be 6a98 d0bc fee5 aabd ff31 983e
00000260: ea5a 4ebe 8072 bf3d d0ab c6be f8ce 0b3f
00000270: e5e1 923c 044a 95bd 5902 343c 2429 00be
00000280: 9056 98be 305c 80bd a763 2d3e 3c43 68be
00000290: c74d 7abc 7a6b a5bd 0977 febd 2b2d 12be
000002a0: 2204 f4bd 28c8 613b be49 623e 1e3e dfbd
000002b0: 8fc5 c0bc 28ae d8be c496 023e 036a 7ebd
000002c0: 13bf d2bd 851c 80be b574 f7bd c3b8 cebe
000002d0: 500e 96bc 8102 af3c eb2d 9ebf ac1b 833e
000002e0: 54ce 5bbc 538b 03bf 1afc 383b 1877 81bc
000002f0: 7cae f73d 6806 8bbe 07eb 77be 6f45 c63d
00000300: 9b61 8a3e 60a7 053e 805b 23be cae1 bdbe
00000310: bfac 92be 08dd 8cbe f228 63be 6063 2abf
00000320: ed00 2abe 08d3 193e e468 3d3d ef12 123e
00000330: 3594 f73a 5a19 7dbe bb50 5fbe e6c7 8eba
00000340: 7ff0 fb3d c29b 743e f87b 5d3c 72ea 3b3f
00000350: 766b 753e 6d6e 31be 9a6b 9f3d 6880 1fbe
00000360: daff bc3b 92ad 6cbe e930 053d f694 6a3e
00000370: 54fc 843c 8f19 3fbe 91e2 9539 0e65 4cbe
00000380: 850d 8b3d 7329 7b3e 71fa fdbd 3027 3038
00000390: 99a5 b9be b04e 783e 65b4 b53d e762 36be
000003a0: 77e9 67be 4dd3 183d df4b 39bd acb0 b53d
000003b0: c4ad 4d3e a846 27bd 0fc0 b7be 02e6 3ebd
000003c0: 3886 bcbd 4827 debc ff50 fbbc 4e48 853d
000003d0: 2c19 dc3e 5b2f 793d 9621 373e 39b0 fdbc
000003e0: 1c54 03be affe bebd e8ad b63e 5c21 cbbd
000003f0: b1b1 89be bba4 76be 6ac1 b43d 0fca b93c
0.053959906 0.15003017 0.33347788 -0.017154476 0.11196628 0.090731144 0.68043 0.021701733
0.09862379 -0.05354242 0.037815657 -0.071450055 -0.011467491 0.006541082 -0.31393412 -0.068340786
0.034392327 0.097325966 0.1842693 0.006384073 -0.016549794 -0.019801643 -0.053546086 0.027574299
-0.16128244 0.062387988 -0.43730074 -0.053572603 0.17443731 -0.1828786 -0.023642665 -0.036254004
0.0953197 -0.06512578 6.512321e-05 0.2635015 -0.024488065 -0.24525958 0.07669856 -0.070372224
-0.14612061 0.29954264 -0.15117902 0.071636796 -0.13663971 0.049990453 -0.0030991938 0.22620624
-0.47529706 -0.37961042 -0.076384075 -0.021157091 -0.5399982 -0.13449602 0.15409693 0.2742529
0.059813432 -0.3758346 0.06722925 0.74031085 0.109660566 0.05436418 0.24987291 0.12287688
0.1968373 0.11507295 0.14834663 -0.11302984 4.9454717e-05 -0.070671275 -0.13798349 0.120029636
-0.015810272 -0.15458527 -0.052419525 0.4327396 -0.3109913 -0.017429637 -0.15534963 0.025131471
0.027553787 0.2132111 0.23942979 0.10232863 -0.037000954 0.017702524 -0.5243258 0.031843465
-0.53109765 0.31470492 0.8221043 -0.120095976 -0.16430376 -0.6606572 -0.062399603 -0.13276003
0.039461035 0.14731322 0.27811104 0.040473066 -0.11369691 -0.06872427 -0.016348382 -0.13793679
-0.1528592 0.34731272 -0.013606138 -0.05843666 -0.10446348 -0.054668482 -0.018934531 -0.32169643
-0.15424895 -0.046040606 -0.018893188 0.16409545 0.55365145 -0.35929322 0.30113852 0.4228352
-0.7449796 0.10639258 0.35577068 0.7267502 0.18242137 0.18760027 -0.08769798 0.040305648
-0.15274031 -0.20328444 0.08772136 0.3518988 0.07683812 -0.21440776 0.26202688 0.091532014
0.03508758 -0.02710955 0.21602699 0.047003154 0.01208446 0.19176872 0.31277418 -0.03458679
-0.045643575 -1.3922335 -0.35169262 0.48276255 -0.4116844 -0.025463302 -0.08344649 0.29725644
-0.20151868 0.09348011 -0.38802958 0.54612684 0.01792998 -0.07289508 0.010986888 -0.12515694
-0.29753542 -0.06267583 0.16932546 -0.22681898 -0.015277333 -0.0807714 -0.12425048 -0.14275043
-0.11914851 0.0034451578 0.22098443 -0.1090052 -0.023531703 -0.4232037 0.12752825 -0.06211282
-0.10290351 -0.2502176 -0.12082807 -0.40375337 -0.018317372 0.021363499 -1.2357763 0.2560705
-0.013415892 -0.51384467 0.0028226436 -0.015803859 0.12093827 -0.27153325 -0.2421075 0.09681212
0.27027592 0.1305213 -0.15952873 -0.37086326 -0.2864742 -0.27512383 -0.22183588 -0.66557884
-0.16601916 0.15021908 0.04624261 0.14265035 0.0018888774 -0.24716702 -0.2180814 -0.0010893315
0.1230173 0.23887542 0.013518326 0.7340461 0.23966774 -0.1732728 0.07784195 -0.15576327
0.0057678046 -0.23113087 0.032517347 0.22908387 0.0162336 -0.18662094 0.000285883 -0.19960424
0.06789688 0.2452753 -0.124012835 4.1998166e-05 -0.36259153 0.24248767 0.08872298 -0.17811166
-0.22647654 0.037310887 -0.045238372 0.08871588 0.20085818 -0.040838867 -0.35888717 -0.04660607
-0.09205288 -0.02711834 -0.03067827 0.06507932 0.42987955 0.060836177 0.17883906 -0.030967819
-0.12825054 -0.09325921 0.35679555 -0.09918472 -0.2689338 -0.24086277 0.08825953 0.022679357

attn.bias f4 [6]
00000000: 626c 15be 0543 8cbe 7155 0c3e 626c bbbd
00000010: e11f 43bd 9f46 f03e
-0.14592126 -0.27394882 0.13704468 -0.09151532 -0.047637824 0.4692888

attn_combine.weight f4 [96, 97]
00000000: 266b 7dbd b433 23be 99dc ffbd 1a57 8836
00000010: 2ca3 2abc a8a1 38b9 90ce 06bc ea38 3d39
00000020: 7bce 613e 9715 113c 3232 6bba be1c 8539
00000030: 74e4 dc39 8383 283a ba82 033e af7a 9438
00000040: 9bd4 7cbc a858 12ba df0a 6839 ef37 97b8
00000050: 33e6 aab8 e546 7d39 bab5 44b9 ceae 95bb
00000060: f7f6 f93d eda2 c537 e9a8 82b9 35a2 8bb8
00000070: e933 853a 5191 99bb 6f07 4239 684a 273a
00000080: a5a5 ce39 b68f 8fbd 04a3 a136 eede 33be
00000090: cc26 d93d 44c5 6fb9 ee12 96b8 7c26 99bd
000000a0: 289b dfbc 2974 38b9 f007 3b3f b298 a63d
000000b0: d237 35b5 eaa6 c13c 153e 30bd b384 eeba
000000c0: 8443 45bd 1d9d c03d 4679 4abc 1585 12bd
000000d0: 2ad0 23b9 5980 02bf d270 f1bd 158d 0439
000000e0: 2c2e 3a3e 02c3 7a3d 47c5 6836 d24c a2bb
000000f0: 3285 663e b29a 4a39 36a3 b3bc 09f1 2136
00000100: d143 b83d 755e 4fb9 aef1 94bb b4ce e33d
00000110: 8dc8 2eb7 04c3 17b9 91a5 6dbe 9a04 cfbb
00000120: 8a8d 0336 61ac f43b 4e95 2bbd 8c0f 6339
00000130: dba6 853c 0354 8dbe ec85 f5b9 3a13 13ba
00000140: 0c96 2a3b f2a0 0abe a3cc 9ebd 7530 a436
00000150: cf5e 9db9 fd0d 1039 647e 013e c069 263d
00000160: d351 ed3d 6104 ae36 b6e3 55bc 2297 0ebe
00000170: b444 ed3b 96ad af38 aac0 ca37 0231 fb3e
00000180: 072c 1cba d96f dfbc bfb3 1cbe b927 b4bd
00000190: e59c 0fb9 00d6 8f3d 7961 4bb9 41f0 09be
000001a0: 6275 0a39 930a 62bd fc3c 1d3b ecea 8037
000001b0: f7fb c6b8 0576 ad38 b4c2 1b38 0fe7 8abc
000001c0: 85e6 7039 8af5 bbbd 7655 a3b8 afe5 1f39
000001d0: 3a24 66b9 74a1 6fb9 d40d 1939 9b1d 40b9
000001e0: c71f 843c b3f9 1cbe 8c78 5d39 2386 10b9
000001f0: a310 6db9 61e2 14b9 922f b13c 31a1 4439
00000200: 3b98 b3b5 bc42 8638 8913 4dbe aeca 17b9
00000210: 474c acbc 99af 22be d07f 17b9 fdd8 70b9
00000220: 5837 ec3d 64bc 9e3d 1812 49b9 fc4a b3bd
00000230: 0568 353d aeea 39b9 38c3 57bd c51c a0bd
00000240: 7d19 233c 3c94 983d 498b 213d 3a4b 14be
00000250: f3a5 b3bd a25a 4ab9 3cc1 0abe 8ce5 1a3e
00000260: c06f 6639 326b e43b 41f2 a63c a0b6 a5b8
00000270: c178 8d3c 4ae7 7bbe 9eb0 3839 e03f 633b
00000280: 11c9 3cb9 d24c 913e 35fe 31b9 651a a2be
00000290: f82b 263e 293b 0939 1871 59b9 74b3 893d
000002a0: ee2c 1cbd c46c f3b8 c679 d0bc 4c5b 0c3e
000002b0: 43c0 2439 7ad7 57ba 7be7 453e c2e7 a5b8
000002c0: 9cc9 96b8 5437 e4bd 4b82 6d3e 7dcc 8a3c
000002d0: 260b ffb8 4465 d1b8 e110 6339 a6c0 213e
000002e0: bb2e 803d a899 6a3e fdeb 2db9 fa90 223b
000002f0: 1abc 9d3e ada9 bfbc 3990 6e39 d5bb 6039
00000300: 2e0b f4bd b2e6 83b8 77e1 143c 5a7b 913e
00000310: b322 adbc 3d7f 13b8 5d1c 02bd bdb0 99b9
00000320: 7163 5cbe 7319 6e39 2891 b73d 4c54 b2bc
00000330: eaae f0ba d799 333b 982c 853a 0c6b b63a
00000340: edd7 12be e5a0 d738 308c 903d bbea 99ba
00000350: 87b0 033a b9d9 d9b8 5da7 e1b8 9556 0e3a
00000360: 9e60 abb9 74b3 16bd e938 30be 2bf3 8638
00000370: 4389 10ba c578 c7b8 288e f93a 21eb 97bc
00000380: 1e98 a639 f13c c23a 5c6f 7d3a 0e08 ecbe
00000390: 6f1c 34b8 3fda 103c 35e6 a9bd 1262 08ba
000003a0: 4a13 beb8 fad4 b63e 6b5c c5bc 0458 94b9
000003b0: 11c9 2dbb 2705 243c a366 42b8 fecb 263d
000003c0: 40b1 7e3d 957f 2bbb 72ec 4a3e 3778 1bbe
000003d0: 24d0 fcbe 1917 363d 0f08 72b9 5cd0 8d3d
000003e0: 6fb2 33be bd5b 2939 31da e1bd 402e dbbe
000003f0: bcfd e7b7 5073 07be 1ea6 4f3f c6e0 ae39
-0.061869763 -0.15937692 -0.124932475 4.063256e-06 -0.01041488 -0.00017607829 -0.008227959 0.00018045647
0.22051422 0.008855245 -0.0008972018 0.0002538915 0.0004213188 0.0006428288 0.12842837 7.0800415e-05
-0.0154315485 -0.0005582669 0.00022129294 -7.2106595e-05 -8.1491096e-05 0.0002415437 -0.00018759715 -0.0045679575
0.12205308 2.3560098e-05 -0.0002492138 -6.65825e-05 0.0010162565 -0.0046865125 0.00018504051 0.0006381632
0.00039414797 -0.070098326 4.8171514e-06 -0.1756551 0.10603103 -0.00022866303 -7.156083e-05 -0.074780434
-0.027295664 -0.0001759088 0.73058987 0.08134593 -6.7508984e-07 0.023639161 -0.043027956 -0.0018197506
-0.04816009 0.09404967 -0.012358015 -0.03577145 -0.00015622439 -0.50977093 -0.11789097 0.00012641058
0.18181676 0.06122113 3.4685524e-06 -0.0049530054 0.22511747 0.0001932185 -0.021928411 2.413117e-06
0.0899731 -0.00019776246 -0.004545412 0.1112341 -1.0417903e-05 -0.00014473131 -0.2320769 -0.006317687
1.9602908e-06 0.007466838 -0.041890435 0.00021654199 0.016314914 -0.27603158 -0.0004682982 -0.000561047
0.0026029376 -0.13537958 -0.07753875 4.893222e-06 -0.0003001601 0.00013738121 0.1264587 0.040628195
0.11587872 5.186114e-06 -0.013054779 -0.1392484 0.007240856 8.376983e-05 2.4169993e-05 0.49060827
-0.00059574883 -0.027275013 -0.15302943 -0.08796639 -0.0001369599 0.07023239 -0.000193959 -0.13470556
0.00013204434 -0.055185866 0.0023992648 1.5368183e-05 -9.488308e-05 8.271266e-05 3.713621e-05 -0.01695588
0.00022974059 -0.09177692 -7.788364e-05 0.00015248985 -0.00021948005 -0.00022852962 0.00014596368 -0.00018321576
0.016128434 -0.15329628 0.0002112111 -0.0001378288 -0.00022608279 -0.00014198713 0.021629129 0.00018752065
-1.3380844e-06 6.402048e-05 -0.20026983 -0.00014475986 -0.021032466 -0.15887298 -0.00014448096 -0.00022969018
0.115339935 0.077507764 -0.00019175594 -0.087545365 0.044288654 -0.000177304 -0.05267641 -0.07817987
0.009954807 0.074501485 0.039439473 -0.14481822 -0.08771887 -0.00019297985 -0.13550276 0.15126628
0.0002197614 0.0069707865 0.020379188 -7.90183e-05 0.017269494 -0.24599949 0.00017613402 0.0034675524
-0.0001800398 0.28378922 -0.00016974735 -0.31660762 0.1622771 0.00013087377 -0.00020736863 0.06723681
-0.038128786 -0.00011607402 -0.025448691 0.13706702 0.00015711882 -0.00082337076 0.19326584 -7.9109814e-05
-7.19011e-05 -0.111433655 0.23194234 0.01694321 -0.00012161424 -9.984759e-05 0.00021654695 0.15796146
0.06258913 0.22910178 -0.00016586478 0.002480565 0.30807573 -0.023396337 0.00022751176 0.00021432278
-0.11916195 -6.289537e-05 0.009086958 0.28414422 -0.02113471 -3.516603e-05 -0.03176533 -0.00029314114
-0.21522309 0.0002270693 0.08963233 -0.021768712 -0.0018362675 0.0027404928 0.0010160385 0.00139174
-0.14340182 0.00010281968 0.07057989 -0.0011742929 0.0005023558 -0.0001038792 -0.0001076001 0.0005429772
-0.00032687647 -0.036792234 -0.1720921 6.4349115e-05 -0.00055136177 -9.5115545e-05 0.0019039558 -0.018544735
0.00031775323 0.0014819187 0.0009667778 -0.46099895 -4.2941825e-05 0.008841096 -0.08295862 -0.0005202602
-9.063499e-05 0.35709363 -0.02409192 -0.00028294337 -0.002651755 0.010010994 -4.6348792e-05 0.040721886
0.062180758 -0.0026168574 0.19816759 -0.15182577 -0.4937755 0.04445562 -0.0002308192 0.06924507
-0.17548536 0.00016151271 -0.11027945 -0.42808723 -2.76555e-05 -0.13227582 0.8111285 0.00033355335

attn_combine.bias f4 [96]
00000000: 209d a437 cb5c 2e37 65dc 1c36 f57c 99b7
00000010: 871b 0336 1427 8cb6 3ebc 1eb8 d34f 8db7
00000020: 65cc 8a37 8b2c 8b36 f414 9037 4660 c2b5
00000030: b2b3 b735 677c 5037 7f43 7ab7 7d02 0080
00000040: 9843 d8b7 e21a c137 fc28 2637 08ad f5b6
00000050: 0f74 c1b7 125e 9ab5 9526 f337 1b1d 0538
00000060: 8f18 8a37 2d14 4eb7 8dc2 1000 bbec deb7
00000070: 5d4f 96b4 2310 8c37 4e5f 1237 af7b b437
00000080: 3f77 7b38 4bdc 73b6 f2af c0b6 fa0a 64b6
00000090: 586d d8b7 1b85 e437 baaf 9fb7 3b36 d5b5
000000a0: 68b2 8e37 2233 2b37 ac29 33b7 bb55 85b7
000000b0: 4422 e7b7 af99 e9b6 6a37 9236 adff 6e37
000000c0: d818 8d36 06d6 8cb6 8c99 4c38 5df4 3f37
000000d0: 8e5f 05b7 d98b dc36 f9dd 9336 9d27 b5b7
000000e0: 02ee 4cb8 d6ae 7337 e302 0080 4563 d236
000000f0: b3bb 2b38 d603 0080 1005 0080 b5cf 8bb7
00000100: c258 4639 23e5 01b8 3db5 9c37 8062 9c37
00000110: 3fd3 4136 9098 cfb6 acb9 8fb7 fdf3 f9b7
00000120: 462e ef37 5cdf c1b6 4004 fab7 08b5 6038
00000130: b8d2 82b5 ccfe c5b8 ea41 98b7 a33b 4c37
00000140: c1a8 9736 25af 8637 252a ba38 7051 c936
00000150: c741 9c38 7fd4 fdb6 a079 7f37 1b19 1db8
00000160: d5c2 bcb7 8600 0080 9503 0000 cf74 0d38
00000170: 1fa7 acb7 6c0e 40b7 d748 24b8 1018 88b6
1.962349e-05 1.0392813e-05 2.3374098e-06 -1.8297209e-05 1.9536544e-06 -4.1768744e-06 -3.784545e-05 -1.684568e-05
1.654606e-05 4.1477083e-06 1.7175895e-05 -1.4482146e-06 1.3686861e-06 1.2426731e-05 -1.4916876e-05 -8.93e-43
-2.5780682e-05 2.3019911e-05 9.903913e-06 -7.3217125e-06 -2.3061437e-05 -1.1501272e-06 2.8985824e-05 3.1736778e-05
1.6462318e-05 -1.2283254e-05 1.53916e-39 -2.6574698e-05 -2.7997422e-07 1.6696815e-05 8.724468e-06 2.1515267e-05
5.995412e-05 -3.633805e-06 -5.7425286e-06 -3.3981037e-06 -2.5800124e-05 2.72417e-05 -1.9036106e-05 -1.588552e-06
1.7010796e-05 1.02042995e-05 -1.0678934e-05 -1.5894757e-05 -2.7553302e-05 -6.9618322e-06 4.35759e-06 1.4245435e-05
4.2050196e-06 -4.1972407e-06 4.878039e-05 1.1441382e-05 -7.949666e-06 6.5727913e-06 4.4067824e-06 -2.1595328e-05
-4.8859052e-05 1.4524636e-05 -1.036e-42 6.270044e-06 4.0944386e-05 -1.376e-42 -1.816e-42 -1.6666812e-05
0.00018915816 -3.0969397e-05 1.8681045e-05 1.8642517e-05 2.8882203e-06 -6.1868413e-06 -1.7133389e-05 -2.9796729e-05
2.8512568e-05 -5.7778507e-06 -2.9804301e-05 5.357436e-05 -9.747082e-07 -9.4411516e-05 -1.8150506e-05 1.2173233e-05
4.519796e-06 1.6055603e-05 8.877021e-05 5.9997474e-06 7.450912e-05 -7.5647254e-06 1.5227502e-05 -3.74551e-05
-2.2502072e-05 -1.88e-43 1.285e-42 3.3725806e-05 -2.058182e-05 -1.144745e-05 -3.9168484e-05 -4.055917e-06

bn.weight f4 [96]
00000000: 2352 333f cb06 0c3f 0e80 133f 05c6 ae3f
00000010: 2712 073f 2443 203f ecfa 8c3f 6ddb 533f
00000020: 6dfd 193f bf28 343f 1037 2b3f d8f4 263f
00000030: 8406 ed3e 14e2 1f3f 7afe 533f 3d02 0000
00000040: b183 0e3f 958b 7f3f a1c3 1d3f 7e5e 6c3f
00000050: 9e0d 663f 447a 2b3f da3a 6d3f f4d4 833f
00000060: 979b 343f e535 6b3f c0cb bcb7 43cb d93e
00000070: 1a0e 393f dfba 443f 4612 4c3f f658 503f
00000080: 745e 7d3f abb5 fb3e eeee 053f c4bf 6b3f
00000090: 0d39 1d3f ec1e 573f 581a 873f eb48 243f
000000a0: d4cd 2c3f 289b e73e 2fc0 273f 17d2 223f
000000b0: 0269 5a3f 5da1 3e3f 387d 963f 15cf 5c3f
000000c0: 7fa0 5f3f 309d 3e3f d56c 193f e68b 1c3f
000000d0: d7b4 313f 7104 213f ce13 263f af50 393f
000000e0: 7b70 793f 83b3 413f b500 0000 4e27 403f
000000f0: a1a7 4b3f d804 0000 9059 f72c 84a4 1c3f
00000100: 5b0c 843f 4183 3f3f 17c8 503f 69ab 423f
00000110: 636b 363f 3cd2 213f bbcd 603f 9e2f 3f3f
00000120: 8413 803f 368d 543f 3b55 2a3f 05de 813f
00000130: 9776 1e3f cc2a 5d3f be89 6e3f c308 283f
00000140: d46e 4a3f 6ae0 453f 82b7 4d3f 792f dd3e
00000150: 6126 513f a3b5 4a3f d9ea 5e3f 17f6 433f
00000160: c0dc 1d3f de02 0000 9c04 0080 4162 3b3f
00000170: fd08 053f 70c4 993f ae41 323f cad4 2e3f
0.70047206 0.54697865 0.5761727 1.3654181 0.52762073 0.6260245 1.1014075 0.8275669
0.6015232 0.70374674 0.66880894 0.6521735 0.46294034 0.6245434 0.82810175 8.03e-43
0.55669695 0.9982236 0.6162663 0.92331684 0.8986453 0.6698344 0.92667925 1.0299363
0.7054991 0.9187911 -2.2506225e-05 0.4253789 0.7228714 0.7684764 0.79715383 0.81385744
0.9897225 0.4916204 0.523177 0.92089486 0.6141518 0.8403156 1.0554914 0.64173764
0.6750157 0.45235562 0.65527624 0.6360182 0.8531648 0.7446497 1.1756964 0.8625348
0.8735427 0.744586 0.5993169 0.6115097 0.69416565 0.628974 0.6487397 0.7238874
0.97437257 0.7566454 2.54e-43 0.75059974 0.79552656 1.738e-42 7.0301057e-12 0.6118853
1.031627 0.7480965 0.8155531 0.760428 0.7125761 0.6321142 0.8781392 0.74682033
1.0005956 0.8302797 0.665363 1.014588 0.61899704 0.8639343 0.9317893 0.6563837
0.7907536 0.77295554 0.80358136 0.4320028 0.81699187 0.79183406 0.870771 0.7654738
0.6166496 1.029e-42 -1.654e-42 0.731968 0.5196684 1.2013073 0.6963147 0.6829344

bn.bias f4 [96]
00000000: 2ecf 95be 5afa 35bf 5e6a 153e c082 9fbe
00000010: a3f5 27bf 68b6 69be 7f8b 93bf 166a 25bf
00000020: 711d 0d3e 5b81 98bf 8cc8 34bf c1ac 11bd
00000030: 5de7 01bf 3888 983e 0083 26bf da58 5787
00000040: c245 edbe ff6d 88bf 19f1 ebbe 690c ea3e
00000050: a3fa 5cbf e2e5 36be 241c f83d 6f25 d93d
00000060: 728a 203d 2c19 823e 08ce 13b8 9353 2cbf
00000070: 157d 66be 90c1 f1bd 653b 0fbf 32c9 03bf
00000080: 4bd4 9c3e 8e62 943d f139 89be 81b6 993d
00000090: 09ca 4c3f e199 b8be 3096 da3e 4af0 b4bd
000000a0: 8bb6 31bf 2eb2 b5bd 4607 0abe b1ed dabe
000000b0: 39ec 30be 772e ccbe 0a7f 13bf 073c b93d
000000c0: 740c 3dbf f121 1ebf 3e5c 833e 2d6f 87be
000000d0: f884 a63d b953 15be 1b9b 52bf ce19 89be
000000e0: 5638 c6be 2174 a5be 91bc 4ca8 60e3 ecbe
000000f0: d504 66be b5bf 83b3 a1ab 5cb5 fd2f cabe
00000100: 3325 a43d 9a20 5cbf 20e3 21bf da8e fb3e
00000110: 8009 933e ee9f 83be 5497 2bbe a021 ab3e
00000120: 0bc5 903e 4469 24be 853f 28bf e2a2 35bf
00000130: 171a 933d 6833 263e d9ce ccbe 9fa6 d8be
00000140: 583a 3fbf 3827 8abe 3bfe 90bd ff8f 413d
00000150: f6e3 5cbe 9cf2 47bd 12f1 5b3d 9dc5 7bbd
00000160: fdb1 0bbf 53ce efab a907 7da7 7c5c 76be
00000170: 9694 233e 03b9 debe 795d 23be 7829 afbe
-0.29259628 -0.7108513 0.14591357 -0.31154442 -0.65609187 -0.22823489 -1.1526946 -0.64615
0.13780762 -1.1914476 -0.7061851 -0.03556514 -0.5074366 0.29791427 -0.6504364 -1.6200913e-34
-0.46342283 -1.0658568 -0.4608238 0.45712593 -0.8631994 -0.17861131 0.121147424 0.10602843
0.03919453 0.2540983 -3.5239413e-05 -0.67315024 -0.22508653 -0.11804497 -0.55950004 -0.51478875
0.30630717 0.0724536 -0.26802018 0.07505513 0.7999578 -0.360549 0.4269271 -0.08834894
-0.69419163 -0.08871876 -0.13479337 -0.4275947 -0.17277612 -0.398792 -0.5761572 0.090446524
-0.73847127 -0.6177054 0.25656313 -0.26452008 0.081308305 -0.14582719 -0.8226792 -0.267775
-0.38714856 -0.32315162 -1.1365164e-14 -0.46267223 -0.22462781 -6.135034e-08 -8.220614e-07 -0.39489737
0.08014908 -0.85987246 -0.6323719 0.49132425 0.28718185 -0.25707954 -0.16756946 0.3342409
0.28275332 -0.1605578 -0.65721923 -0.70951664 0.071827106 0.16230547 -0.40001562 -0.42314622
-0.746984 -0.26983047 -0.070797406 0.047256466 -0.21571335 -0.048815355 0.0536967 -0.061467756
-0.54568464 -1.7039238e-12 -3.5114956e-15 -0.24058717 0.1597465 -0.43500528 -0.15953626 -0.34211326

bn.running_mean f4 [96]
00000000: 50df 74c0 10aa 35c0 7449 b140 2682 3642
00000010: 6569 6c41 e41d 64bc c277 aec0 6101 6ac0
00000020: 915a f83e 6e58 b241 ebac 963f d8b4 b83d
00000030: 1885 4040 0a1c aac1 c9b1 8a3f d514 0000
00000040: 40a4 d63f 391f b1c1 0be1 99bf 45ea a2bf
00000050: 1f8e 5bc1 ff1d 47c0 2d67 11c1 53b8 b0c0
00000060: 713a b3bf 929b 5241 066d 94bb 85ef 12c0
00000070: 814f b13f cf73 f340 b0fd f9c1 97f2 5940
00000080: a3d9 0142 c934 89c1 7c7a a5bf 75af ea40
00000090: 193b c5c0 bbe7 2cc2 a2dd 1d41 0873 cbbd
000000a0: c3a2 9a40 27db f73a c845 5c3e c73a 09c0
000000b0: fdf3 8140 273c b6c0 7d75 49c1 328d 0b3f
000000c0: 45fd 66c0 6f2d 21c0 16c4 cebf 58fc 4840
000000d0: 5124 babc adcd acbf 57f3 15c0 bbcc a3bf
000000e0: fdce d740 7c0d 8441 a088 0080 dccd 1ec0
000000f0: 05cf bd3e 95eb 0000 3cfa a68b 942a a2bf
00000100: 058a 71bf 366e fb40 c19e 5440 af21 93c1
00000110: 1c83 3f41 6bd5 8a3f 5d6a 8340 bddd 05bf
00000120: 6728 ccbf 25ad 9a40 da08 6041 8e0e 8fc0
00000130: d8cf 3140 ee88 41be 6cee a840 e824 2540
00000140: a33c b3c0 088d 813f f40b ff3f 1416 5dc1
00000150: 43b6 71be 4a32 c8c0 7570 c13f 7b17 08bf
00000160: 79bf 69c0 319e 0180 7e28 0180 2ce0 ffbf
00000170: 2f1d 9840 876b 85c0 d45c 47c1 8f0c 7c40
-3.82613 -2.8385048 5.5402164 45.627098 14.775731 -0.013923142 -5.452119 -3.6563342
0.48506597 22.293179 1.177152 0.09018868 3.0081234 -21.26369 1.0835506 7.473e-42
1.6768875 -22.140245 -1.2021803 -1.2727743 -13.722198 -3.1112058 -9.087689 -5.5225005
-1.400221 13.162981 -0.004529598 -2.295869 1.3852388 7.607887 -31.24887 3.4054315
32.462536 -17.150774 -1.2928004 7.333918 -6.163464 -43.2263 9.86661 -0.0993405
4.8323684 0.0018909917 0.21510994 -2.1442125 4.0610337 -5.694843 -12.591184 0.5451232
-3.6092083 -2.518398 -1.6153591 3.1404018 -0.022722395 -1.3500267 -2.3429773 -1.2796854
6.744017 16.506584 -4.9012e-41 -2.4813147 0.37072006 8.4511e-41 -6.4317385e-32 -1.2669244
-0.94351226 7.8572035 3.3221896 -18.391447 11.969509 1.084638 4.106734 -0.5229147
-1.594983 4.833636 14.002161 -4.4705267 2.7783108 -0.18899891 5.279104 2.5803776
-5.601152 1.0121164 1.9925523 -13.81789 -0.23604684 -6.256139 1.5112444 -0.5316083
-3.6523116 -1.48584e-40 -1.06361e-40 -1.9990287 4.7535625 -4.169376 -12.460163 3.9382665

bn.running_var f4 [96]
00000000: c2a3 d340 15be 603f 57f0 2f40 3f78 6c43
00000010: 046d dd41 d921 1340 7d88 1641 357f 5940
00000020: 1515 f040 d8a4 6642 4363 713f 7c5d 693f
00000030: 85ef ea3f cb8a a042 dc98 5b40 0400 0000
00000040: 6c7a 8e40 89eb 6142 8e8f d93f 5272 0441
00000050: 5810 e841 eb1c 9b3f 35c2 8441 743f 0941
00000060: 3bbc 8f3f e3fb 4841 07a2 3336 be13 af3f
00000070: 1459 1b3f aa9f 4b41 f6fc ce42 18b8 3540
00000080: fbb2 3243 38c2 0142 8657 363f 0e19 3c41
00000090: 8a26 8e41 ff5c 4d43 5a61 cc41 a69c dd3f
000000a0: 70a9 5e40 f220 ed3f 3b1e 7f40 e7b1 863f
000000b0: b1b2 1640 4e51 b340 d44b fc41 8063 833f
000000c0: abbb a140 1a0e 1940 6c25 fd3f ec11 9340
000000d0: 67a1 1340 1ee4 2140 748b 9a3f 5855 0040
000000e0: 022a 3a41 7916 ee41 0400 0000 31cb ca40
000000f0: f47d 593f 0400 0000 0400 0000 23dc 4940
00000100: 45ee 903f e278 1b41 74db a53f 078d 3e42
00000110: bbcd 1a41 a500 963f 404b 8e3f f420 6740
00000120: a2a7 fe41 25cf 9c3f 4d83 ea41 5d2f 0340
00000130: a8d9 7c40 212e bd40 859a 3640 163b 893f
00000140: e537 ed3f 8e41 273f a49b 8641 36d3 f541
00000150: 9b43 003f b9c9 bd40 740d e73f c325 b640
00000160: 4ff5 c23f 0400 0000 0400 0000 efeb 8c40
00000170: 2295 ef3f 5827 3340 0fd4 5a41 0c7b 973f
6.61374 0.8779004 2.7490442 236.46971 27.67823 2.298941 9.408322 3.398389
7.5025735 57.66098 0.94292086 0.9115827 1.8354346 80.27108 3.4312048 6e-45
4.452444 56.480015 1.6996934 8.27791 29.00798 1.21182 16.594828 8.5779915
1.1229318 12.561496 2.676739e-06 1.36779 0.606828 12.7264805 103.494064 2.8393612
178.69914 32.439667 0.712273 11.756117 17.768818 205.36327 25.547535 1.731343
3.4790916 1.8525679 3.9862201 1.0523041 2.3546565 5.603675 31.537025 1.026474
5.0541587 2.3914857 1.9777045 4.5959377 2.3067262 2.5295482 1.2073808 2.005209
11.635256 29.760973 6e-45 6.3373036 0.84957814 6e-45 6e-45 3.154061
1.1322714 9.717012 1.2957597 47.637722 9.675227 1.1718947 1.1116714 3.6113863
31.831852 1.2250715 29.314112 2.0497658 3.9507847 5.911881 2.8531811 1.0721157
1.8532683 0.65334404 16.825996 30.72813 0.5010316 5.9308743 1.805098 5.6921096
1.5231112 6e-45 6e-45 4.4038005 1.8717387 2.7992764 13.676772 1.1834426

layer_norm.weight f4 [96]
00000000: ac24 2240 b9b5 ae3f b12c 953f 95c8 9f3f
00000010: 1609 6240 766e 843f bf8a df3f 7afc c33f
00000020: 6132 e23f 7046 aa3f 61db 953f 1517 fc3f
00000030: 371a 1140 8ba5 c43f 41c7 ff3f b8ae 9a3f
00000040: 43c0 aa3f 26d4 0740 2cdb dd3f 26ae 843f
00000050: 96e0 c53f 4dee c13f e858 f13f 5ed5 af3f
00000060: 3367 f23f 55e8 0840 5f41 e03f c059 0240
00000070: 1218 4b40 dabf d43f 4868 b83f 6d07 5f3f
00000080: 8a17 4d3f 7ff2 ecb7 29cb 8f3f 9391 2f3f
00000090: 2a0a 1840 cd24 1040 1c52 7e3f a9ae bf3f
000000a0: 5231 933f 4e3d aa3f de3e 5b3f c6f3 e33f
000000b0: e19c 3040 9511 ba3f 5e74 0340 8863 b43f
000000c0: cd0d 2f3f 7029 ce3f a5a2 283f 91d3 d33f
000000d0: 6be0 993f b8ec 893f 2ad0 bd3f e16a 8a3f
000000e0: d9c4 2d3f 6a30 ff3f 20cc c03f 26a9 ef3f
000000f0: fe99 823f 02e5 c13f 13de 2140 ab89 0640
00000100: 564d c53f ca28 d93f 38ef a23f 2c62 1c37
00000110: 2a62 bf3f 38c1 d93f 1882 de3f df60 e23f
00000120: eae7 813f d7af bf3f 42b9 e23f 9d6d ad3f
00000130: 83bb 9f3f f330 c93f e717 0540 95ef c53f
00000140: fc4d d23f 9b07 643f 7079 c13f b605 d03f
00000150: fc0c 1340 e0a3 c33f 56c1 b03f c999 923f
00000160: d028 f13f 8942 5b3f 9390 903f 4945 863f
00000170: bc59 bf3f 563f fd3f b102 413f a358 603f
2.5334883 1.3649207 1.1654264 1.2483088 3.5318046 1.034621 1.7464217 1.5311425
1.7671624 1.3302746 1.1707574 1.9694544 2.267225 1.536302 1.9982682 1.208457
1.3339924 2.1223235 1.7332511 1.0365646 1.5459163 1.5150849 1.8855257 1.373699
1.8937744 2.1391804 1.751995 2.036728 3.1733441 1.6621048 1.4406824 0.87120706
0.8011404 -2.8246313e-05 1.1233875 0.68581504 2.3756204 2.2522461 0.9934404 1.4975177
1.1499426 1.3299959 0.856428 1.7808769 2.7595751 1.4536616 2.0539775 1.4092875
0.68380433 1.6106396 0.65873176 1.654894 1.2021612 1.0775366 1.4829152 1.0813867
0.6787849 1.993665 1.5062294 1.8723495 1.0203245 1.5148013 2.5291793 2.1021526
1.5414226 1.6965573 1.2729254 9.321182e-06 1.4951832 1.7012091 1.7383451 1.7685813
1.01489 1.4975537 1.7712786 1.3549076 1.2479099 1.5718063 2.079584 1.546374
1.6430049 0.89074105 1.5115185 1.6251743 2.2976675 1.5284386 1.3809001 1.1453182
1.884058 0.856484 1.129412 1.0489894 1.494926 1.9784954 0.7539473 0.8763525

layer_norm.bias f4 [96]
00000000: 945e 773f f0b3 c63f 44d9 0b3f 8779 16bf
00000010: 3af9 283f 232d 9bbe 53db 20bf 415c 96bf
00000020: 1342 053f ddf3 b7bc fe90 21bf 4ed4 1a3e
00000030: e8f1 ea3e 61c7 16bd 658c a33d ed2b f03c
00000040: b366 da3d 7749 993e 762e 253f 1334 033f
00000050: 9b5d d33e 660b 2d3f 9c87 e73c 0d45 b13e
00000060: 192f bb3e 2618 f23d 1513 863e 3661 9b3e
00000070: 64c5 19bf fd9e 983e 1f21 14c0 2998 22bf
00000080: dee6 843f a530 10b7 d23b 0f3f 5278 87bf
00000090: 3752 be3e a4d0 fb3e 2910 493f 3a4f 30bf
000000a0: 21a7 233e 91e7 1a3f 8b83 073f c9f8 ed3d
000000b0: 242d 083f 69cb fd3e fc54 b8be 9241 e93f
000000c0: 5ef5 06be 9144 e4be 7efb fa3b 4e08 773e
000000d0: e3c6 0dbf 2f33 9e3f 301c d33e 0661 bc3f
000000e0: 38e9 bcbf a7e8 c9bb 1158 eb3e 702e 143f
000000f0: 645a a23d 32d4 0c3f d69a d13e 7828 cf3e
00000100: 60db 893e ff06 883f a6d6 b1bf 676b 34b7
00000110: a918 7dbe e5ec 9ebf 7e2f 093f cfc9 8c3e
00000120: 1928 b8bf c49b 023f 6a69 37be a977 64bf
00000130: 8a73 43bf 44a3 28bd a0c6 dd3e 9f66 073f
00000140: 12cd 293e e628 943d 8a87 2fbf c69a 2c3e
00000150: 7216 003f 84af ba3f a592 09be 99a8 b1bf
00000160: f0b1 96bb 6508 d03f 008e 40be 8f12 adbd
00000170: ba06 d0be 661a a2be 37c7 97be 8df7 26bf
0.9662869 1.5523663 0.54628396 -0.58779186 0.6600529 -0.30307874 -0.6283466 -1.1746904
0.52053946 -0.02245515 -0.63111866 0.1512005 0.45887685 -0.036811236 0.079857625 0.02931782
0.106641196 0.29938862 0.6452402 0.51251334 0.41282353 0.6759552 0.028262906 0.34622994
0.3655937 0.11821012 0.26186433 0.30347604 -0.6006682 0.29808798 -2.3145216 -0.6351343
1.0382955 -8.594395e-06 0.55950654 -1.0583594 0.371721 0.49182618 0.78540283 -0.6887089
0.15981723 0.6050959 0.52935094 0.11619718 0.5319388 0.49569252 -0.36002338 1.8223135
-0.13179538 -0.44583562 0.0076593747 0.24124262 -0.553816 1.235937 0.41232443 1.4717109
-1.4758673 -0.0061617675 0.45965627 0.5788336 0.07927397 0.55011284 0.40938443 0.40460563
0.26925182 1.0627135 -1.389363 -1.0753843e-05 -0.24716438 -1.2416044 0.5358809 0.27497718
-1.4387237 0.5101893 -0.17911306 -0.89245087 -0.76348174 -0.041171327 0.433156 0.5289096
0.16582134 0.07234363 -0.6856619 0.16855916 0.5003425 1.4584813 -0.13434847 -1.3879577
-0.0045988485 1.6252562 -0.18804169 -0.084508054 -0.40630132 -0.31660765 -0.29644176 -0.6522148

lstm.weight_ih_l0 f4 [384, 96]
00000000: 294a af3d d0de 9ebc eb92 273e a615 8f3d
00000010: e4ee 71bb 3f45 d1bd e9ed 23be 9a75 0cbe
00000020: cadf e63d e5b4 fcbb 31c4 d93c 62c4 ef3c
00000030: e9fb 8e3c 6f9f 98bd 02c8 333d c801 0000
00000040: b863 6cbc d7c2 fdbc 6487 4e3d 89e2 6c3a
00000050: 0f25 18bd 6148 c6bd cdbc 14bd ca5c dd3b
00000060: 1646 e53c b762 953e eb57 bb34 32f6 0ebd
00000070: 8bdf 263d 0dc4 d43c 0b78 fcbd f32d 483d
00000080: f257 b33d 5a91 5fbc ee3f 03bd 6936 0c3e
00000090: 0059 b1bc 951c ffbc faa7 63bd 068d b83c
000000a0: c362 753d c8a9 ebbc 6835 4dbd 0843 a33b
000000b0: 14d9 b8bc c282 bd3d 63a6 b23a 2259 0bba
000000c0: 86bb 153c 1cbe 9c3d 907c 21be f5bd 113e
000000d0: 5f01 0bbe 7e39 5bbd e110 4bbc 43a5 e13c
000000e0: 6597 ad3d ebb9 3b3e b400 0080 cbbf f03d
000000f0: c34e c5bc ef00 0000 bd01 0080 b573 2dbd
00000100: 3b79 c63a 2e8b cf3d 10a7 0d3e 2b47 e9bd
00000110: 080b c33c 98f0 24bd 71e3 823d c1ab ff3d
00000120: dcda 953d 2781 b93c 003f 193d 60c7 da3d
00000130: eec0 473d 0d5e 48be 078e 2c3e 0873 123e
00000140: 2444 0ebd b71e babc 6112 673e 2943 08bd
00000150: b313 373c bf54 c1bd 51e3 fb3d d39d 343d
00000160: 7f9b 7fbd e3c3 51a5 d502 0080 0573 b4bd
00000170: b36d 64bd 8605 1d3c d31b a63d f77a 213e
00000180: 663f 353b b83f 883c 5dfe 0bbe e28c 8c3e
00000190: aaf5 9fbd 6225 833c f7e2 86bc 380a 15be
000001a0: 89b2 06be dce7 b5bd a83a 343b 3da4 8bbd
000001b0: a3c0 383d 7cbf 1cbe 0dfd a5bd 0d02 0000
000001c0: 2c4b 9abd cbc0 8a3d afa2 9cbc 291b 3d3e
000001d0: ce45 26bd 13d0 33be 38ae 303d 11ee 90be
000001e0: 3631 0bbe 24d5 283e 4135 70b4 7839 9cba
000001f0: 34a3 ce3c cdfb 1dbc db73 babc a1b9 f63d
00000200: 4a0c dbbd e8d7 543e 04a8 59bc 1b67 ae3e
00000210: b546 4b3d 2b77 2bbe 8e66 343e 604b 4bbd
00000220: 8ccb 34bd be78 90bd 2b17 e83d d52c e1bd
00000230: f449 9e3b 8288 8d3d ae81 54be 3c78 e53c
00000240: 9880 ff3d a5ad ec3d 48b9 173e 6204 25be
00000250: a40b c3bc 82dc 433d 4b31 f53a 13c7 42bd
00000260: 84c9 f33c b4d9 12bd ab02 0000 be8a 0b3e
00000270: ae24 a23d a900 0000 1d02 0080 aab1 c8bc
00000280: 7cab 503d fb3a 983d 560c cd3d 946a 733e
00000290: b4fc 48bd 6825 273d 20a7 c53d 199f 013e
000002a0: e78a 7c3d 9a76 98bd b70c d7bc c060 513c
000002b0: 6e2c cb3c dedf 13be c765 d13d 2150 633d
000002c0: bba2 ecbb 7877 c13d 49e7 94bd 2592 8c3d
000002d0: 5c6d 36bb d266 0ebe e636 82bd b6e9 83bd
000002e0: a649 94bc e747 7e23 7d01 0080 3b10 a6bc
000002f0: b47d babd 70a2 553d 140d f0bd c338 1b3c
00000300: 7d70 6aba 127c 9bbc 2a47 b83c f7c6 033d
00000310: 2f56 11bd 719e 32be 98bf 403e 10e0 2abd
00000320: e1d9 6e3d c172 5c3e 2ada ecbc d8b9 d4bd
00000330: 78de f6bd e9d2 083e 3ccc 32bc 8e04 0000
00000340: 242e 6b3d c13d 233e 69ec 2e3b 4716 0f3c
00000350: 7ed3 1f3d 6c56 dbbb 21ec 08be e816 cebe
00000360: 237c 083d d42c 8abc b476 3032 3a7f 8fbd
00000370: 2e99 01bc 5f1b 92bd 6416 aabc e184 59bd
00000380: 8849 39be 2f2f 923c 7440 e13d fd74 4a3e
00000390: d163 1abc 777d fdbd b6fb c73d a36a a13c
000003a0: 87dd e9bd f933 60bc b0a9 87bd f3cc f2bd
000003b0: f067 e53d 49c7 82bd 1efa 8fbd 71ae abbe
000003c0: bfb1 3abd db45 143c d345 bc3d 4272 60bd
000003d0: bfcd b33d 1b75 b33c df72 d63d 513e 46bd
000003e0: 9b04 2a3c 3253 b4bd ff02 0000 0bf7 2e3d
000003f0: f939 233e 9d02 0000 2a00 0080 3cd4 d8bc
0.08559067 -0.019393355 0.16364639 0.06986551 -0.0036916072 -0.10218286 -0.16008724 -0.13716736
0.11273153 -0.007711994 0.02658281 0.029268447 0.017454104 -0.074522845 0.043891914 6.39e-43
-0.014428072 -0.030976696 0.050422087 0.0009036442 -0.037144717 -0.09681774 -0.036312867 0.006755446
0.027987521 0.29176876 3.4895433e-07 -0.03490276 0.04074053 0.02597239 -0.12327584 0.048871946
0.087570086 -0.013645494 -0.03204339 0.13692631 -0.021648884 -0.031141559 -0.055580117 0.022528183
0.05990864 -0.028767481 -0.05009976 0.004982356 -0.022564448 0.09253456 0.0013629909 -0.0005315711
0.009138947 0.07653448 -0.15770173 0.14232619 -0.13574742 -0.053521626 -0.012394161 0.027544623
0.08476142 0.18332641 -2.52e-43 0.117553316 -0.024085408 3.35e-43 -6.24e-43 -0.042346675
0.0015142331 0.10133968 0.1383326 -0.11390527 0.023808971 -0.04026851 0.06391037 0.12483931
0.07317135 0.022644592 0.037413597 0.10682559 0.048767976 -0.19567128 0.16851054 0.14301693
-0.034732953 -0.022719724 0.22565605 -0.033267174 0.01117413 -0.09439992 0.122992165 0.044095825
-0.062404152 -1.8194229e-16 -1.016e-42 -0.08811001 -0.05576868 0.009583836 0.08110776 0.15769564
0.0027656197 0.016631946 -0.1367125 0.27451235 -0.078105286 0.016009036 -0.016465647 -0.1455468
-0.13154043 -0.08882114 0.0027500782 -0.06818435 0.045105588 -0.1530742 -0.08104906 7.36e-43
-0.07533869 0.067750536 -0.019120542 0.18467392 -0.040593915 -0.17559843 0.043134898 -0.2830663
-0.13592991 0.16487557 -2.2371115e-07 -0.0011918982 0.025224306 -0.0096425535 -0.022760322 0.12047125
-0.10695703 0.20785487 -0.013284687 0.34063038 0.04962798 -0.16744678 0.17617247 -0.04963243
-0.04413943 -0.0705428 0.11332544 -0.10994879 0.0048305932 0.069108024 -0.20752594 0.028011434
0.12475699 0.115565576 0.14816773 -0.16114953 -0.023809262 0.047817715 0.0018706707 -0.047553133
0.029759176 -0.03585215 9.57e-43 0.13627145 0.07917152 2.37e-43 -7.58e-43 -0.02449878
0.05094479 0.07433125 0.100121185 0.23771125 -0.04906912 0.040807158 0.09651017 0.12658347
0.061655905 -0.074444965 -0.02625118 0.012779415 0.02480146 -0.14440867 0.102244906 0.05549634
-0.0072215474 0.09446615 -0.07270677 0.06863812 -0.002783618 -0.1390641 -0.06358127 -0.06441061
-0.018101525 1.37845935e-17 -5.34e-43 -0.020271411 -0.09106007 0.052156866 -0.117212445 0.009473982
-0.00089431537 -0.01898006 0.022494871 0.03217217 -0.03548258 -0.17443253 0.18823087 -0.04171759
0.058313254 0.2152815 -0.028912622 -0.103870094 -0.12054151 0.13361706 -0.010912951 1.634e-42
0.05741705 0.15941526 0.0026691204 0.008733339 0.039020054 -0.006693652 -0.13371326 -0.4025185
0.03332151 -0.016867079 1.0271538e-08 -0.070066884 -0.007910056 -0.07134127 -0.02076263 -0.05310524
-0.18094456 0.017844765 0.109986216 0.1977119 -0.009423212 -0.12377446 0.09764807 0.019704169
-0.11419206 -0.013684266 -0.06624162 -0.11855497 0.11201465 -0.06385667 -0.07030128 -0.33531526
-0.045579668 0.009049858 0.091930054 -0.054796465 0.08779477 0.021906426 0.10471129 -0.048399273
0.010377075 -0.08804931 1.075e-42 0.042716067 0.15940084 9.37e-43 -5.9e-44 -0.026468389

lstm.weight_hh_l0 f4 [384, 96]
00000000: 54d4 9d3e 0074 fcbc de32 18be 10c5 0f3e
00000010: 4421 29be 64de f0bd d3b0 113d aed6 98be
00000020: 1ba8 00be ed2f 8b3c 4c95 8a3d 8b73 083d
00000030: de7b cb3c e9a3 e5bc 300a 82be 7f43 913b
00000040: 5ca8 8dbc 2eed 6dbe 6c32 37be f73a ad3d
00000050: dba1 023e b7a5 2e3e 4d06 d83d 573c 4abe
00000060: 4d2b 2f3e dc11 cfbd 2393 a83d e35c 053e
00000070: f0fc 653d 57e5 163e d499 ca3e 270a f6bd
00000080: 0622 043d edc5 3137 01f9 7cbd fbe5 6abd
00000090: 9f31 3abc c639 0f3e 49c7 ea3d 0e91 1d3e
000000a0: b008 5d3c 43d3 18be 7c04 6f3e f63b 0fbd
000000b0: 7207 9c3d a38b 52bc 2775 92be 345b c73e
000000c0: 419c c4be d0e7 3dbd 420e a5bb 3d3e 86be
000000d0: 5199 09be ae5b 6dbe b66d 86bd 677f 793e
000000e0: f27d b33c 7a47 923d 166c 12bd b1da 9cbd
000000f0: c363 143e 74f0 09bb 2963 223e e202 d83d
00000100: 7bbd 9e3e 0c07 d03e becc b7bd 15d5 2737
00000110: 69b4 733e fb4d 283e 2eb4 3e3d 2b11 19be
00000120: 8bc8 35bd 5593 62bd 5a4c aa3d da81 cc3e
00000130: a6fb 06bd 2da5 463e 9498 afbd da4a cebd
00000140: 8478 543d 5da4 dfbd b164 a93e 8728 c23c
00000150: 5ba5 8dbe f241 683d 777e a3bd 32c7 debd
00000160: 70c7 85be 4e11 9ebd cd0d 5f3d 69f9 1c3e
00000170: 225b c4bd 6197 86be 75dc 49bd 5fa1 10be
00000180: 6b4a 833d fb66 67bd 035c bbbc 090d 6f3e
00000190: 30c0 26bd b256 cd3e dcb1 cd3d 0467 b9bd
000001a0: 5d4f 3a3d c033 ef3d 4cf4 6a3e a877 e23d
000001b0: 1527 333d 2688 c03d f3e4 4c3d be2a 5abe
000001c0: eb86 723d f0d7 e8bd 5c2e 633d 00f0 b33c
000001d0: b801 f9bd e668 b53d b883 a43d 75a1 753d
000001e0: 9836 8cbd e341 dabd 1951 9fbd 1cb7 b03d
000001f0: c6db 19bd 1be2 dbbd 1890 88bc 7961 febd
00000200: 5fb6 8c3e e228 aeb8 f58d ed3d 82ab 393d
00000210: 06bc 113e 2601 c2bc e30d d2bc 75ed 01be
00000220: a18b c83d e67c 81bd c16b d9bb d792 5b3c
00000230: 5f7a c33d 82f4 30be 5a31 35bd 8772 b63c
00000240: 344c 193d d596 4d3e 852d 4b3b 0e7e df3c
00000250: 8771 abbd 78db 263e 59fb 80be 4388 a9bd
00000260: 4267 b1bd 2cca 4f3d 932d 853d 0fde 93bd
00000270: ac1e aa3c 196a b3bd 28e5 853d 82e3 6e3e
00000280: 24ba fd3d 27e4 dabd 7d2b a83d 1910 9b38
00000290: 4a8b ff3b 72dc c0be 4008 883e 11fb 96bd
000002a0: 3c56 32be 44aa 90be 466f ac3d 8609 a23d
000002b0: 1931 323d 6a32 603d 9ee7 dcbb ac53 223e
000002c0: 5a22 d4bc 95c8 0ebd 98f1 2bbe 542a 0d3e
000002d0: 228e 61be cc65 e73c 54dd e6bd 20fb 4a3e
000002e0: d612 03be 80b5 c5bc bb00 273e 8cef b9bd
000002f0: c78b 0a3e 7c1a 37be 653c 16bd f94e 013d
00000300: 027a ae3d 4ba8 9fbe 7437 a13d 85d1 e5bc
00000310: 942b 3cbd a0f5 17be b43e 743d 8283 753d
00000320: fc8b adbc 9153 80be a7f4 0bbc 1c81 553e
00000330: 2939 d53c 0563 1d3e 1081 903d cb34 a5be
00000340: b9d8 ee3d 435a f53d 1464 41bc dfa6 023b
00000350: 6628 9f3d 03b5 12be d139 8e3d ab8e 89bd
00000360: c4f9 8c3d 2261 a33d 7cdb bd3d eed5 ffbd
00000370: 15c3 6fbd 7639 c7bd a725 70bd a997 5ebe
00000380: 4184 c2bd bae9 fab7 1393 a5bd 6243 873e
00000390: 2b2a a93e 5634 cfbd 7df0 643e 306e b4bd
000003a0: c3d3 713d c4a2 813e 276c 2b3e 3b7c 9b3d
000003b0: db86 87bd 90b9 cf3d 2765 fd3d 33bf 77bc
000003c0: 64cd b03d 40b1 c3bc 0397 143e a3b2 923d
000003d0: 9d51 23bb 9c0d 84bb 6702 973c e307 64be
000003e0: 55bd f2bd eabf a3bd e9b6 873d 2524 6bbd
000003f0: eeb5 483d 4319 d5bd 40f2 c6bc 0ba3 00be
0.30826056 -0.030817032 -0.14863154 0.14040017 -0.16516596 -0.11761168 0.035569023 -0.29851288
-0.12564127 0.016990626 0.06766757 0.033313315 0.024839338 -0.02803226 -0.25398397 0.004433095
-0.017292194 -0.23235008 -0.17890328 0.08458512 0.12757055 0.17055403 0.10548077 -0.1974958
0.17106362 -0.10110828 0.08231189 0.13023715 0.056149423 0.14735924 0.39570487 -0.12013655
0.03225901 1.0596105e-05 -0.061760906 -0.057348233 -0.01136437 0.13986883 0.11463792 0.15387365
0.013490841 -0.1492434 0.23341554 -0.034969293 0.076186076 -0.012850675 -0.28605005 0.3893677
-0.38400462 -0.04636365 -0.0050371 -0.2621936 -0.13437392 -0.23179504 -0.065638945 0.24365006
0.021910641 0.07142539 -0.03574761 -0.076588996 0.14491181 -0.0021047862 0.15858139 0.10547425
0.31003937 0.40630376 -0.08974598 1.0003588e-05 0.2379929 0.16435997 0.04655855 -0.14947955
-0.044380706 -0.055316288 0.08315344 0.3994282 -0.032954834 0.19398947 -0.08574024 -0.100728706
0.051872745 -0.10920022 0.33084634 0.023700966 -0.2766522 0.056703515 -0.07983106 -0.10877837
-0.2612872 -0.07718144 0.05445652 0.15329517 -0.09587695 -0.26287368 -0.04928251 -0.14124058
0.064106785 -0.056494694 -0.022871023 0.23344816 -0.040710628 0.40105206 0.100436896 -0.09052852
0.045485843 0.116797924 0.22944754 0.11057979 0.043738443 0.09400968 0.05002303 -0.21305367
0.0592107 -0.11369312 0.055464134 0.021965027 -0.12158531 0.088578984 0.08032936 0.05996843
-0.068463504 -0.10657098 -0.0777914 0.08628675 -0.037563108 -0.107364856 -0.016670272 -0.12420935
0.27482888 -8.3045816e-05 0.11599342 0.04532958 0.14231881 -0.023682188 -0.025641387 -0.12688239
0.09792257 -0.063226506 -0.0066351597 0.013401709 0.09544825 -0.17280772 -0.04423652 0.022271408
0.03742619 0.20077069 0.0031002474 0.027281787 -0.08371263 0.16294658 -0.25191763 -0.08277943
-0.08662273 0.050729915 0.06502833 -0.07220089 0.020766579 -0.08760471 0.06537849 0.23328975
0.12389019 -0.10688048 0.0821142 7.3939744e-05 0.007798587 -0.37668186 0.26568794 -0.07372106
-0.17415708 -0.28254902 0.08419661 0.07911973 0.043503854 0.05473558 -0.006741478 0.15852231
-0.025895286 -0.03485926 -0.1679138 0.13785678 -0.22026876 0.028246783 -0.11272684 0.19822359
-0.12800154 -0.024134398 0.16308872 -0.09078893 0.13529883 -0.17881197 -0.03667869 0.031569455
0.08519365 -0.31183085 0.07871905 -0.028054008 -0.045939997 -0.14839792 0.05963011 0.05993987
-0.021184914 -0.25063756 -0.008542216 0.20850033 0.026028233 0.15369804 0.07055867 -0.3226684
0.1166243 0.11980107 -0.011803646 0.0019935889 0.07771377 -0.14326863 0.06944621 -0.06716665
0.068835765 0.07977511 0.09270379 -0.12491976 -0.058535654 -0.09727757 -0.058629658 -0.21737541
-0.09497882 -2.991116e-05 -0.08084693 0.26418597 0.33039984 -0.10117404 0.22357364 -0.08810079
0.059039842 0.25319493 0.16740476 0.075920545 -0.066175185 0.10142815 0.12372809 -0.015121269
0.08632925 -0.02388823 0.14510731 0.071629785 -0.0024920471 -0.0040299427 0.018433763 -0.22268634
-0.118525185 -0.07995589 0.06626684 -0.057407517 0.049001627 -0.10405209 -0.024285436 -0.12562196

lstm.bias_ih_l0 f4 [384]
00000000: 1528 b43d 05f3 853b a839 7b3d fde0 e5bc
00000010: fad4 85be bb03 f13d 2557 1f3e b281 02be
00000020: a028 b9bd e172 1bbe 426f 103d cf9b 01be
00000030: 53d1 87bd cf99 ae3d cae5 5cbe 082c 833c
00000040: 4f83 a5bd 8453 22bf 9bb2 a6be da87 83bd
00000050: 77f4 10be 64e7 9abd 4294 233d 30f6 3d3d
00000060: 8d28 a03c 852d a53e 7e49 3fbd 741d 03be
00000070: 28c2 2abe 4167 edbc 4c88 8d3e ef71 553d
00000080: 3626 833c 53af 833c 1904 96bb f2af 53bc
00000090: da9c f1be 53a7 bcbc a47c e9bc 00e1 533e
000000a0: f051 523c f687 543d ea9f 28bd 3009 413c
000000b0: 114f a53d a3c7 9bbd a246 18be 54ac 163e
000000c0: 9c1d 9d3d f0c3 94bd 0fdc e63d d26a 07bd
000000d0: ce85 1c3e ac38 333c 6685 053e 4108 b1bc
000000e0: fd90 743d 1ebf 293c 3829 c5bd 572d 07bd
000000f0: b2ba 6abc 7516 203d 9498 9cbe 4c04 98be
00000100: 0ce4 dcbd 34fc cdbd 6db7 abbd d778 cf3c
00000110: 2f64 dabd d1dd 81bd 8d88 bebc 1db8 79bd
00000120: bd40 b6bd b736 06be b0a6 96be 3b5a 01be
00000130: 0d67 42be f578 d3bd 0651 843e e181 0d3e
00000140: 1940 ab3c d5aa 29bc 71ef a4bd a1b6 b4bc
00000150: f08b eebd 7df2 6bbe 24c7 0e3c c47d bc3d
00000160: f771 8f3d ab2e fabb 366e c5bd 1880 0ebd
00000170: 3e31 aebd ab4c 253e 45fd e2bc bd63 bc3c
00000180: 9f16 36bd 2874 f0bc e220 8b3c 7a89 113d
00000190: 55e0 43bb 5f14 783d 8746 7fbd 5bd7 4d3b
000001a0: 41d1 efbd e2fa 043c db78 6fbd 6ce6 74bd
000001b0: 777f 183c a9b0 933c 494d 48bc 333a c13d
000001c0: 60e4 92bc f295 8abc b239 02bd 8d98 f1bb
000001d0: 65bd 33bc 6d98 58bc 8ed1 f93d 8133 48bd
000001e0: b4fa 03bd 30c7 e83d 95de 1dbc 3008 4c3d
000001f0: 615a 09be eae4 9cbb 7918 dcbc 553c adbb
00000200: 113f 3fbd ca1e 973a 173c 4abe ba9d d6bb
00000210: 25a5 11bd 6620 103d 104d 093d 32f6 ecbe
00000220: 574c 4cbc 8a07 53bd fe0b 52be ac8e abbc
00000230: 98aa 923e 8923 b3bd 2989 9fbc ef28 243b
00000240: 3c9a 89be e8ff 82be 005b 84be 01d5 2abd
00000250: 1783 903c 1017 dbbd e804 84bd 0901 11bd
00000260: 3201 a8bd 1ee5 19bd a6bb 8cbd 404a 5dbd
00000270: 84bc a8bb bfc1 6abc b1b0 d33c f0bc 783d
00000280: ab6b 88bc 6a93 e23d d940 98bd 5a2f 1639
00000290: c496 b3bc 23e8 ab3d 98db 21be 9206 903c
000002a0: 2eb0 c83d e02a 47be 6913 c6bc 7fe7 eb3d
000002b0: 929c ac3d 361f 8cbc caeb bb3d 2094 8dbd
000002c0: c568 5e3e 801a 9ebd ebaf 54bd 1543 01bb
000002d0: b861 5ebd b234 89be a670 a13e 4ffa 06be
000002e0: 252e 77bb cdc9 aa3a 9590 86bc ba4b a1bd
000002f0: d7ec 7dbd ccb5 babb 08cc bcbd e030 9dbc
00000300: 738f ec3d d78e 323a bbd6 69be bd42 16bf
00000310: 2c26 493e 8f3a 29be 779c 0dbd 1a72 9a3e
00000320: cd28 603d 1fc1 873c a864 cdbe 30d7 01be
00000330: abb9 243e 66f5 c13d 2a3f e33c a99e 13be
00000340: e8c8 e13c ea88 153e a279 873d 6eef b7ba
00000350: 4661 853d 362a 693d e666 e43b d54e c33c
00000360: 5a73 cc3d 9603 98be 2324 c53d 62e3 863d
00000370: 05b7 1ebd 4582 6f3c b35a a1bd e8c2 553e
00000380: 2202 2fbd 10e9 d4bc edf2 7e3e 885a c7bc
00000390: 23ea 7e3e 6c36 b63e 51ed 4f3d 0c98 ef3e
000003a0: f13d 393d 4eba 403c 9a62 643e d300 f63c
000003b0: c5d8 413e 9554 29be dcae 9abc b121 f63c
000003c0: 1785 8e3d 06d5 d6bc 5c98 c63e 0fe3 34bd
000003d0: cd4c c83c 444a 9a3c 9fbe 153e 140a 03be
000003e0: 43e1 08bd a16c 6a3d 0b9b 5cbd 4996 8f3b
000003f0: 6b15 6b3c 0b8b d33c e3f2 7d3c 1e32 033d
0.087967075 0.004087808 0.061334282 -0.028061384 -0.2613905 0.1176829 0.15560587 -0.12744787
-0.09040952 -0.15180542 0.035262354 -0.12657093 -0.06631722 0.085254304 -0.21572033 0.016012207
-0.08081686 -0.63408685 -0.3255814 -0.06422396 -0.14155756 -0.075636655 0.03993631 0.04637736
0.019550586 0.3226129 -0.046700947 -0.12804204 -0.16675627 -0.0289799 0.2764305 0.05211061
0.016009431 0.016074812 -0.004578125 -0.012920367 -0.4718998 -0.023029005 -0.028501816 0.206913
0.012836918 0.051887475 -0.04116813 0.011781976 0.08071721 -0.07606437 -0.14870694 0.14714175
0.07671663 -0.072639346 0.112724416 -0.033060856 0.15285417 0.010938805 0.13039169 -0.021610381
0.059708584 0.010360507 -0.096270025 -0.033002224 -0.014326738 0.039083917 -0.30585158 -0.29690778
-0.10785684 -0.100578696 -0.08384595 0.025326176 -0.1066364 -0.06341136 -0.023258472 -0.0609666
-0.088990666 -0.1310681 -0.29424047 -0.12632076 -0.18984623 -0.10325805 0.25843066 0.13819076
0.020904588 -0.010355671 -0.08053482 -0.02205974 -0.11647785 -0.2304172 0.008714471 0.092036754
0.07004159 -0.007634958 -0.09640162 -0.03479013 -0.08505486 0.16142528 -0.027708659 0.022996778
-0.044455167 -0.029352263 0.016983453 0.0355315 -0.002988835 0.060566302 -0.06232312 0.003140888
-0.11709834 0.008116456 -0.058464866 -0.05979006 0.009307734 0.018028574 -0.0122254575 0.09434929
-0.017931163 -0.016917203 -0.031793304 -0.007372922 -0.010970448 -0.013219935 0.121981725 -0.048877243
-0.03222151 0.11366117 -0.009635587 0.049812496 -0.13413383 -0.004788031 -0.026867138 -0.005286733
-0.046691004 0.0011529562 -0.19749485 -0.006549564 -0.035557885 0.035187148 0.03352076 -0.46281582
-0.012469373 -0.05152086 -0.20512387 -0.020942055 0.28645778 -0.08747012 -0.019474583 0.0025048812
-0.26875484 -0.25585866 -0.25850677 -0.041707043 0.017640634 -0.10697758 -0.06446248 -0.035401378
-0.08203353 -0.03757202 -0.068717286 -0.05402589 -0.005149426 -0.014328419 0.025841089 0.06072706
-0.016652903 0.11063273 -0.07434244 0.00014322755 -0.021922477 0.08393886 -0.15806425 0.017581258
0.097992286 -0.1944995 -0.024179177 0.11518764 0.08428301 -0.017104726 0.091758326 -0.06913018
0.21719654 -0.07719898 -0.05192558 -0.0019723822 -0.05429241 -0.26798016 0.31531256 -0.13181423
-0.0037716713 0.0013030112 -0.016426364 -0.07875772 -0.061993446 -0.0056979414 -0.092186034 -0.019188344
0.11550798 0.0006811446 -0.2283582 -0.58695585 0.19643468 -0.16526245 -0.034573045 0.30165178
0.05472641 0.01657158 -0.40115857 -0.12679744 0.16086452 0.09470634 0.02774008 -0.14415993
0.02756162 0.1460301 0.066149965 -0.0014033148 0.06512694 0.05692502 0.0069702743 0.023841301
0.09982939 -0.29690236 0.09626033 0.065863386 -0.03874876 0.014618461 -0.07878628 0.20875132
-0.042726643 -0.02599004 0.24897356 -0.02433516 0.24894004 0.35588396 0.050763432 0.4679569
0.045225088 0.0117631685 0.22303239 0.03002969 0.18930347 -0.16536172 -0.018882208 0.030045362
0.069589786 -0.026224624 0.38788116 -0.044161852 0.024450684 0.01883424 0.14623497 -0.12796813
-0.03341795 0.057232503 -0.053858798 0.004381929 0.014348368 0.025823137 0.015499803 0.032030217
