model/checkpoints/ckpt_ep-1599_encoder.pt (torch, 467207 bytes, 18 tensors)

lstm.weight_ih_l0 f4 [384, 1]
0.17855865 0.24969873 -0.011292882 -0.64618486 -0.011338474 -0.17251867 -0.008116348 0.008330855
-0.29486454 -0.010621682 -0.123408616 -0.011184996 -0.011111359 1.2115963 -0.0113605885 -0.5132291
-0.010814042 -0.011890329 -0.011076831 -0.011519203 -0.011594218 -0.011370074 0.13597201 -0.18181384
-0.011274251 -0.011151414 -0.01138868 -0.010539631 -0.18891317 -0.011431684 -0.011377273 -0.011543874
-0.40808773 -0.01122284 -0.29950368 0.1431106 -0.011462288 -0.011244528 0.7709084 -0.8338136
-0.011269287 0.3683157 -2.068839 -0.011269803 0.029886436 -0.18237644 -0.14342782 0.849044
-0.9371939 -0.79898584 -4.0276546 -0.011425241 0.25757995 -0.23162891 -0.011355249 -0.016322087
-0.958426 -0.011250321 0.041851044 0.24118654 -0.011200253 -0.42825553 -0.011358376 0.12150173
-0.011351498 0.51209366 -0.97395855 -0.011201219 -0.0112897195 -0.16072832 -0.055235673 -0.0113704335
-0.3844646 -0.42606303 -0.011566264 -0.15644768 -0.08788256 -0.011253164 -0.011551769 -0.70742893
-1.1463158 -0.060980655 -0.011661752 -0.011169865 -0.011302788 0.6175745 -0.45916155 0.8681713
-0.011230328 -0.17520586 -0.0054191784 0.15562952 -0.011208529 -0.01137152 -0.009629173 -0.01104472
-1.3076533 -0.24367255 -0.0019733608 0.26206285 -0.0019851467 0.48069602 -0.0017993923 -0.1634337
-0.037497275 -0.001974416 -0.04489157 -0.0018717761 -0.0018495668 -0.28318882 -0.001984213 0.23854421
-0.001968862 -0.0020664413 -0.0019600962 -0.0019374422 -0.0019702413 -0.0019792512 -0.030325819 -0.55752724
-0.001970204 -0.0019726877 -0.0019728858 -0.0018053133 0.113259785 -0.0019582 -0.0019989968 -0.0021020994
0.54858994 -0.001966319 0.36608058 -0.4593247 -0.0019860002 -0.0019777454 -0.5244103 0.41833907
-0.0019591122 0.7933803 0.66851044 -0.0019721899 0.08670873 -0.054554805 0.006416228 -0.7080883
0.24622439 0.5389264 0.64400625 -0.001966973 -0.64795035 -0.13803425 -0.0019766765 -0.2870261
0.45377922 -0.001969075 -0.45565012 -1.2000394 -0.0019637009 -0.11612298 -0.00197933 -0.60909724
-0.0019864666 -0.26909724 0.61971104 -0.0019650403 -0.0019659745 0.34212893 0.088838406 -0.001970883
-0.067795165 0.04130338 -0.0019715126 -0.0419841 0.07127889 -0.0019486783 -0.0019515001 -0.2716772
0.7631802 0.29948995 -0.0019996504 -0.0019138482 -0.0019720397 -0.35265553 0.83280325 -0.096711494
-0.0019784141 0.2877273 0.18441316 -0.027038338 -0.0019686897 -0.0019899262 0.5659134 -0.0019593562
0.4831633 0.07535795 -0.00037172352 -0.012091804 -0.000376837 -1.6186237 -0.00071870734 0.7090301
0.029014653 -0.00032614626 -0.018635467 -0.0003667798 -0.00036482688 -0.11212304 -0.00037394592 0.02387614
-0.00035132276 -0.00038076815 -0.00036914027 -0.00033870438 -0.0003707006 -0.00036384325 -0.009204941 -0.15406495
-0.00037242164 -0.000392289 -0.0003614378 -0.00043031093 0.048902936 -0.00037021423 -0.00041652253 -0.00040464717
-1.3698852 -0.00037288116 0.022339627 -0.54712427 -0.00036338484 -0.00036540988 -0.048593167 0.21705027
-0.00037189972 -0.5308744 2.1920838 -0.00037317968 -0.039206307 -0.0012621757 -0.002301533 -0.25110132
-0.35449782 -2.620925 2.6958845 -0.0003688803 0.05805905 -0.12573615 -0.00037358337 -1.312454
-0.33931154 -0.00036971056 -0.18614785 0.029471936 -0.00037225685 0.04517492 -0.00037201834 -0.60800564
00000000: 14d8 363e 06b1 7f3e c805 39bc 5f6c 25bf
00000010: 02c5 39bc bca8 30be 6efa 04bc 237e 083c
00000020: 7cf8 96be 9006 2ebc a8bd fcbd 4641 37bc
00000030: 6b0c 36bc 9615 9b3f c321 3abc fb62 03bf
00000040: 612d 31bc a8cf 42bc 997b 35bc 0abb 3cbc
00000050: adf5 3dbc 8c49 3abc 3f3c 0b3e 682d 3abe
00000060: a3b7 38bc 6cb4 36bc 9697 3abc 6bae 2cbc
00000070: 7472 41be f54b 3bbc be67 3abc 8422 3dbc
00000080: e0f0 d0be 01e0 37bc 8c58 99be 968b 123e
00000090: 52cc 3bbc f83a 38bc 415a 453f cf74 55bf
000000a0: d1a2 38bc e093 bc3e dc67 04c0 fba4 38bc
000000b0: 66d4 f43c e4c0 3abe bede 12be f35a 593f
000000c0: f0eb 6fbf 568a 4cbf 8ce2 80c0 ef30 3bbc
000000d0: 85e1 833e 2130 6dbe 5e0b 3abc e6b5 85bc
000000e0: 685b 75bf 4453 38bc 006c 2b3d 9bf9 763e
000000f0: 4481 37bc 4f44 dbbe 7b18 3abc e6d5 f83d
00000100: a2fb 39bc 9218 033f 5955 79bf 5185 37bc
00000110: 84f8 38bc f795 24be cd3e 62bd 0e4b 3abc
00000120: 8bd8 c4be ef24 dabe 6d80 3dbc d233 20be
00000130: c6fb b3bd 315f 38bc a243 3dbc 101a 35bf
00000140: 7aba 92bf dac6 79bd ef10 3fbc cf01 37bc
00000150: 542f 39bc 5d19 1e3f 3917 ebbe 7940 5e3f
00000160: 69ff 37bc 2a69 33be 5d93 b1bb 585d 1f3e
00000170: faa3 37bc 9d4f 3abc aec3 1dbc eaf4 34bc
00000180: 2f61 a7bf 4c85 79be 8053 01bb 1a2d 863e
00000190: 3c19 02bb ca1d f63e 96d9 ebba 2a5b 27be
000001a0: be96 19bd 3465 01bb 39e0 37bd 6256 f5ba
000001b0: 2a6d f2ba 20fe 90be 9209 02bb ef44 743e
000001c0: 0608 01bb 226d 07bb f574 00bb c6f1 fdba
000001d0: 2a1f 01bb 53b6 01bb da6d f8bc 1bba 0ebf
000001e0: 8a1e 01bb 3548 01bb 884b 01bb 43a0 ecba
000001f0: bff4 e73d 2555 00bb 9a01 03bb 60c3 09bb
00000200: 6470 0c3f 5cdd 00bb ea6e bb3e 9b2c ebbe
00000210: 8e27 02bb 109d 01bb c13f 06bf 8a30 d63e
00000220: 7364 00bb f91a 4b3f 8023 2b3f db3f 01bb
00000230: 5994 b13d dc74 5fbd 393f d23b 4645 35bf
00000240: 3f22 7c3e 15f7 093f 98dd 243f 55e8 00bb
00000250: 13e0 25bf da58 0dbe 218b 01bb 16f5 92be
00000260: c055 e83e 990b 01bb f94a e9be e49a 99bf
00000270: 6fb1 00bb e3d1 edbd a6b7 01bb cced 1bbf
00000280: 612f 02bb 1dc7 89be 62a5 1e3f e8c7 00bb
00000290: 94d7 00bb 862b af3e e9f0 b53d ee29 01bb
000002a0: 31d8 8abd bc2d 293d 7e34 01bb 85f7 2bbd
000002b0: abfa 913d cb6a ffba 7ac9 ffba 4619 8bbe
000002c0: c75f 433f bf56 993e 910c 03bb 17da faba
000002d0: 563d 01bb 448f b4be 9832 553f ad10 c6bd
000002e0: 48a8 01bb fe50 933e ced6 3c3e 817f ddbc
000002f0: 2205 01bb 6c69 02bb b3df 103f 8b68 00bb
00000300: 2e61 f73e 4555 9a3d e3e3 c2b9 b41c 46bc
00000310: 3592 c5b9 102f cfbf a267 3cba ff82 353f
00000320: 23b0 ed3c 9cfe aab9 68a9 98bc 5a4c c0b9
00000330: 3c46 bfb9 c4a0 e5bd 2c0e c4b9 e597 c33c
00000340: be31 b8b9 d6a1 c7b9 2b89 c1b9 2294 b1b9
00000350: 985a c2b9 37c2 beb9 52d0 16bc 34c3 1dbe
00000360: 9641 c3b9 23ac cdb9 5c7f bdb9 5b9b e1b9
00000370: 724e 483d 5019 c2b9 b560 dab9 d326 d4b9
00000380: 6658 afbf 437f c3b9 9801 b73c 5610 0cbf
00000390: b084 beb9 7c94 bfb9 a109 47bd 6d42 5e3e
000003a0: 89fb c2b9 62e7 07bf 1a4b 0c40 54a7 c3b9
000003b0: cb96 20bd 976f a5ba 51d5 16bb 5a90 80be
000003c0: bd80 b5be 3cbd 27c0 5f89 2c40 4766 c1b9
000003d0: 54cf 6d3d fac0 00be 83dd c3b9 7efe a7bf
000003e0: 3eba adbe b6d5 c1b9 8b9d 3ebe 216f f13c
000003f0: 782b c3b9 5609 393d 750b c3b9 42a6 1bbf

lstm.weight_hh_l0 f4 [384, 96]
-0.5348762 0.0018175765 0.0015243387 0.066214114 0.0015297584 0.93535143 0.0003523024 -0.822787
-0.021409158 0.0016919274 -0.07226909 0.0016261772 0.0018003904 -0.48214066 0.001518318 -0.47312847
0.0016213036 0.0013074367 0.0015490104 0.0016889572 0.0013895569 0.0015115689 -0.01084308 0.6220943
0.0015273141 0.0015329989 0.0016160981 0.0028563882 -0.013840136 0.0015632127 0.0009774406 0.0012235161
0.14803201 0.0015265262 -0.014887839 0.49028945 0.0013613855 0.0015646982 0.08382369 0.009057042
0.0015573377 -0.15276428 -0.30368045 0.0015217451 -0.0010648802 -0.0029762138 0.01647862 0.908583
-0.19629955 0.37433785 -0.18647441 0.001434807 0.16159491 0.54899275 0.0014597999 0.5137617
-0.3257986 0.0015679072 0.8334043 -0.5551211 0.0015439042 -0.001136796 0.0015276528 0.14264037
0.0014567423 0.24003741 -0.16560133 0.0015177364 0.0014844991 -0.2241083 0.013007055 0.0015381854
0.009683638 -0.31050393 0.0017547718 0.0034629335 -0.7394966 0.0014547015 0.0014045839 -0.14881767
-0.05065639 0.030140491 0.001520993 0.0014118901 0.0014956688 -0.010709552 0.61930406 -0.7699775
0.0015590562 -0.020601109 -0.4988215 0.050005667 0.0015005057 0.0014738915 -0.6582851 0.0012829999
-0.020992516 -0.01920758 -0.00020208361 -0.002585465 -0.00023054304 0.65432566 -0.00028358033 -0.14436787
-0.0036684514 -0.00019068412 0.27418956 -0.00017345237 -0.00016582596 -0.34333065 -0.0002132865 0.56197846
-0.000198546 -0.000106429994 -0.00020437862 -0.00019048419 -0.00024294139 -0.0001948115 0.002470673 0.219919
-0.00021251383 -0.00020567651 -0.00022472738 -0.0001089771 -0.001339233 -0.00023026476 0.00010953693 -6.939315e-05
0.01428565 -0.00021702492 -0.4459141 -0.0078041893 -0.00021667448 -0.00021294192 0.15059996 -0.020687617
-0.00022205523 0.117146425 -0.027854271 -0.00021512415 0.015554648 0.007555889 -0.00068227254 -0.028403752
0.19622773 -0.059294842 0.1210771 -0.0001703388 0.069889106 0.15099595 -0.0001872186 0.1917989
0.15992147 -0.00020155843 0.060529236 -0.18304406 -0.00020895181 -0.010827645 -0.00021997788 0.086897194
-0.00021130932 -0.37183028 0.09947553 -0.00021673526 -0.00021890129 -0.10048247 0.0071917255 -0.00021757865
0.011418188 0.102011055 -0.00023509345 0.011030876 0.2245934 -0.0001093368 -0.00020973204 -0.0040377313
0.02492644 0.11900877 -0.00021775292 -0.00021534623 -0.00023966776 -0.010335216 0.06025968 0.41989642
-0.00020013773 -0.006939144 0.002659449 -0.007962067 -0.00019865885 -0.00020210807 -0.26079893 -0.00025462182
7.917945e-05 -6.095182e-05 -0.00010102438 -8.2308245e-05 -0.000100282276 -0.00020079977 -9.247449e-05 -0.0002393421
-5.1241463e-05 -9.398441e-05 -0.0007536727 -0.00010167819 -9.834264e-05 0.00052764616 -0.00010105792 -2.4341078e-05
-0.00010107078 -9.831947e-05 -0.00010134902 -0.00010094087 -0.00010021068 -0.00010017012 2.5726436e-05 0.0003497441
-0.00010098545 -0.00010102445 -0.000100416284 -9.862022e-05 -0.000105987034 -0.00010069584 -8.402641e-05 -9.494328e-05
-0.0004472845 -0.00010133402 0.0005824857 0.00024475978 -0.00010084022 -0.00010102218 0.0011380672 -0.00017641725
-0.000100682155 -5.1595674e-05 -0.00039780219 -0.000100896104 0.00011673566 -1.9254401e-05 7.3264244e-05 -0.00018764519
6.707816e-05 -0.0015631589 0.0002489547 -0.00010112463 -0.00013832157 0.0001193899 -0.00010111139 0.00030377286
0.00013095837 -0.000101189224 -4.6339777e-05 9.820942e-07 -0.0001015711 -0.00016200091 -9.9762336e-05 -0.00024214051
00000000: a6ed 08bf bf3b ee3a 52cc c73a 449b 873d
00000010: 2d82 c83a 3173 6f3f 3ab5 b839 2ba2 52bf
00000020: 4262 afbc aac3 dd3a d101 94bd 7425 d53a
00000030: 14fb eb3a 24db f6be 4c02 c73a e53d f2be
00000040: ec81 d43a 4c5e ab3a 2a08 cb3a 0060 dd3a
00000050: cb21 b63a d61f c63a 2ca7 31bc 9241 1f3f
00000060: 2830 c83a e8ee c83a 41d3 d33a 3e32 3b3b
00000070: bdc1 62bc b7e4 cc3a 771d 803a 635e a03a
00000080: b495 173e b815 c83a 1fec 73bc 3807 fb3e
00000090: 8470 b23a 8f16 cd3a c1ab ab3d fd63 143c
000000a0: 951f cc3a 3d6e 1cbe 017c 9bbe 4b75 c73a
000000b0: 7393 8bba 950c 43bb 2cfe 863c e598 683f
000000c0: c002 49be 36a9 bf3e 26f3 3ebe 2210 bc3a
000000d0: 2379 253e ca8a 0c3f c256 bf3a e385 033f
000000e0: 13cf a6be 3c82 cd3a fc59 553f 6b1c 0ebf
000000f0: d45c ca3a 8b00 95ba 863b c83a 5110 123e
00000100: 29f0 be3a 5ecc 753e 6593 29be c8ee c63a
00000110: 8693 c23a a57c 65be 8b1b 553c f09c c93a
00000120: 1fa8 1e3c 5ffa 9ebe 5f00 e63a 62f2 623b
00000130: a64f 3dbf afab be3a 041a b83a a963 18be
00000140: 137d 4fbd 31e9 f63c 0e5c c73a 2c0f b93a
00000150: 510a c43a 1e77 2fbc b68a 1e3f 3f1d 45bf
00000160: 3f59 cc3a a8c3 a8bc 8865 ffbe bed2 4c3d
00000170: 9eac c43a 982f c13a 5f85 28bf 552a a83a
00000180: 7ff8 abbc 3759 9dbc 68e6 53b9 e870 29bb
00000190: edbd 71b9 e381 273f 82ad 94b9 2cd5 13be
000001a0: 676a 70bb 61f2 47b9 9362 8c3e c4e0 35b9
000001b0: 91e1 2db9 09c9 afbe a9a5 5fb9 d2dd 0f3f
000001c0: c930 50b9 2b33 dfb8 784e 56b9 b6bc 47b9
000001d0: 15be 7eb9 5046 4cb9 04eb 213b 7232 613e
000001e0: 3fd6 5eb9 deaa 57b9 cca4 6bb9 a38a e4b8
000001f0: 3489 afba 3a73 71b9 31b7 e538 2a87 91b8
00000200: 5c0e 6a3c 2f91 63b9 da4e e4be 49ba ffbb
00000210: 1d33 63b9 2949 5fb9 e036 1a3e 1479 a9bc
00000220: 7fd7 68b9 77ea ef3d a42e e4bc f392 61b9
00000230: ecd8 7e3c 6497 f73b 89da 32ba fcae e8bc
00000240: ecef 483e 26df 72bd 45f7 f73d f99c 32b9
00000250: 0522 8f3d af9e 1a3e 1c50 44b9 ee66 443e
00000260: 74c2 233e 6e59 53b9 81ed 773d e76f 3bbe
00000270: 131a 5bb9 6f66 31bc dda9 66b9 28f7 b13d
00000280: ea92 5db9 8a60 bebe d4b9 cb3d 6e43 63b9
00000290: de88 65b9 c1c9 cdbd 91a8 eb3b d325 64b9
000002a0: 5a13 3b3c 2ceb d03d 6b83 76b9 d9ba 343c
000002b0: d0fb 653e bf4b e5b8 84eb 5bb9 f24e 84bb
000002c0: 8932 cc3c dfba f33d 9b54 64b9 90ce 61b9
000002d0: 534f 7bb9 0a55 29bc dbd2 763d aafc d63e
000002e0: 10dc 51b9 c261 e3bb 264a 2e3b 5473 02bc
000002f0: 144f 50b9 f9ec 53b9 7087 85be c37e 85b9
00000300: 250d a638 85a6 7fb8 0ddd d3b8 e79c acb8
00000310: a34e d2b8 c78d 52b9 ddee c1b8 e8f7 7ab9
00000320: 1aec 56b8 7f19 c5b8 1e92 45ba 103c d5b8
00000330: 4e3d ceb8 bc51 0a3a 0fef d3b8 1130 ccb7
00000340: f6f5 d3b8 dd30 ceb8 578b d4b8 38b0 d3b8
00000350: 3328 d2b8 6c12 d2b8 1acf d737 dc5d b739
00000360: 27c8 d3b8 17dd d3b8 9596 d2b8 54d2 ceb8
00000370: 5b45 deb8 ab2c d3b8 5637 b0b8 491c c7b8
00000380: 8281 eab9 4a83 d4b8 f4b1 183a 1a53 8039
00000390: 2e7a d3b8 dfdb d3b8 332b 953a a5fc 38b9
000003a0: 5225 d3b8 6f68 58b8 1b90 d0b9 2f98 d3b8
000003b0: fbcf f438 8384 a1b7 71a5 9938 9fc2 44b9
000003c0: 50ac 8c38 e9e2 ccba 2286 8239 df12 d4b8
000003d0: 6a0a 11b9 f760 fa38 c40b d4b8 b443 9f39
000003e0: df51 0939 8d35 d4b8 f55c 42b8 80d0 8335
000003f0: 9202 d5b8 cade 29b9 7f37 d1b8 19e7 7db9

lstm.bias_ih_l0 f4 [384]
-0.46829015 -0.4586733 -0.0076467334 -0.51344234 -0.0077213203 0.07818131 -0.009140524 -0.1985459
-0.4531177 -0.0075685144 0.349318 -0.007557335 -0.007481035 -0.10633341 -0.00776858 -0.013940325
-0.007859335 -0.007980233 -0.007320934 -0.0072617657 -0.007979883 -0.00757588 -0.29016197 0.16765437
-0.007608835 -0.0077025746 -0.007486252 -0.0075824917 -0.33742714 -0.007831759 -0.007773333 -0.0079815015
-0.3598511 -0.0076200357 0.49750328 -0.41439256 -0.007848754 -0.0075264005 -0.35581657 -0.09514664
-0.007617075 -1.2630738 -0.5814732 -0.007619175 -0.06114546 -0.113979384 -0.3374916 -0.25138268
0.18468843 -0.33396834 -1.1751974 -0.0074692327 -0.6731802 -0.22147146 -0.0077136448 -0.28650007
-0.56501704 -0.0075593935 -0.3070813 -0.024345312 -0.0075872126 -0.39350042 -0.0076192403 -0.5089209
-0.00793044 -0.22450984 -0.13140453 -0.00760103 -0.007662515 -0.11066627 -0.33434597 -0.0078010475
-0.42566296 -0.19697368 -0.00792362 -0.2518061 -0.28305596 -0.007854631 -0.0079444405 -0.22064878
-0.08198169 -0.05052316 -0.008156287 -0.0076099783 -0.007826686 -0.1168842 0.23498482 -0.65786994
-0.007409219 -0.3824969 -0.11958717 -0.39885414 -0.00755077 -0.0076900674 -0.057095394 -0.00766358
0.091942996 -0.65536815 -0.0015299966 0.058215365 -0.0015553014 -0.6727229 -0.0014447505 -0.77267563
-0.13263212 -0.0015373346 -1.1891847 -0.0015575893 -0.0015654683 -0.7246777 -0.001534472 -1.0441437
-0.0016350758 -0.0014625863 -0.00149482 -0.0014660365 -0.0014819236 -0.0015037819 -0.3949362 -0.9182924
-0.001524992 -0.0015078741 -0.0015066939 -0.0014640262 -0.25713468 -0.0015251093 -0.0014559041 -0.001496237
-0.2390976 -0.0015409779 -1.2689403 -0.8413168 -0.0014725847 -0.0015236381 0.13680741 -0.19698009
-0.0015294859 0.4720912 -1.0347823 -0.0015262284 -0.20839633 -0.038703285 -0.039120447 -0.4569737
0.18815175 -1.0478122 -0.8204897 -0.0014973432 -0.9440363 0.20248094 -0.0015699426 -0.92197955
-0.18677841 -0.0015270577 -0.077368915 -0.7674599 -0.0015267791 -0.08010375 -0.0015093434 -0.4711887
-0.0015103825 0.15209407 -0.15289238 -0.0015429507 -0.0015080111 -0.86199176 -0.1496666 -0.001545793
-0.16755325 -0.4766003 -0.0015883246 -0.040186275 -0.59263474 -0.0016836202 -0.0016799102 -0.08107944
0.044044822 -0.9440323 -0.0015484019 -0.0015353807 -0.001531272 -0.41334078 0.17122743 0.08228463
-0.0015105772 -0.32643443 -0.24200456 -0.9963317 -0.0015218487 -0.0015178135 0.5039482 -0.0015962354
-0.08929456 -0.18144737 -0.0013292215 -0.47037077 -0.0023031218 -0.43738377 -0.006030165 -0.028047679
-0.11819587 9.778506e-05 -1.0383389 -0.0027530957 -0.0026137535 0.57944876 -0.0035740652 -0.2721217
-0.00174922 -0.00228353 -0.004997675 -0.0034645223 -0.0015544494 -0.0030368157 0.010463103 -0.09942043
-0.0026770097 -0.008336314 -0.0009282009 -0.001569165 -0.22142394 -0.002126417 -0.0034623363 -0.0029967502
-0.2612964 -0.0028045257 0.021856032 0.48011672 -0.00098951 -0.0017204508 0.045352615 -0.141674
-0.002262392 0.39001667 0.6355655 -0.0013820195 0.121348806 -0.04240757 0.049631085 0.14782442
0.3927349 -0.6932984 0.8352747 -0.0032174666 -0.5426994 -0.7333236 -0.002514364 -0.14345919
-0.26619998 -0.0020274506 -0.34371337 0.51878387 -0.0015898024 -0.12518406 -0.0042501874 -0.048724514
00000000: bac3 efbe 3ad7 eabe 7391 fabb f570 03bf
00000010: 2103 fdbb 861d a03d 23c2 15bc 9e4f 4bbe
00000020: 0bff e7be 4d01 f8bb cfd9 b23e 85a3 f7bb
00000030: 7823 f5bb 55c5 d9bd 938f febb f665 64bc
00000040: 71c4 00bc 86bf 02bc 72e4 efbb 1bf4 edbb
00000050: 0ebe 02bc 163f f8bb 1c90 94be 96ad 2b3e
00000060: 8953 f9bb e165 fcbb 3c4f f5bb 8d76 f8bb
00000070: 40c3 acbe c750 00bc 72b7 febb d8c4 02bc
00000080: 673e b8be 7eb1 f9bb c0b8 fe3e 432b d4be
00000090: 0f98 00bc 06a0 f6bb 972d b6be 3edc c2bd
000000a0: a898 f9bb 67ac a1bf 6ddb 14bf 46aa f9bb
000000b0: a973 7abd 066e e9bd b3cb acbe 3bb5 80be
000000c0: f71e 3d3e e6fd aabe de6c 96bf 77c0 f4bb
000000d0: 8a55 2cbf 6ac9 62be bec2 fcbb 23b0 92be
000000e0: f5a4 10bf cab4 f7bb c339 9dbe d26f c7bc
000000f0: 279e f8bb e378 c9be d2aa f9bb a448 02bf
00000100: adee 01bc e8e5 65be e98e 06be 1012 f9bb
00000110: d615 fbbb ffa4 e2bd 652f abbe ee9f ffbb
00000120: 7ff0 d9be 78b3 49be 12d2 01bc bbec 80be
00000130: b6ec 90be b6b0 00bc 6629 02bc c1f1 61be
00000140: 04e6 a7bd 5ff1 4ebd f2a1 05bc 205d f9bb
00000150: 803b 00bc fc60 efbd dc9f 703e 2a6a 28bf
00000160: 09c9 f2bb a2d6 c3be 1eea f4bd 9c36 ccbe
00000170: 736c f7bb f6fc fbbb dcdc 69bd c51e fbbb
00000180: 9c4c bc3d 35c6 27bf 2b8a c8ba 3c73 6e3d
00000190: 41db cbba 9137 2cbf c85d bdba 12ce 45bf
000001a0: b7d0 07be 6480 c9ba 3437 98bf 0628 ccba
000001b0: 6630 cdba 7a84 39bf 5620 c9ba 80a6 85bf
000001c0: 0a50 d6ba 41b4 bfba d6ed c3ba 0628 c0ba
000001d0: 1b3d c2ba 8c1a c5ba 1435 cabe 3615 6bbf
000001e0: 3ee2 c7ba dca3 c5ba 427c c5ba 91e4 bfba
000001f0: 28a7 83be 2de6 c7ba 09d4 beba 621d c4ba
00000200: 00d6 74be a3fa c9ba a36c a2bf 8a60 57bf
00000210: be03 c1ba d0b4 c7ba 3e17 0c3e 26b5 49be
00000220: 0879 c8ba f0b5 f13e bf73 84bf ba0b c8ba
00000230: d965 55be 5687 1ebd c33c 20bd 75f8 e9be
00000240: daaa 403e b61e 86bf 9d0b 52bf 8042 c4ba
00000250: 5dac 71bf 2a57 4f3e 88c6 cdba da06 6cbf
00000260: d742 3fbe 8e27 c8ba 9873 9ebd 4178 44bf
00000270: 351e c8ba 6f0d a4bd 29d5 c5ba a53f f1be
00000280: 07f8 c5ba 8cbe 1b3e d28f 1cbe d63c caba
00000290: 75a8 c5ba 7eab 5cbf 3442 19be 359c caba
000002a0: 1493 2bbe f404 f4be 542f d0ba 5d9a 24bd
000002b0: e9b6 17bf ebac dcba 6f30 dcba fa0c a6bd
000002c0: 5868 343d 1aac 71bf bff3 caba d43e c9ba
000002d0: f6b4 c8ba 67a1 d3be 3e56 2f3e d884 a83d
000002e0: 8ffe c5ba 6a22 a7be 0bd0 77be 980f 7fbf
000002f0: c578 c7ba 5ff1 c6ba c002 013f c638 d1ba
00000300: 11e0 b6bd 57cd 39be 4639 aeba 70d4 f0be
00000310: f9ef 16bb c4f0 dfbe b198 c5bb 3fc4 e5bc
00000320: ad10 f2bd f411 cd38 4ae8 84bf 486d 34bb
00000330: 824b 2bbb c156 143f dd3a 6abb 8953 8bbe
00000340: 1546 e5ba 47a7 15bb 89c3 a3bb 0a0d 63bb
00000350: abbe cbba 5005 47bb 6f6d 2b3c f09c cbbd
00000360: c570 2fbb 0995 08bc 8252 73ba 71ac cdba
00000370: f5bc 62be 5b5b 0bbb 5de8 62bb 2065 44bb
00000380: a4c8 85be 22cc 37bb 6c0b b33c dcd1 f53e
00000390: 72b2 81ba c080 e1ba aac3 393d fd12 11be
000003a0: a444 14bb 44b0 c73e 6cb4 223f e124 b5ba
000003b0: b985 f83d 8fb3 2dbd f749 4b3d 495f 173e
000003c0: 8c14 c93e 017c 31bf 90d4 553f 22dc 52bb
000003d0: 59ee 0abf 18bb 3bbf 07c8 24bb f7e6 12be
000003e0: 5d4b 88be fade 04bb 33fb afbe 05cf 043f
000003f0: eb60 d0ba 4030 00be 2845 8bbb 5b93 47bd

lstm.bias_hh_l0 f4 [384]
-0.6188974 -0.48678645 -0.0076467334 -0.6056709 -0.0077213203 0.18841103 -0.009140524 -0.19450286
-0.41990063 -0.0075685144 0.4164813 -0.007557335 -0.007481035 -0.11823834 -0.00776858 0.038029615
-0.007859335 -0.007980233 -0.007320934 -0.0072617657 -0.007979883 -0.00757588 -0.25101373 0.16137823
-0.007608835 -0.0077025746 -0.007486252 -0.0075824917 -0.35585037 -0.007831759 -0.007773333 -0.0079815015
-0.2847869 -0.0076200357 0.37410706 -0.49257484 -0.007848754 -0.0075264005 -0.32878646 -0.109890476
-0.007617075 -1.2637732 -0.6756642 -0.007619175 -0.052419342 -0.1148241 -0.34195146 -0.22478165
0.12179773 -0.23056011 -1.211298 -0.0074692327 -0.68431574 -0.26077685 -0.0077136448 -0.21051161
-0.55440986 -0.0075593935 -0.29324692 -0.07649322 -0.0075872126 -0.39204454 -0.0076192403 -0.41872874
-0.00793044 -0.20031822 -0.18336165 -0.00760103 -0.007662515 -0.14181004 -0.31190172 -0.0078010475
-0.44042245 -0.19178596 -0.00792362 -0.23279032 -0.34437892 -0.007854631 -0.0079444405 -0.25485247
-0.10419842 0.05440101 -0.008156287 -0.0076099783 -0.007826686 -0.14613421 0.1874313 -0.60481966
-0.007409219 -0.41551232 -0.046091486 -0.37680385 -0.00755077 -0.0076900674 -0.14912893 -0.00766358
0.13035169 -0.6334359 -0.0015299966 0.0988093 -0.0015553014 -0.8079354 -0.0014447505 -0.8330186
-0.13257864 -0.0015373346 -1.1926649 -0.0015575893 -0.0015654683 -0.656087 -0.001534472 -1.0674257
-0.0016350758 -0.0014625863 -0.00149482 -0.0014660365 -0.0014819236 -0.0015037819 -0.39198315 -0.9941508
-0.001524992 -0.0015078741 -0.0015066939 -0.0014640262 -0.24992652 -0.0015251093 -0.0014559041 -0.001496237
-0.33236238 -0.0015409779 -1.2451822 -0.8508171 -0.0014725847 -0.0015236381 0.12644897 -0.19483359
-0.0015294859 0.46748564 -1.0764599 -0.0015262284 -0.20790854 -0.038703285 -0.039120447 -0.3368327
0.2245814 -0.9475763 -0.9355982 -0.0014973432 -0.9472682 0.2286216 -0.0015699426 -0.89404297
-0.19045334 -0.0015270577 -0.08493526 -0.77264225 -0.0015267791 -0.07995172 -0.0015093434 -0.48957133
-0.0015103825 0.120931104 -0.15076944 -0.0015429507 -0.0015080111 -0.8786058 -0.15248615 -0.001545793
-0.167334 -0.31053722 -0.0015883246 -0.039319497 -0.604858 -0.0016836202 -0.0016799102 -0.08151863
0.030502226 -0.9200007 -0.0015484019 -0.0015353807 -0.001531272 -0.40313488 0.23753968 0.024608945
-0.0015105772 -0.30812863 -0.2518496 -0.9320251 -0.0015218487 -0.0015178135 0.512147 -0.0015962354
-0.058794223 -0.22056913 -0.0040418017 -0.49825126 -0.003100148 -0.30247056 0.0029169915 0.102043316
-0.123641014 -0.0052532325 -1.0631962 -0.0025917562 -0.0025222667 0.566358 -0.0018145131 -0.12806131
-0.0035852543 -0.0030828551 -0.00035314134 -0.0022208237 -0.003932324 -0.002423044 0.031221379 -0.25395867
-0.0027016995 0.0029891925 -0.0045771115 -0.003152359 -0.2569768 -0.0032615345 -0.0012727181 -0.0020679624
-0.24369441 -0.0025476716 -0.14593948 0.5601592 -0.004541111 -0.0037129612 0.12216671 -0.18373199
-0.0031219197 0.44511405 0.484667 -0.0040066754 0.07187648 -0.055813875 -0.014478151 0.0046204645
0.37385222 -0.7718415 0.7541434 -0.0021229682 -0.5619214 -0.7546593 -0.0028472694 -0.18112732
-0.24437802 -0.0033356927 -0.33263028 0.5162299 -0.003759808 -0.14917593 -0.0012064499 0.06865466
00000000: 0f70 1ebf 133c f9be 7391 fabb 400d 1bbf
00000010: 2103 fdbb d2ee 403e 23c2 15bc c22b 47be
00000020: 37fd d6be 4d01 f8bb 093d d53e 85a3 f7bb
00000030: 7823 f5bb f126 f2bd 938f febb f1c4 1b3d
00000040: 71c4 00bc 86bf 02bc 72e4 efbb 1bf4 edbb
00000050: 0ebe 02bc 163f f8bb df84 80be 5640 253e
00000060: 8953 f9bb e165 fcbb 3c4f f5bb 8d76 f8bb
00000070: 0532 b6be c750 00bc 72b7 febb d8c4 02bc
00000080: 97cf 91be 7eb1 f9bb f68a bf3e c532 fcbe
00000090: 0f98 00bc 06a0 f6bb b356 a8be 420e e1bd
000000a0: a898 f9bb 52c3 a1bf 54f8 2cbf 46aa f9bb
000000b0: aab5 56bd e628 ebbd 4314 afbe 292d 66be
000000c0: 1771 f93d f317 6cbe d00b 9bbf 77c0 f4bb
000000d0: 512f 2fbf 8b84 85be bec2 fcbb 5b90 57be
000000e0: ceed 0dbf cab4 f7bb 7624 96be 7aa8 9cbd
000000f0: 279e f8bb 10ba c8be d2aa f9bb 9d63 d6be
00000100: adee 01bc 3820 4dbe 28c3 3bbe 1012 f9bb
00000110: d615 fbbb a736 11be 95b1 9fbe ee9f ffbb
00000120: 0d7f e1be 8a63 44be 12d2 01bc 9660 6ebe
00000130: 6f52 b0be b6b0 00bc 6629 02bc 067c 82be
00000140: fb65 d5bd 98d3 5e3d f2a1 05bc 205d f9bb
00000150: 803b 00bc 35a4 15be feed 3f3e 76d5 1abf
00000160: 09c9 f2bb 08be d4be 6dca 3cbd 6fec c0be
00000170: 736c f7bb f6fc fbbb 41b5 18be c51e fbbb
00000180: ea7a 053e db28 22bf 2b8a c8ba 885c ca3d
00000190: 41db cbba dbd4 4ebf c85d bdba b540 55bf
000001a0: b2c2 07be 6480 c9ba 3ea9 98bf 0628 ccba
000001b0: 6630 cdba 51f5 27bf 5620 c9ba 68a1 88bf
000001c0: 0a50 d6ba 41b4 bfba d6ed c3ba 0628 c0ba
000001d0: 1b3d c2ba 8c1a c5ba 04b2 c8be ab80 7ebf
000001e0: 3ee2 c7ba dca3 c5ba 427c c5ba 91e4 bfba
000001f0: bdec 7fbe 2de6 c7ba 09d4 beba 621d c4ba
00000200: 672b aabe a3fa c9ba 2162 9fbf 26cf 59bf
00000210: be03 c1ba d0b4 c7ba d77b 013e 7582 47be
00000220: 0879 c8ba 475a ef3e 70c9 89bf ba0b c8ba
00000230: fae5 54be 5687 1ebd c33c 20bd 5675 acbe
00000240: abf8 653e 5c94 72bf 5d83 6fbf 8042 c4ba
00000250: 2b80 72bf c81b 6a3e 88c6 cdba 00e0 64bf
00000260: 3306 43be 8e27 c8ba 8af2 adbd e2cb 45bf
00000270: 351e c8ba babd a3bd 29d5 c5ba 18a9 fabe
00000280: 07f8 c5ba baaa f73d 4e63 1abe d63c caba
00000290: 75a8 c5ba 4fec 60bf 5425 1cbe 359c caba
000002a0: 9b59 2bbe bcfe 9ebe 542f d0ba 7b0d 21bd
000002b0: f9d7 1abf ebac dcba 6f30 dcba 3df3 a6bd
000002c0: cedf f93c 2a85 6bbf bff3 caba d43e c9ba
000002d0: f6b4 c8ba b267 cebe 9a3d 733e b398 c93c
000002e0: 8ffe c5ba 09c3 9dbe 6ef2 80be 3299 6ebf
000002f0: c578 c7ba 5ff1 c6ba 111c 033f c638 d1ba
00000300: 36d2 70bd e0dc 61be 1771 84bb ca1a ffbe
00000310: da2b 4bbb 6cdd 9abe ff2a 3f3b 16fc d03d
00000320: 8037 fdbd 4f23 acbb d016 88bf 74da 29bb
00000330: 9d4c 25bb d6fc 103f f5d4 edba 8122 03be
00000340: 96f6 6abb ba09 4abb d425 b9b9 3d8b 11bb
00000350: b9da 80bb efcb 1ebb fac3 ff3c df06 82be
00000360: ff0e 31bb 54e6 433b 98fb 95bb cf97 4ebb
00000370: 7792 83be 78bf 55bb 55d1 a6ba a786 07bb
00000380: 078b 79be d6f6 26bb 2971 15be 9866 0f3f
00000390: 9acd 94bb 2755 73bb 8a32 fa3d 3d24 3cbe
000003a0: 1f99 4cbb fde5 e33e 4626 f83e 6e4a 83bb
000003b0: fa33 933d 179d 64bd c435 6dbc 4467 973b
000003c0: 8f69 bf3e 6897 45bf 8b0f 413f 7f21 0bbb
000003d0: 15da 0fbf 5a31 41bf 4199 3abb 7179 39be
000003e0: 3b3e 7abe a39b 5abb 844e aabe a527 043f
000003f0: 1c67 76bb 93c1 18be be21 9eba d09a 8c3d

layer_norm.weight f4 [96]
0.9092274 0.87226236 0.00024699845 0.7413649 0.0030607025 1.2270205 -0.0027957552 0.9189486
0.6670287 0.026102237 0.0018179205 -0.0123323025 -0.019275311 2.171776 -0.0011702365 1.0017799
0.015747434 -0.0050695385 0.0010468395 0.0012390424 -0.0056868875 0.0033577024 0.91851294 0.9908896
-0.0006518824 0.0059334124 0.0010996907 -0.030312113 0.7733772 -0.0032747495 -0.019232776 -0.011747178
1.8092861 0.0002522644 0.48315436 3.1870677 0.005432008 0.0010399465 1.1034836 1.0320193
0.003008978 2.437732 2.3402114 0.00035721704 0.9459049 0.62471324 0.53040266 0.8645852
0.6491953 3.2244391 2.3938334 0.0025694503 4.080419 0.42246962 -0.0019200528 1.0233148
1.480922 8.98768e-05 0.20592387 4.15376 -0.0035255307 0.7459543 0.0004028426 1.2723584
0.0037314093 1.2547029 0.9294705 -0.0002453552 0.002236885 0.6898297 0.8945834 0.00020004564
0.75787187 1.39065 -0.0047842865 0.80648243 0.99519694 0.013460373 0.01598891 1.3597698
0.86330676 1.0903014 0.00021369924 0.008209004 -0.0019670906 1.1336069 0.8651767 0.8741519
0.0003109439 0.7822357 1.0889665 2.0271184 -0.0012170209 -0.0006410134 1.0049961 0.016091978
00000000: 20c3 683f 964c 5f3f 927f 8139 17ca 3d3f
00000010: 1196 483b 020f 9d3f fd38 37bb 3740 6b3f
00000020: 65c2 2a3f 5cd4 d53c 4a47 ee3a 6d0d 4abc
00000030: 42e7 9dbc 61fe 0a40 9f62 99ba 533a 803f
00000040: c300 813c 5f1e a6bb 1b36 893a 5d67 a23a
00000050: 1259 babb e60c 5c3b aa23 6b3f f1aa 7d3f
00000060: 16e3 2aba 126d c23b 7f23 903a 1c51 f8bc
00000070: 0cfc 453f 2e9d 56bb 0e8e 9dbc 3c77 40bc
00000080: b096 e73f 5b42 8439 0260 f73e ebf8 4b40
00000090: fcfe b13b d04e 883a f33e 8d3f 3519 843f
000000a0: 4632 453b cd03 1c40 06c6 1540 dc48 bb39
000000b0: d326 723f 35ed 1f3f 78c8 073f 7555 5d3f
000000c0: aa31 263f 365d 4e40 9134 1940 3964 283b
000000d0: cb92 8240 f04d d83e 48aa fbba fbfb 823f
000000e0: da8e bd3f 3d7c bc38 b5dd 523e 9aeb 8440
000000f0: 970c 67bb dcf6 3e3f 9e34 d339 a4dc a23f
00000100: a98a 743b 1b9a a03f c7f1 6d3f 04a3 80b9
00000110: b498 123b ae98 303f 6b03 653f 58c3 5139
00000120: e403 423f d200 b23f 81c5 9cbb a275 4e3f
00000130: 3ac5 7e3f e588 5c3c 2dfb 823c f00c ae3f
00000140: ac01 5d3f ff8e 8b3f 7414 6039 0f7f 063c
00000150: 4eea 00bb 081a 913f 387c 5d3f 6bc8 5f3f
00000160: 2f06 a339 9940 483f 4163 8b3f 4fbc 0140
00000170: 7284 9fba ae09 28ba b6a3 803f 53d3 833c

layer_norm.bias f4 [96]
0.17151423 0.09836294 0.006276546 0.12356943 0.0055431477 0.28954268 -0.024296526 0.011800592
-0.0171099 0.04696775 0.00705413 -0.011946128 -0.027756128 -0.17174727 -0.0025182327 0.7952769
0.014672767 -0.0014848718 0.011889942 0.009347861 -0.005666559 0.0018718251 -0.024127642 -0.31685603
-0.0035385813 0.0037444113 -0.0015081216 -0.05744794 0.010732126 -0.011905127 -0.07881656 -0.029460443
0.13348694 6.111085e-05 -0.04967461 -0.5927895 0.012909368 -0.03514534 0.1110518 0.1063141
0.009049495 0.25236785 -0.3160233 -0.0043203062 -0.15644695 0.12305195 0.067435734 -0.092664905
-0.31653154 0.45184946 -0.71531713 0.011504572 0.29239333 0.48432502 -0.0055176406 -0.07937944
0.040970232 -0.0028792652 0.20370372 -0.019184101 -0.0033786139 -0.04119098 0.0016061489 -0.042563263
0.014787405 -0.008292935 -0.41736665 -0.00018152858 -0.0023925314 -0.03239069 -0.1580808 -0.007556044
-0.11922693 -0.11052781 -0.009762106 -0.12549633 -0.03408956 0.02588095 0.042228203 0.0018806105
0.23769464 0.3753358 0.0042769993 0.007954491 -0.04161049 -0.074489176 0.51030576 0.15525681
0.012164958 0.06220045 0.03866881 -0.46930298 -0.0029322056 0.009561312 -0.47220406 0.012302525
00000000: 6da1 2f3e 8272 c93d 7cab cd3b f811 fd3d
00000010: 4ba3 b53b f03e 943e 8209 c7bc 4557 413c
00000020: 102a 8cbc 4161 403d 5526 e73b b1b9 43bc
00000030: d260 e3bc 84de 2fbe ef08 25bb 4497 4b3f
00000040: 0c66 703c 08a0 c2ba 08ce 423c c527 193c
00000050: 8bae b9bb 0758 f53a 55a7 c5bc f43a a2be
00000060: 8be7 67bb cc64 753b 2aac c5ba 884e 6bbd
00000070: cdd5 2f3c b90d 43bc 946a a1bd 0757 f1bc
00000080: cdb0 083e a328 8038 9b77 4bbd 0dc1 17bf
00000090: d081 533c 8ff4 0fbd 206f e33d 35bb d93d
000000a0: 5544 143c 5c36 813e cecd a1be 5b91 8dbb
000000b0: a133 20be a902 fc3d bf1b 8a3d 19c7 bdbd
000000c0: 6c10 a2be d058 e73e 061f 37bf ac7d 3c3c
000000d0: 94b4 953e 73f9 f73e 53cd b4bb b091 a2bd
000000e0: 67d0 273d 0eb2 3cbb b597 503e fa27 9dbc
000000f0: bc6b 5dbb dfb7 28bd 6a85 d23a d156 2ebd
00000100: df46 723c 17df 07bc 15b1 d5be b558 3eb9
00000110: 04cc 1cbb 1aac 04bd efdf 21be b198 f7bb
00000120: 402d f4bd 685c e2bd 3ef1 1fbc 1c82 00be
00000130: 7fa1 0bbd 4904 d43c 7bf7 2c3d d17e f63a
00000140: 3966 733e 042c c03e 1226 8c3b 8e53 023c
00000150: c36f 2abd c88d 98bd 66a3 023f a4fb 1e3e
00000160: 884f 473c e6c5 7e3d 3063 1e3d 7b48 f0be
00000170: 3f2a 40bb 0da7 1c3c bbc4 f1be 8890 493c

exp_avg f4 [384, 1]
33.43961 -3.7410033 0.00848737 0.043461222 0.008621239 -17.057276 0.0016241533 44.006187
0.71563536 0.006860818 -23.454586 0.008482735 0.007855993 -12.564273 0.008719959 -81.8136
0.00817354 0.0095199 0.007972679 0.008936277 0.009240855 0.008663416 -0.38784292 -23.574398
0.008470659 0.008679162 0.008681495 0.0043411315 0.83855 0.008772903 0.0075273085 0.0080382535
-29.857773 0.008302194 -18.79323 -45.207623 0.009540692 0.008464019 15.173058 2.3946989
0.008459156 45.173695 36.99149 0.008480244 -0.5477157 -0.02621493 0.0836146 5.6827755
-51.910164 31.240927 26.508173 0.0086029945 61.369236 31.449654 0.008492093 -21.864998
-8.730467 0.008352408 -3.1143618 39.490597 0.008261317 0.56320226 0.008747737 -10.258723
0.008726873 30.20425 -10.4081745 0.008233139 0.008584437 -6.2405457 0.38642818 0.008726969
-1.6112663 -17.791683 0.008791471 0.068975806 -57.02402 0.008704894 0.008609626 0.16579843
-2.3362048 -24.238333 0.009598426 0.008445007 0.0086454665 -3.0735106 -16.831928 -4.454122
0.008307346 -0.13628384 19.190666 22.13731 0.008401516 0.00871786 107.59939 0.008115127
-3.9646485 0.46420863 -0.0020683957 -1.4402672 -0.002025948 -29.704418 -0.003054102 1.6090176
0.2451109 -0.0015727241 -4.663625 -0.0020794626 -0.002275875 4.0458755 -0.0020597843 11.544656
-0.0021117358 -0.0019893027 -0.0020961596 -0.0019753268 -0.0020210596 -0.0020384307 -0.05620887 -2.154117
-0.002070308 -0.0020993287 -0.0020420833 -0.002480971 0.36451575 -0.002014439 -0.0022339975 -0.0022921215
5.2511277 -0.002077937 18.164991 -1.3359822 -0.0021077143 -0.0020618504 -2.0825882 -0.28485548
-0.0020723685 -20.091242 -4.6344333 -0.0020658092 -0.21780774 -0.040787157 -0.00070938305 -12.713747
-11.476169 -7.2523575 -4.1867323 -0.002105447 -2.008853 -28.717596 -0.002077637 -1.8394976
1.5176117 -0.0020752205 1.9663646 2.1088202 -0.0020794237 0.12677458 -0.002028281 -1.1804435
-0.0019821355 -1.0971854 2.6032372 -0.0020802428 -0.002023538 6.619314 0.2283765 -0.0020536382
-0.5305362 -18.154135 -0.002148346 0.008608538 1.397287 -0.002175439 -0.0020706798 0.48775867
4.780762 3.4129398 -0.0020047172 -0.0021256015 -0.0020683762 1.0030143 2.7887645 2.0079374
-0.0020752167 -0.18479866 4.9091325 -3.546037 -0.0020689124 -0.0020468603 1.0380026 -0.0019986206
39.467678 -13.004083 0.20258406 -0.28833678 0.16664472 -103.31284 0.3928114 34.23761
-2.6690018 -0.38316303 3.418092 0.12351753 0.30152 83.894554 0.19754995 -55.669434
0.3392486 0.18521851 0.2075115 0.18458183 0.19375731 0.18361956 1.8456259 -166.08076
0.20491458 0.2396611 0.18399192 0.31170803 -0.99257064 0.15000398 0.20213301 0.20420212
-34.40755 0.20044884 -151.23145 0.595299 0.14405355 0.19346556 -0.07637951 -1.5990468
0.18829711 1.8264229 -69.48162 0.1988602 -1.0998837 -0.87335336 0.19357593 -149.09442
-14.085833 -12.977553 -161.26624 0.20658362 -97.904015 -6.6953115 0.20338073 -51.194126
-93.21774 0.2034359 0.041141838 -74.47348 0.2103286 -2.9445298 0.17877093 8.740314
00000000: 29c2 0542 996c 6fc0 9c0e 0b3c 6504 323d
00000010: 1940 0d3c 4d75 88c1 8be1 d43a 5606 3042
00000020: e133 373f b6d0 e03b fea2 bbc1 2bfb 0a3c
00000030: 6cb6 003c 4307 49c1 29de 0e3c 90a0 a3c2
00000040: 50ea 053c 5bf9 1b3c d79f 023c 7669 123c
00000050: f566 173c 00f1 0d3c 5993 c6be 5e98 bcc1
00000060: 85c8 0a3c 0b33 0e3c d43c 0e3c 0d40 8e3b
00000070: 36ab 563f 39bc 0f3c a4a7 f63b e1b2 033c
00000080: b8dc eec1 ed05 083c 8958 96c1 9bd4 34c2
00000090: 9050 1c3c abac 0a3c d8c4 7241 bf42 1940
000000a0: 4698 0a3c ddb1 3442 49f7 1342 b9f0 0a3c
000000b0: 1937 0cbf b1c0 d6bc 223e ab3d 4cd9 b540
000000c0: 02a4 4fc2 6bed f941 bd10 d441 93f3 0c3c
000000d0: 197a 7542 e498 fb41 6b22 0b3c 84eb aec1
000000e0: feaf 0bc1 8ad8 083c b451 47c0 5ff6 1d42
000000f0: 7a5a 073c 062e 103f ab52 0f3c bb23 24c1
00000100: 29fb 0e3c 4ea2 f141 e287 26c1 4ae4 063c
00000110: bda5 0c3c 8db2 c7c0 ead9 c53e 90fb 0e3c
00000120: f93d cebf 5e55 8ec1 1a0a 103c 3043 8d3d
00000130: 9918 64c2 f99e 0e3c 640f 0d3c 10c7 293e
00000140: 6184 15c0 1be8 c1c1 b742 1d3c ed5c 0a3c
00000150: b7a5 0d3c 66b4 44c0 caa7 86c1 2b88 8ec0
00000160: 891b 083c fe8d 0bbe 7c86 9941 3619 b141
00000170: 83a6 093c 5bd5 0e3c e332 d742 4ff5 043c
00000180: cdbc 7dc0 c1ac ed3e ec8d 07bb ad5a b8bf
00000190: c4c5 04bb a6a2 edc1 5427 48bb 4af4 cd3f
000001a0: 5afe 7a3e dd23 ceba 6a3c 95c0 9847 08bb
000001b0: d926 15bb d077 8140 72fd 06bb e9b6 3841
000001c0: 0c65 0abb f65e 02bb b95f 09bb 7c74 01bb
000001d0: c173 04bb 3197 05bb 463b 66bd 0edd 09c0
000001e0: 01ae 07bb e494 09bb 79d4 05bb c997 22bb
000001f0: cfa1 ba3e ae04 04bb 4268 12bb 6b37 16bb
00000200: 3d09 a840 ff2d 08bb e751 9141 7701 abbf
00000210: 9421 0abb 1c20 07bb 2049 05c0 94d8 91be
00000220: 93d0 07bb ddba a0c1 474d 94c0 8762 07bb
00000230: fe08 5fbe 6f10 27bd e4f5 39ba 826b 4bc1
00000240: 639e 37c1 5013 e8c0 b6f9 85c0 8afb 09bb
00000250: 0c91 00c0 a3bd e5c1 f728 08bb a874 ebbf
00000260: 1a41 c23f 6c00 08bb d6b1 fb3f e9f6 0640
00000270: f146 08bb 32d1 013e e9ec 04bb c618 97bf
00000280: b7e6 01bb 9270 8cbf 709b 2640 af54 08bb
00000290: 569d 04bb 6cd1 d340 87db 693e 5596 06bb
000002a0: 38d1 07bf ab3b 91c1 44cb 0cbb d30a 0d3c
000002b0: 4dda b23f cf91 0ebb 3eb4 07bb 81bb f93e
000002c0: 01fc 9840 9b6d 5a40 9361 03bb ad4d 0bbb
000002d0: 988d 07bb c662 803f 1e7b 3240 0c82 0040
000002e0: 5c00 08bb dc3b 3dbe 9d17 9d40 45f2 62c0
000002f0: 9796 07bb 9e24 06bb 45dd 843f 4afb 02bb
00000300: e7de 1d42 b910 50c1 3272 4f3e e1a0 93be
00000310: eaa4 2a3e 2da0 cec2 931e c93e 50f3 0842
00000320: edd0 2ac0 f22d c4be 05c2 5a40 c2f6 fc3d
00000330: d460 9a3e 03ca a742 894a 4a3e 80ad 5ec2
00000340: feb1 ad3e eca9 3d3e e57d 543e 0503 3d3e
00000350: 5168 463e c406 3c3e 783d ec3f ad14 26c3
00000360: 21d5 513e b869 753e 6168 3c3e 3298 9f3e
00000370: 1c19 7ebf a59a 193e f5fb 4e3e 5c1a 513e
00000380: 55a1 09c2 7642 4d3e 403b 17c3 8465 183f
00000390: c682 133e d61b 463e dc6c 9cbd 91ad ccbf
000003a0: f5d0 403e 3ac8 e93f 97f6 8ac2 02a2 4b3e
000003b0: fdc8 8cbf 1694 5fbf c538 463e 2c18 15c3
000003c0: 925f 61c1 0fa4 4fc1 2844 21c3 a88a 533e
000003d0: dbce c3c2 fe3f d6c0 0a43 503e c9c6 4cc2
000003e0: 7c6f bac2 8051 503e 5884 283d 6cf2 94c2
000003f0: 6160 573e 2d73 3cc0 ba0f 373e 53d8 0b41

exp_avg_sq f4 [384, 1]
93270.7 710.2053 0.00060459133 937.5699 0.0006112986 408346.7 0.0006143466 90614.88
2.5500958 0.0005175034 11455.536 0.0005909732 0.00057664723 270.18146 0.0006110972 56790.88
0.00054093485 0.0006386161 0.0005811628 0.0005844827 0.000622032 0.0006004152 16.10483 85662.09
0.00060177105 0.00061029673 0.0006008238 0.00047942786 4.055935 0.0006144768 0.0006533899 0.0006373164
27692.193 0.0005989482 68297.35 41489.984 0.00062118826 0.0005963528 4499.535 53.218052
0.00060322403 446199.6 4384.0776 0.0006022144 2.5313265 0.35446438 0.40444916 4663.504
6677.3047 6212.5034 4072.1216 0.0006144994 45496.24 74428.016 0.00060739514 76634.74
12422.996 0.00060040003 80130.03 67729.75 0.0005986155 38.102734 0.00060774945 4663.979
0.0006291198 7251.051 1914.5408 0.0005967692 0.0005991748 12839.6875 1.5559905 0.000615454
7.857141 12782.421 0.0006475382 1.7709727 15213.112 0.0005591425 0.00063033303 102.51541
866.4544 30950.209 0.0006463368 0.0005781411 0.0006099925 204.9954 61092.01 5198.6533
0.0005920941 30.164179 29540.395 24396.705 0.00059721654 0.0006085731 234230.2 0.0005739085
77.89728 36.53237 0.00016987746 221.60039 0.00017128846 42451.926 0.00017568919 249.22708
0.32884812 0.0001520094 212.29462 0.00016839264 0.00016039844 275.28067 0.00017089366 3150.625
0.00016079682 0.00017116319 0.00016782996 0.00016853075 0.00016940058 0.00017118531 0.5353354 60.35516
0.0001698898 0.00017374885 0.0001708445 0.00016045189 1.0064533 0.00016972377 0.00015809557 0.00016612162
2035.9827 0.00016923169 1219.4165 40.101185 0.00017247655 0.00016992437 3908.2566 17.082314
0.00016980305 1400.5159 126.4914 0.00017006864 0.48697966 0.059388228 0.0072373315 2724.1287
943.63806 400.7909 250.93372 0.00016916488 34.203133 23393.186 0.00017013807 140.38235
424.08514 0.0001695441 1242.8822 19.433146 0.00016961034 4.0781493 0.00017172091 18.602463
0.000175373 8875.7 223.18346 0.00016887518 0.00016907597 2973.085 0.56681734 0.00017158128
1.2074059 2056.301 0.00017425895 0.25446025 1498.8337 0.00015690012 0.00016136873 20.070642
332.68466 2933.0706 0.00017511171 0.00016413628 0.00016909935 327.87222 96.1623 15602.666
0.00016949284 6.0417833 1927.5 641.0975 0.00016887562 0.00017059999 1272.0587 0.00016421259
124789.67 17180.943 79.602356 170.47423 79.82817 82153.3 77.62134 6546.974
34.461742 81.56502 130.768 79.884094 80.13045 191798.3 79.74901 296939.38
79.778435 79.9044 79.271835 78.71998 79.7106 79.44883 155.22269 142486.58
79.52996 79.654076 79.38337 77.07276 17.527971 79.7334 84.14988 82.061356
20666.648 79.674866 570030.3 32172.92 79.86844 79.62851 253907.12 559.9891
79.56117 34999.766 28660.66 79.587234 116.68323 242.03105 86.69454 767121.56
2974.0305 234488.66 116172.53 79.520035 96640.58 254.75998 79.6699 13712.633
114643.69 79.59417 28538.73 173705.8 79.73856 340.635 79.47225 7219.5605
00000000: 5a2b b647 248d 3144 707d 1e3a 7964 6a44
00000010: 8e3f 203a 5663 c748 1a0c 213a 71fb b047
00000020: c534 2340 11a9 073a 25fe 3246 8aeb 1a3a
00000030: 242a 173a 3a17 8743 0a32 203a e1d6 5d47
00000040: 86cd 0d3a cd68 273a 2d59 183a f837 193a
00000050: dc0f 233a 2f65 1d3a b1d6 8041 0c4f a747
00000060: 2cc0 1d3a 52fc 1f3a 9a80 1d3a b85b fb39
00000070: 38ca 8140 d714 213a 4148 2b3a 9411 273a
00000080: 6358 d846 bc02 1d3a ad64 8547 fc11 2247
00000090: 3dd7 223a 8f54 1c3a 489c 8c45 49df 5442
000000a0: ae21 1e3a f3de d948 9f00 8945 eddd 1d3a
000000b0: 4101 2240 5b7c b53e f613 cf3e 08bc 9145
000000c0: 70aa d045 0724 c245 f281 7e45 5b16 213a
000000d0: 3db8 3147 025e 9147 9939 1f3a 5fad 9547
000000e0: fc1b 4246 2a64 1d3a 0481 9c47 e048 8447
000000f0: 68ec 1c3a 3369 1842 6051 1f3a d5bf 9145
00000100: 84eb 243a 6898 e245 4e51 ef44 8170 1c3a
00000110: f111 1d3a c09e 4846 b22a c73f 6b56 213a
00000120: b36d fb40 afb9 4746 8ebf 293a 3caf e23f
00000130: 73b4 6d46 6b93 123a ef3c 253a e407 cd42
00000140: 159d 5844 6bcc f146 ee6e 293a 648e 173a
00000150: e7e7 1f3a d3fe 4c43 03a4 6e47 3a75 a245
00000160: c336 1b3a 3d50 f141 cac8 e646 6999 be46
00000170: 868e 1c3a a688 1f3a 8dbd 6448 5972 163a
00000180: 68cb 9b42 2621 1242 2221 3239 b399 5d43
00000190: e59b 3339 edd3 2547 3539 3839 223a 7943
000001a0: c85e a83e b664 1f39 6c4b 5443 8e92 3039
000001b0: a130 2839 eda3 8943 eb31 3339 00ea 4445
000001c0: 919b 2839 457a 3339 83fb 2f39 a1b7 3039
000001d0: 1fa1 3139 3580 3339 be0b 093f af6b 7142
000001e0: 7224 3239 5a30 3639 b924 3339 fa3e 2839
000001f0: 76d3 803f e1f7 3139 75c6 2539 ef30 2e39
00000200: 727f fe44 c973 3139 546d 9844 9d67 2042
00000210: d2da 3439 ba2d 3239 1b44 7445 94a8 8841
00000220: 290d 3239 8210 af44 99fb fc42 7454 3239
00000230: 6655 f93e 1241 733d 2327 ed3b 0f42 2a45
00000240: d6e8 6b44 3c65 c843 08ef 7a43 da61 3139
00000250: 02d0 0842 5fc2 b646 1767 3239 e261 0c43
00000260: e60a d443 a6c7 3139 3b5c 9b44 1577 9b41
00000270: 6ed9 3139 3380 8240 fb0f 3439 d8d1 9441
00000280: 55e4 3739 cdae 0a46 f72e 5f43 1614 3139
00000290: fc49 3139 5cd1 3945 f11a 113f 80ea 3339
000002a0: 478c 9a3f d184 0045 48b9 3639 9d48 823e
000002b0: ae5a bb44 8e85 2439 1735 2939 ad90 a041
000002c0: a357 a643 2151 3745 319e 3739 ff1b 2c39
000002d0: 4350 3139 a5ef a343 1953 c042 aaca 7346
000002e0: e3b9 3139 4a56 c140 00f0 f044 3d46 2044
000002f0: 3414 3139 16e3 3239 e101 9f44 7b30 2c39
00000300: d6ba f347 e339 8646 6834 9f42 6779 2a43
00000310: 06a8 9f42 a674 a047 203e 9b42 cb97 cc45
00000320: d3d8 0942 4a21 a342 9cc4 0243 a8c4 9f42
00000330: ca42 a042 934d 3b48 7e7f 9f42 6cfd 9048
00000340: 8f8e 9f42 0ecf 9f42 2e8b 9e42 a170 9d42
00000350: d46b 9f42 cde5 9e42 0239 1b43 a525 0b48
00000360: 570f 9f42 e34e 9f42 49c4 9e42 4125 9a42
00000370: 4939 8c41 8077 9f42 bd4c a842 6a1f a442
00000380: 4c75 a146 8859 9f42 e52a 0b49 d759 fb46
00000390: a4bc 9f42 cc41 9f42 c8f4 7748 4dff 0b44
000003a0: 521f 9f42 c4b7 0847 52e9 df46 aa2c 9f42
000003b0: d05d e942 f307 7243 9b63 ad42 1949 3b49
000003c0: 7de0 3945 2afe 6448 44e6 e247 420a 9f42
000003d0: 4ac0 bc47 8ec2 7e43 fd56 9f42 8842 5646
000003e0: d8e9 df47 3730 9f42 76f5 de46 73a2 2948
000003f0: 257a 9f42 4851 aa43 cbf1 9e42 7c9c e145

exp_avg f4 [384, 96]
0.73184484 -0.04500482 -0.0022506777 0.26155943 -0.002353941 2.9935288 -0.0038591572 -2.127063
0.033728175 -0.0021015664 -5.4997005 -0.002872828 -0.0025500422 0.9694536 -0.0023590378 -0.1844637
-0.0032569254 -0.0021481924 -0.0023288594 -0.002376525 -0.002448053 -0.0023024192 -0.018863777 1.3817456
-0.002273821 -0.0023009083 -0.0023165697 -0.0016723592 0.0061501795 -0.0019837217 -0.001998664 -0.0020064681
1.7702428 -0.0023822347 -1.6158749 -0.5340256 -0.0027900736 -0.002383282 -2.1175454 0.0035836245
-0.0023787199 -0.801828 0.17570889 -0.0023671454 0.014843558 -0.14060923 0.047678612 0.33919308
-1.0815376 0.065694615 0.26916575 -0.0017811628 -0.7814993 1.4066361 -0.0023211243 -0.02544644
-0.63857746 -0.0021798466 -0.3054822 2.5980146 -0.0022975022 0.051198065 -0.0022755885 -0.21689458
-0.0016963303 1.7930689 -0.10297821 -0.0024241128 -0.0021725423 -0.46341723 -0.014705353 -0.0022844921
-0.065734595 -2.5913835 -0.0025281599 -0.05674042 -1.1867923 -0.0023600834 -0.0026861934 0.053592984
0.04939471 -3.7741168 -0.0021566579 -0.0023224081 -0.0023237297 -0.31958774 1.5482603 -4.186017
-0.0023747177 -0.0438933 -1.8918731 -0.6765226 -0.0022325732 -0.0023502642 -4.7962065 -0.0031045692
-0.16979001 0.08412451 -0.0013461966 -0.112206146 -0.0012929633 -0.12589875 -0.00047042285 -0.74218524
-0.14153427 -0.00023531454 -2.1044605 -0.0007520166 -0.00061187526 -1.4400615 -0.0013136351 -1.9696425
-0.000643772 -0.0013788566 -0.0012811384 -0.0012278478 -0.0012600878 -0.0012877769 -0.07481597 0.42189646
-0.0013255356 -0.0012636288 -0.0012900025 0.0010090023 -0.13953294 -0.0013406565 -0.0003066391 -0.00079314096
-0.30105236 -0.0012896406 -1.1193393 0.48618734 -0.0011576057 -0.0012415695 -0.43849856 -0.22746618
-0.0011924282 -0.55816275 0.15209296 -0.0013124667 0.09689537 0.03633925 0.005281443 0.09040846
3.6418173 -0.41552046 0.1859165 -0.0014361326 -0.28773513 -1.0343105 -0.0013176332 0.046248987
-0.13260928 -0.0013217411 -0.259239 0.25649887 -0.0013146879 -0.060147543 -0.0013413074 0.31978115
-0.0015275727 -0.2265791 0.22622727 -0.001278405 -0.0013868645 0.39450413 0.10376626 -0.001349859
0.08007387 -0.09073858 -0.0011642311 0.054563258 -0.63943154 -0.00021687067 -0.0010584162 -0.2086264
-0.5492839 -0.75003105 -0.0014755451 -0.0009932637 -0.0012229955 -0.44200823 -0.04308777 -2.585718
-0.0012480428 -0.15565096 -0.3477343 0.16235909 -0.0013353266 -0.0013685346 -0.5435672 -0.0011649546
6.627743e-06 0.00013389142 8.973174e-06 0.000115926516 9.092524e-06 -0.0014790096 4.9238593e-06 0.0005796174
0.00016627455 7.1006475e-06 0.0027528773 7.932682e-06 7.590599e-06 1.40631455e-05 8.946285e-06 4.953916e-05
7.591401e-06 9.261787e-06 8.8712495e-06 9.3182425e-06 9.069123e-06 9.08209e-06 5.1634524e-05 -0.001094757
8.989615e-06 8.900268e-06 9.250745e-06 5.1064253e-06 0.00015038956 9.053107e-06 7.324491e-06 8.355117e-06
0.0009035599 8.826114e-06 0.003183722 7.046384e-05 9.010408e-06 8.915245e-06 8.1911145e-05 0.00020211052
8.879344e-06 0.00030165078 -0.0010486589 8.938075e-06 -0.00015732831 -5.0429855e-05 -1.0421559e-05 -0.00048775793
-0.005754468 0.00025407734 -0.0003733292 9.255656e-06 7.928781e-05 0.000112247166 8.847778e-06 -0.0014500197
0.00033487476 9.023911e-06 0.00018372494 -0.00044308766 8.8733905e-06 7.1907096e-05 9.236568e-06 -0.0014272702
00000000: 2f5a 3b3f f956 38bd 1b80 13bb 1eeb 853e
00000010: 9444 1abb fa95 3f40 eae9 7cbb cd21 08c0
00000020: 8e26 0a3d 6fba 09bb 8cfd afc0 0e46 3cbb
00000030: 9c1e 27bb 1c2e 783f 169a 1abb 0de4 3cbe
00000040: 2472 55bb b0c8 0cbb c79f 18bb 79bf 1bbb
00000050: 846f 20bb 2fe4 16bb 3588 9abc 0add b03f
00000060: 6304 15bb d6ca 16bb 97d1 17bb 1033 dbba
00000070: 7287 c93b 5401 02bb 05fc 02bb f37e 03bb
00000080: 5197 e23f 441f 1cbb fdd4 cebf e7b5 08bf
00000090: abd9 36bb d630 1cbb dd85 07c0 3edb 6a3b
000000a0: 4ce4 1bbb 9a44 4dbf 08ed 333e 1c22 1bbb
000000b0: 6532 733c defb 0fbe a64a 433d b7aa ad3e
000000c0: d36f 8abf e68a 863d 18d0 893e e875 e9ba
000000d0: 5710 48bf a70c b43f 011e 18bb 0d75 d0bc
000000e0: d079 23bf c2db 0ebb 2a68 9cbe df45 2640
000000f0: b191 16bb 10b5 513d 0a22 15bb 9d19 5ebe
00000100: 6657 deba 4883 e53f 3de6 d2bd dddd 1ebb
00000110: 3661 0ebb 0645 edbe b9ee 70bc 6bb7 15bb
00000120: dc9f 86bd 3ad9 25c0 7caf 25bb a568 68bd
00000130: cfe8 97bf a1ab 1abb d90a 30bb 5184 5b3d
00000140: 1c52 4a3d 218b 71c0 b756 0dbb 8b33 18bb
00000150: b749 18bb 01a1 a3be 652d c63f daf3 85c0
00000160: 27a1 1bbb 76c9 33bd e628 f2bf 9630 2dbf
00000170: 5d50 12bb e406 1abb 867a 99c0 0776 4bbb
00000180: 6fdd 2dbe 7949 ac3d dd72 b0ba 56cc e5bd
00000190: a678 a9ba 9aeb 00be 16a3 f6b9 daff 3dbf
000001a0: 5cee 10be c4be 76b9 7baf 06c0 fb22 45ba
000001b0: 4166 20ba ef53 b8bf 482e acba 3f1d fcbf
000001c0: cfc2 28ba c0ba b4ba dfeb a7ba bcef a0ba
000001d0: 8829 a5ba 9fca a8ba 1e39 99bd d002 d83e
000001e0: 98bd adba 59a0 a5ba 4d15 a9ba 8040 843a
000001f0: b9e1 0ebe f8b8 afba 67c4 a0b9 caea 4fba
00000200: 8923 9abe 2809 a9ba 8346 8fbf 8ced f83e
00000210: cdba 97ba 29bc a2ba e282 e0be e5ec 68be
00000220: 404b 9cba c1e3 0ebf 42be 1b3e 1307 acba
00000230: 1471 c63d 77d8 143d f40f ad3b 1228 b93d
00000240: 8913 6940 19bf d4be e560 3e3e 9d3c bcba
00000250: 0552 93be 4964 84bf 6fb4 acba 946f 3d3d
00000260: baca 07be 463e adba f9ba 84be d253 833e
00000270: 9b51 acba 455d 76bd cfce afba 5bba a33e
00000280: d638 c8ba 5a04 68be 1fa8 673e 2790 a7ba
00000290: 73c7 b5ba 72fc c93e 6883 d43d c1ed b0ba
000002a0: c5fd a33d 26d5 b9bd 1d99 98ba b97d 5f3d
000002b0: c9b1 23bf c767 63b9 8eba 8aba 29a2 55be
000002c0: df9d 0cbf 0902 40bf 1467 c1ba 6630 82ba
000002d0: eb4c a0ba e74e e2be cd7c 30bd 677c 25c0
000002e0: 5e95 a3ba f762 1fbe 3b0a b2be 7641 263e
000002f0: 2006 afba 6760 b3ba 3827 0bbf 64b1 98ba
00000300: e163 de36 3465 0c39 7d8b 1637 931d f338
00000310: 188c 1837 54db c1ba a137 a536 77f1 173a
00000320: fc59 2e39 1942 ee36 9e69 343b 9c16 0537
00000330: c0b2 fe36 c0f0 6b37 0018 1637 45c8 4f38
00000340: a3b9 fe36 1363 1b37 bad5 1437 8c55 1c37
00000350: 9627 1837 485f 1837 2692 5838 f37d 8fba
00000360: 1ad2 1637 5c52 1537 a633 1b37 dc57 ab36
00000370: e4b1 1d39 cce2 1737 e6c4 f536 f42c 0c37
00000380: e1dc 6c3a df13 1437 fea5 503b fcc5 9338
00000390: 682b 1737 b092 1537 b6c7 ab38 a1ed 5339
000003a0: 7ef8 1437 e226 9e39 2773 89ba bdf4 1537
000003b0: 7ff8 24b9 a584 53b8 41d8 2eb7 c3b9 ffb9
000003c0: fa8f bcbb af35 8539 66bb c3b9 bd48 1b37
000003d0: 5247 a638 3d66 eb38 eb70 1437 960e beba
000003e0: 2192 af39 6765 1737 4aa6 4039 384e e8b9
000003f0: ecde 1437 d4cc 9638 c2f6 1a37 3e13 bbba
