model2/lstm_decoder.pt (torch, 348141 bytes, 15 tensors)

attn.weight f4 [6, 193]
0.12954305 0.033168193 0.62132853 0.037785616 0.09579738 -0.14942819 0.045591675 -0.04217729
0.22736004 0.32218575 -0.15750702 0.32204494 0.0052625346 0.13280253 0.19665574 -0.6534464
-0.035883583 0.048868697 -7.08289e-05 -0.120269485 -0.13526516 -0.052803345 0.4466111 0.43890882
0.21936621 -0.2889173 0.08811442 -0.0043975823 0.0143650295 0.28835273 0.10501644 -0.25971684
-0.685422 -0.1068812 -0.028378032 -7.082771e-05 -0.14266963 -0.31803197 -0.029159572 -0.0074519906
-0.08277006 -0.6448101 0.26325858 0.018108206 0.30030367 0.00059032836 -0.26136848 0.08102213
0.069420785 0.0003256508 0.36597252 0.04793577 0.18243584 0.035457928 -0.11751115 -0.13119587
0.048317675 -0.41663137 -0.08560545 -0.09368029 -1.3073323e-05 0.23397428 -0.06650188 0.021845538
-0.00027307592 0.00021077174 0.08188226 0.018182805 0.06468262 0.15659666 0.41024822 -0.08935554
-0.1285959 0.577685 0.19671717 0.11114018 -0.1940571 0.088744454 -0.52936447 -0.17502697
0.57272166 -0.114279546 -0.08872709 -0.02600941 -0.04368909 -0.2637248 -0.14221413 0.32286578
0.018300036 -0.2635047 0.040987987 -0.008089758 -0.1559271 0.019143304 0.097149804 0.06648079
-0.48813197 -0.16613655 0.4493189 0.14685097 0.16559896 0.15030219 0.031719845 -0.50231683
0.13394262 -0.083150186 -0.18574522 -0.092000976 0.33129868 -0.48745444 -0.42136908 0.1747199
-0.034637045 -0.5386061 0.033894356 -0.28777036 -0.27201125 -0.41398835 -0.106604464 -0.2047713
0.09427413 0.070693016 0.027227378 0.0120890215 0.0062482613 0.19102007 0.27895883 0.18472716
-0.29281288 0.49113113 -0.13924769 0.033894513 -0.010964688 -0.17193505 0.013895697 0.022220338
0.31634766 0.1336242 -0.043673184 0.32872692 -0.036342498 0.037937783 0.13239448 -0.27003586
0.01781388 0.009794366 -0.12104791 0.087197244 0.03188342 -0.7275128 0.20695552 0.05953758
0.07823927 0.26835433 -0.46648055 0.039271075 -0.016809737 -0.053627 0.4341443 0.13511541
0.57406014 -0.19688515 0.28294992 0.059695553 0.1543154 -0.25522828 -0.50611645 0.13375579
-0.5845283 0.19149496 -0.07703568 0.33486432 0.36937386 -0.04547161 0.00850928 -0.055588465
-0.15018639 0.01529567 -0.026696844 0.058732595 -0.09596994 -0.04532691 0.14867564 -0.1629633
0.16263357 0.28482777 0.053764205 -0.13123612 -0.074692234 0.019167257 -0.012979464 -0.35791454
-0.25367743 0.12820292 0.03520218 0.37469652 0.040514987 0.18755049 0.009768653 -0.06938266
0.05507554 0.59228647 0.36633557 0.14779535 0.097289324 0.15811297 -0.24089178 -0.739497
0.38870418 -0.04480114 -0.01482713 0.00042458336 -0.31232297 -0.091081716 -0.41154632 0.3188592
-0.04812038 -0.21741775 -0.10116788 0.0314074 -0.040949725 -0.50366837 0.25020897 0.18542662
-0.117783725 -0.7088897 -0.0038325782 -0.081725895 0.00042456985 -0.34593365 -0.16368045 0.09181395
0.023606248 -0.1438902 -0.1237497 -0.24482861 -0.00823404 0.30578536 -0.09560675 -0.002489061
-0.37819406 -0.12629668 -0.0003748498 0.3203917 0.013198565 0.19254951 0.1425124 -0.36371797
0.22089568 -0.12185949 -0.062619925 -0.11182085 0.09038165 0.0013764575 0.047513068 -0.0024050083
00000000: efa6 043e 5fdb 073d 630f 1f3f 17c5 1a3d
00000010: 6b31 c43d b403 19be 56be 3a3d 18c2 2cbd
00000020: 12d1 683e 88f5 a43e 8549 21be 13e3 a43e
00000030: 5771 ac3b 63fd 073e 1f60 493e 4348 27bf
00000040: aafa 12bd 8b2a 483d fa89 94b8 d94f f6bd
00000050: f382 0abe 5248 58bd 36aa e43e a8b8 e03e
00000060: 89a1 603e f8ec 93be 5575 b43d 9819 90bb
00000070: 4d5b 6b3c f8a2 933e dc12 d73d 9bf9 84be
00000080: d177 2fbf 88e4 dabd 0c79 e8bc 5689 94b8
00000090: fd17 12be 16d5 a2be 0ee0 eebc d42f f4bb
000000a0: 5983 a9bd 4612 25bf d4c9 863e a957 943c
000000b0: 67c1 993e 44c0 1a3a 17d2 85be eeee a53d
000000c0: 7c2c 8e3d 1cbc aa39 c060 bb3e 4c58 443d
000000d0: 76d0 3a3e 553c 113d b0a9 f0bd 3658 06be
000000e0: c1e8 453d b550 d5be e951 afbd 74db bfbd
000000f0: 7f55 5bb7 f496 6f3e 2332 88bd 6af5 b23c
00000100: a12b 8fb9 9c02 5d39 e3b1 a73d 1bf4 943c
00000110: 5278 843d e05a 203e 0e0c d23e 0a00 b7bd
00000120: a5ae 03be 2ae3 133f 3a70 493e 769d e33d
00000130: e8b6 46be a7bf b53d 6e84 07bf 453a 33be
00000140: e39d 123f 650b eabd 8cb6 b5bd b011 d5bc
00000150: 55f3 32bd f006 87be 95a0 11be aa4e a53e
00000160: f5e9 953c 17ea 86be 05e3 273d e88a 04bc
00000170: 5bab 1fbe 6bd2 9c3c 7af6 c63d 1527 883d
00000180: 6fec f9be b31f 2abe 200d e63e 1a60 163e
00000190: c692 293e d1e8 193e abec 013d d697 00bf
000001a0: 4128 093e a54a aabd ff33 3ebe 026b bcbd
000001b0: fb9f a93e a193 f9be b0bd d7be c6e9 323e
000001c0: 93df 0dbd 17e2 09bf cfd4 0a3d a356 93be
000001d0: 0f45 8bbe 48f6 d3be 7153 dabd 91af 51be
000001e0: cc12 c13d 80c7 903d f30b df3c 0811 463c
000001f0: 37be cc3b c49a 433e b1d3 8e3e 1e29 3d3e
00000200: 92eb 95be 8a75 fb3e f296 0ebe f9d4 0a3d
00000210: 3ca5 33bc be0f 30be c7aa 633c 6d07 b63c
00000220: 52f8 a13e c8d4 083e a7e2 32bd e54e a83e
00000230: dfdb 14bd a664 1b3d 6b92 073e 2442 8abe
00000240: 6aee 913c 8c78 203c f7e7 f7bd 7894 b23d
00000250: 3098 023d 473e 3abf 26ec 533e addd 733d
00000260: e93b a03d bd65 893e 8ad6 eebe b5da 203d
00000270: 93b4 89bc fca7 5bbd 2948 de3e b25b 0a3e
00000280: 9bf5 123f 439c 49be d0de 903e 5383 743d
00000290: db04 1e3e 48ad 82be d990 01bf 47f7 083e
000002a0: a6a3 15bf 4117 443e e2c4 9dbd 5673 ab3e
000002b0: 921e bd3e 7040 3abd 826a 0b3c bbb0 63bd
000002c0: 76ca 19be b19a 7a3c 57b3 dabc 9791 703d
000002d0: e38b c4bd b6a8 39bd 6d3e 183e dadf 26be
000002e0: 6a89 263e f2d4 913e db37 5c3d c362 06be
000002f0: 3ef8 98bd a704 9d3c d1a7 54bc 9340 b7be
00000300: 02e2 81be a047 033e 2930 103d 39d8 bf3e
00000310: 0bf3 253d 3c0d 403e b30c 203c 7f18 8ebd
00000320: e496 613d 16a0 173f 5690 bb3e aa57 173e
00000330: a03f c73d 5ee8 213e 56ac 76be ad4f 3dbf
00000340: 3c04 c73e 6681 37bd 7eed 72bc 9d9a de39
00000350: cce8 9fbe 0d89 babd 33b6 d2be 8341 a33e
00000360: e019 45bd c2a2 5ebe 1b31 cfbd 0ca5 003d
00000370: e6ba 27bd 69f0 00bf 641b 803e 7ae0 3d3e
00000380: 9838 f1bd cc79 35bf fe2b 7bbb e85f a7bd
00000390: cd98 de39 371e b1be d99b 27be f408 bc3d
000003a0: e461 c13c f457 13be 7c70 fdbd 5ab4 7abe
000003b0: 11e8 06bc e68f 9c3e 79cd c3bd 841f 23bb
000003c0: a7a2 c1be eb53 01be 7d87 c4b9 620a a43e
000003d0: cb3e 583c b32b 453e c5ee 113e 3e39 babe
000003e0: 7a32 623e 7891 f9bd e03e 80bd 5402 e5bd
000003f0: 041a b93d 406a b43a 109d 423d 589d 1dbb

attn.bias f4 [6]
0.17749675 -0.5802018 -0.685247 0.24086522 0.16231234 0.30055493
00000000: b5c1 353e 1b88 14bf 596c 2fbf 5fa5 763e
00000010: 3535 263e 56e2 993e

attn_combine.weight f4 [96, 97]
0.08322756 1.2793206e-05 -0.067077324 3.4642006e-05 -0.46724737 -0.39250574 -0.116891816 -0.36996794
0.63837457 0.00039270826 0.09427054 -0.475201 -9.224169e-05 0.00016795969 -0.22013184 0.29582992
-8.945018e-05 -0.0007299538 -4.0197057e-05 -7.923413e-06 0.0003463729 3.5731697e-05 0.25951663 -0.0007264589
3.9700194e-06 -6.882874e-06 -0.00020322026 -2.3928624e-05 -0.08773322 -0.57661206 0.16542925 0.000119295444
0.06101336 -1.5865962e-05 -0.12630765 -4.0197967e-05 0.00058483833 -0.10398238 0.07932104 0.00011008599
2.2942363e-06 -0.00011003333 -7.548722e-05 -4.577744e-07 0.9284957 -8.645434e-05 0.00011789658 0.06831349
-0.0001264852 7.809493e-06 0.024872014 -4.349575e-06 -4.0298e-05 7.959662e-05 0.000116496965 -1.2066056e-05
-0.08781911 1.4845541e-05 -0.0017788088 0.0047064708 3.1634986e-06 -0.000186477 -0.027939519 -3.686189e-05
-6.506035e-05 4.487472e-05 0.20930703 -0.094008036 0.00024983264 0.00016167214 7.546256e-05 -9.8493065e-06
-3.0372228e-05 -4.4004904e-05 0.00020304335 0.00033615177 0.25378844 -9.813053e-05 -0.051221322 1.8108217e-06
-0.20680748 -0.3618226 0.00031334875 -0.13619855 1.1726682e-05 0.40072277 2.5273283e-05 0.1497284
-0.102981396 3.9472707e-05 4.576873e-05 -6.9023146e-05 0.24975468 9.978058e-06 2.8038174e-05 7.35132e-05
-0.002789085 -0.0031417254 -1.2831787e-05 0.28009957 4.38408e-05 -0.18150792 -0.2792137 -0.36061078
0.29074705 0.18812037 -0.00015190287 -0.094122134 0.6213923 -1.0949218e-05 -0.00012251225 -0.22166352
0.2589288 9.8814955e-05 0.00030913722 1.2672891e-05 0.00010231538 -0.00019261913 -1.4598969e-05 -0.5799378
-0.00034755483 1.1519488e-05 8.810477e-05 0.000100567675 2.5002655e-05 0.11122635 0.08727042 0.044039357
-0.00011538929 0.27563456 -9.0152535e-05 -0.15263285 1.2672153e-05 -0.00029086176 0.56882644 0.0007385874
5.980815e-05 -8.8433e-06 8.9395144e-05 -4.0289715e-06 -2.5224166e-05 0.01319585 -3.1253338e-05 -0.00011172852
0.26825005 8.7907436e-05 3.3467368e-05 -0.19481991 3.50172e-05 0.000111609705 7.563866e-07 -0.000106363594
2.5451429e-05 -0.7936973 5.0927993e-05 0.18951271 0.012100275 4.4995373e-05 0.00013753184 0.10664923
4.809177e-05 -6.3993364e-05 -2.1830685e-05 -0.048797734 -0.007586536 -9.4022944e-05 -0.00012003837 -9.109162e-05
-7.8822646e-05 0.00010281784 -1.2772082e-06 -9.665482e-05 -0.00017589284 0.07475655 0.00010902187 -0.094981186
9.691263e-05 -0.24791528 0.04285567 -9.618674e-05 0.4070815 -1.9291158e-05 -0.3188285 5.1992633e-06
-0.2190437 -0.014852404 4.260494e-05 7.7491284e-05 3.8248e-06 -0.18864566 -1.5101931e-05 4.391942e-05
-9.161194e-05 -0.035607453 0.0037007148 2.7733948e-05 -0.0999925 1.48841955e-05 -0.4048844 -0.12793222
-0.09664459 0.0326581 -0.23595856 -0.00019826132 0.16290663 -0.6289871 3.6521284e-05 -0.00015080067
0.13449852 0.06413982 6.730304e-05 0.0003468308 1.0184719e-05 2.0242685e-05 -0.00020516274 -3.55761e-06
0.19750088 -8.161202e-06 1.2214074e-05 2.5178368e-05 0.000105009 3.7748648e-06 0.54271305 0.58786607
-0.9309257 -0.000104295075 0.037601653 -1.48759755e-05 -0.97821385 1.01850055e-05 -0.0003185329 0.79183906
0.4420042 -1.5545002e-05 4.5834655e-05 8.157279e-05 6.4226174e-06 4.002435e-05 0.10553685 -9.384474e-06
-7.2824216e-05 -0.30011302 6.172621e-05 -1.4318403e-05 0.41202173 -2.350602e-05 7.435573e-05 -3.1470654e-06
-7.6475415e-05 3.442175e-05 -0.13286468 2.4778361e-05 0.021148162 0.00505184 -7.846226e-06 0.00013497406
00000000: 3673 aa3d 67a2 5637 d65f 89bd 924c 1138
00000010: 0c3b efbe 83f6 c8be fa64 efbd 706c bdbe
00000020: 846c 233f 69e4 cd39 ea10 c13d 8c4d f3be
00000030: e171 c1b8 561e 3039 3e6a 61be 0577 973e
00000040: 3397 bbb8 5f5a 3fba 4399 28b8 cdee 04b7
00000050: 6299 b539 9ede 1538 5ddf 843e d56f 3eba
00000060: 3536 8536 70f3 e6b6 8617 55b9 54ba c8b7
00000070: 79ad b3bd d99c 13bf 4966 293e 412e fa38
00000080: 25e9 793d e517 85b7 cb56 01be 3d9a 28b8
00000090: d64f 193a b7f4 d4bd 1273 a23d f7dd e638
000000a0: aef6 1936 b2c1 e6b8 e54e 9eb8 09c4 f5b4
000000b0: e5b1 6d3f d24e b5b8 3f3f f738 f1e7 8b3d
000000c0: 1da1 04b9 8405 0337 65c0 cb3c 91f2 91b6
000000d0: a605 29b8 1ced a638 d54f f438 516f 4ab7
000000e0: 81da b3bd 1d11 7937 eb26 e9ba bd38 9a3b
000000f0: 7e4c 5436 0a89 43b9 6be1 e4bc 279c 1ab8
00000100: 0271 88b8 dd37 3c38 9554 563e 4987 c0bd
00000110: f8fb 8239 8986 2939 a741 9e38 733e 25b7
00000120: ddc7 feb7 e891 38b8 09e8 5439 873d b039
00000130: 8ff0 813e 6dcb cdb8 73cd 51bd 5c0b f335
00000140: 57c5 53be d040 b9be f548 a439 a277 0bbe
00000150: b7bd 4437 892b cd3e f601 d437 6752 193e
00000160: e9e7 d2bd 7f8f 2538 cdf7 3f38 85c0 90b8
00000170: b1bf 7f3e 6f67 2737 8533 eb37 192b 9a38
00000180: 15c9 36bb 68e5 4dbb 1b48 57b7 3669 8f3e
00000190: b3e1 3738 36dd 39be 19f5 8ebe faa1 b8be
000001a0: ccdc 943e a0a2 403e 1e48 1fb9 1bc3 c0bd
000001b0: 9113 1f3f 89b2 37b7 a276 00b9 c3fb 62be
000001c0: 5192 843e e03a cf38 b213 a239 a79d 5437
000001d0: 2792 d638 cef9 49b9 18ee 74b7 ce76 14bf
000001e0: 0538 b6b9 d343 4137 e3c4 b838 dce7 d238
000001f0: cbbc d137 a4ca e33d d5ba b23d 9d62 343d
00000200: 27fd f1b8 f91f 8d3e 4610 bdb8 c94b 1cbe
00000210: 7c9a 5437 ce7e 98b9 9c9e 113f c39d 413a
00000220: 83da 7a38 af5d 14b7 a779 bb38 9a30 87b6
00000230: 7c98 d3b7 6833 583c 0416 03b8 cb4f eab8
00000240: 1258 893e f25a b838 505f 0c38 df7e 47be
00000250: 6fdf 1238 0110 ea38 7e0a 4b35 850f dfb8
00000260: 8780 d537 bf2f 4bbf 849b 5538 9f0f 423e
00000270: 3b40 463c 6ab9 3c38 6c36 1039 e96a da3d
00000280: 25b6 4938 2d34 86b8 0a21 b7b7 22e0 47bd
00000290: 7a98 f8bb 2f2e c5b8 1cbd fbb8 7108 bfb8
000002a0: 964d a5b8 e89f d738 8a6c abb5 29b3 cab8
000002b0: e06f 38b9 f619 993d aca2 e438 7f85 c2bd
000002c0: 923d cb38 81dd 7dbe 6d89 2f3d ddb7 c9b8
000002d0: fd6c d03e 72d3 a1b7 7d3d a3be 5575 ae36
000002e0: fe4c 60be 7f57 73bc b5b2 3238 d182 a238
000002f0: c856 8036 542c 41be 4d5e 7db7 1e36 3838
00000300: c91f c0b8 1fd9 11bd b187 723b 33a6 e837
00000310: dec8 ccbd 22b7 7937 024d cfbe aa00 03be
00000320: 99ed c5bd 80c4 053d 1f9f 71be 5ee4 4fb9
00000330: ffd0 263e 4c05 21bf 6e2e 1938 3f20 1eb9
00000340: fbb9 093e bd5b 833d 0b25 8d38 d8d6 b539
00000350: 09df 2a37 d6ce a937 f420 57b9 46bf 6eb6
00000360: ac3d 4a3e 18ec 08b7 0ceb 4c37 2236 d337
00000370: 4738 dc38 af53 7d36 3eef 0a3f 647e 163f
00000380: 2651 6ebf feb8 dab8 3104 1a3d d493 79b7
00000390: 396c 7abf 44e0 2a37 c300 a7b9 f7b5 4a3f
000003a0: 604e e23e a366 82b7 963e 4038 0f12 ab38
000003b0: dd81 d736 d2df 2738 b423 d83d 0272 1db7
000003c0: 34b9 98b8 6aa8 99be 0273 8138 1339 70b7
000003d0: 83f4 d23e cb2e c5b7 6eef 9b38 2c32 53b6
000003e0: 6d61 a0b8 1360 1038 ae0d 08be 20db cf37
000003f0: e93e ad3c e889 a53b 49a3 03b7 d387 0d39

attn_combine.bias f4 [96]
-1.6221951e-05 -4.5604304e-07 -0.00064389186 1.665e-42 9.731908e-06 4.35916e-06 -1.721311e-05 -1.2539142e-06
2.363e-42 -2.8415758e-07 3.5937237e-06 -4.760542e-05 -1.9694211e-05 1.5038072e-05 -5.966713e-05 0.00012363406
3.1291558e-05 -1.8072105e-05 -3.894784e-06 8.699156e-06 8.612931e-07 -1.443e-42 4.1485437e-05 2.2287309e-06
-1.9591356e-05 5.65e-43 -9.9839035e-06 -6.4258656e-06 -6.2963496e-05 -5.45804e-06 -2.6283178e-05 -2.434307e-05
-1.1505538e-06 -1.12011385e-05 2.396e-42 1.0295226e-05 6.175853e-05 -9.2e-44 -7.196647e-06 1.1320562e-05
1.0554092e-05 -1.6650916e-05 7.2046144e-19 7.739503e-07 -1.788042e-05 2.134e-42 -0.00010596526 -1.7283885e-05
-2.8e-42 3.8355834e-06 7.8302466e-05 -6.1311093e-06 4.2963534e-06 5.8853175e-06 6.70029e-05 6.765366e-07
1.6074587e-09 -6.201984e-05 3.3856046e-05 0.00013022845 1.0623192e-05 -3.632173e-05 -1.248349e-06 -1.2034547e-05
-7.432055e-06 2.648e-42 -3.1044667e-06 1.628e-42 2.729381e-05 1.3873247e-05 7.933897e-05 2.818e-42
-4.063994e-05 -2.3558407e-05 5.7346252e-18 -1.722e-42 -1.4600616e-05 4.6827376e-05 -3.931122e-05 6.8366066e-06
1.6943384e-05 4.4066757e-05 6.356094e-05 1.9272598e-05 -2.5372861e-05 -1.1264907e-05 5.5947157e-06 -2.6773138e-05
5.017909e-06 1.41824485e-05 3.3559067e-05 1.2516346e-05 2.7127371e-05 4.0028666e-05 5.781905e-05 3.5529854e-05
00000000: 6014 88b7 14d6 f4b4 daca 28ba a404 0000
00000010: 3a46 2337 e644 9236 df64 90b7 2a4c a8b5
00000020: 9606 0000 528e 98b4 b42b 7136 eeab 47b8
00000030: ff34 a5b7 074c 7c37 1843 7ab8 c4a3 0139
00000040: 0e3f 0338 8d99 97b7 f1af 82b6 97f2 1137
00000050: 9c33 6735 0604 0080 a600 2e38 4e91 1536
00000060: 1e58 a4b7 9301 0000 8a80 27b7 c49d d7b6
00000070: 450b 84b8 3524 b7b6 b27a dcb7 5834 ccb7
00000080: ba6c 9ab5 86ec 3bb7 ae06 0000 a9b9 2c37
00000090: 5c84 8138 4200 0080 ba7a f1b6 72ed 3d37
000000a0: 7b11 3137 92ad 8bb7 87a4 5421 76c1 4f35
000000b0: e9fd 95b7 f305 0000 aa39 deb8 dcfc 90b7
000000c0: ce07 0080 69b3 8036 5136 a438 d4b9 cdb6
000000d0: 6529 9036 7e7a c536 e883 8c38 3e9b 3535
000000e0: 6ded dc30 a610 82b8 a700 0e38 ef8d 0839
000000f0: 433a 3237 2958 18b8 f28c a7b5 fce7 49b7
00000100: de60 f9b6 6207 0000 5556 50b6 8a04 0000
00000110: 03f5 e437 24c1 6837 c962 a638 db07 0000
00000120: ce74 2ab8 4b9f c5b7 0192 d322 cd04 0080
00000130: 2bf5 74b7 8368 4438 1ae2 24b8 0166 e536
00000140: a421 8e37 52d4 3838 054c 8538 97ab a137
00000150: ced7 d4b7 68fe 3cb7 3eba bb36 e096 e0b7
00000160: 835f a836 27f1 6d37 c6c1 0c38 4cfd 5137
00000170: 968f e337 74e4 2738 bb82 7238 e405 1538

bn.weight f4 [96]
0.7204123 1.0354753 0.58318436 1.865e-42 0.57628924 0.7766261 0.509366 0.94857514
2.671e-42 0.545981 0.8446896 0.5606023 0.6786112 0.61237484 0.77955 0.6457591
0.6228248 0.58366424 0.5525928 0.6911625 0.935499 -2.358e-42 0.9031914 0.68264735
0.8280608 2.364e-42 0.6714872 0.93541926 0.93019414 0.7849138 0.74455255 0.8611956
1.2552608 0.7931316 -9.81e-43 0.8621973 0.66732335 6e-44 0.65383637 0.7631382
0.42794168 0.53548175 -1.2659806e-06 0.86113125 0.67069954 2.085e-42 0.9610726 0.97484034
2.374e-42 0.68646616 0.69183356 0.7394673 0.99611986 0.7687763 0.56471676 0.33167645
-3.6288628e-05 0.86893946 0.821619 0.6085926 0.7038048 0.83465016 0.511353 0.59245235
0.99122435 8.69e-43 1.124354 1.481e-42 1.0974743 0.59939826 1.1318347 1.249e-42
0.80157924 1.0326196 3.2183598e-05 1.925e-42 0.58272135 0.97492045 0.8107196 0.61956495
0.70718014 0.84611094 0.9022227 0.5823693 0.82408845 0.7234794 0.7543396 0.5528129
0.94234556 0.74726015 0.6329568 0.8495741 0.8231094 0.8749578 1.1326274 0.75086445
00000000: f16c 383f 748a 843f 924b 153f 3305 0000
00000010: b187 133f f8d0 463f cf65 023f d2d5 723f
00000020: 7207 0000 69c5 0b3f 943d 583f a283 0f3f
00000030: 77b9 2d3f 99c4 1c3f 9790 473f 7850 253f
00000040: 7271 1f3f 056b 153f b976 0d3f 07f0 303f
00000050: dd7c 6f3f 9306 0080 8d37 673f fac1 2e3f
00000060: cbfb 533f 9706 0000 96e6 2b3f a377 6f3f
00000070: 3421 6e3f 1cf0 483f ff9a 3e3f 5177 5c3f
00000080: 63ac a03f ac0a 4b3f bc02 0080 f6b8 5c3f
00000090: b4d5 2a3f 2b00 0000 d261 273f 065d 433f
000000a0: 2c1b db3e 5515 093f c3ea a9b5 1973 5c3f
000000b0: f7b2 2b3f d005 0000 db08 763f 238f 793f
000000c0: 9e06 0000 3fbc 2f3f 011c 313f bb4d 3d3f
000000d0: b601 7f3f 86ce 443f 4791 103f 7fd1 a93e
000000e0: 9e34 18b8 d172 5e3f 9f55 523f bacc 1b3f
000000f0: 8d2c 343f a2ab 553f 08e8 023f f5aa 173f
00000100: e1c0 7d3f 6c02 0000 d5ea 8f3f 2104 0000
00000110: 0a7a 8c3f 2a72 193f f6df 903f 7b03 0000
00000120: 4c34 4d3f e12c 843f e0fc 0638 5e05 0000
00000130: 3a2d 153f 6394 793f 528b 4f3f cf9b 1e3f
00000140: c209 353f ba9a 583f 11f8 663f 2816 153f
00000150: 76f7 523f f235 393f 661c 413f 2585 0d3f
00000160: 8f3d 713f 714c 3f3f 7509 223f b07d 593f
00000170: 4cb7 523f 3cfd 5f3f eff9 903f a738 403f

bn.bias f4 [96]
0.6112969 -0.720262 0.16348995 -1.1932592e-07 -0.12990502 0.4210783 -0.11219297 0.18412165
-9.1583074e-10 -0.6239891 0.014578363 -0.06885933 -0.6069342 0.105928436 -0.107083924 -0.5522976
-0.63908154 -0.19037677 -0.64126164 0.091632955 -0.23028718 -1.0887711e-05 -0.026976759 -0.3982428
-0.39578477 -3.4447533e-30 -0.038787793 -0.37611294 -0.606537 -0.33006683 0.4163708 -0.6612004
-0.47517982 -0.30785805 -3.8764924e-08 -0.6272983 0.42784545 -8.70928e-19 -0.18367 -0.53660524
0.095544234 0.13125636 -1.7757155e-05 -0.40760252 -0.16819392 -1.2524749e-08 -0.81719637 -0.5298012
-1.7878476e-05 -0.64666307 -0.24994454 0.17752187 -0.20649855 0.23835799 -0.4658905 -0.5199039
-1.636651e-05 -0.98032093 0.26512146 -0.028123083 0.20265856 -0.63271916 -0.16433425 -0.76381075
-0.27920103 -4.165151e-08 -0.4732073 -1.356484e-07 0.2911342 -0.7819688 -0.41910425 -1.3569175e-11
0.061718483 -1.4786022 -1.8054394e-05 -3.964434e-05 -0.28111348 0.14257553 -0.1488063 0.24859348
-0.7728138 0.059062794 0.24246801 0.18035387 -0.4189262 -1.004338 -0.3378048 0.17197485
-0.041625563 -0.4787042 0.014055824 -0.20132868 -0.32317606 0.76199865 -0.3788667 -0.7061138
00000000: f47d 1c3f 1763 38bf e969 273e 0f20 00b4
00000010: d205 05be 9397 d73e 6ec5 e5bd 638a 3c3e
00000020: dcbd 7bb0 c0bd 1fbf 16da 6e3c 1f06 8dbd
00000030: 0a60 1bbf 02f1 d83d d14e dbbd 6063 0dbf
00000040: d99a 23bf 21f2 42be b929 24bf 0faa bb3d
00000050: 67d0 6bbe 5daa 36b7 5dfe dcbc 7be6 cbbe
00000060: 4da4 cabe 5dbc 8b8e f3df 1ebd e091 c0be
00000070: 0246 1bbf 85fe a8be 8e2e d53e 6e44 29bf
00000080: c54a f3be 929f 9dbe 7c7e 26b3 9f96 20bf
00000090: 8f0e db3e bb86 80a1 fd13 3cbe f65e 09bf
000000a0: b2ac c33d 1168 063e 33f5 94b7 47b1 d0be
000000b0: 073b 2cbe 6e2c 57b2 c833 51bf 0da1 07bf
000000c0: bcf9 95b7 b68b 25bf 76f1 7fbe 4bc8 353e
000000d0: 5b74 53be 1e14 743e 3389 eebe 6c18 05bf
000000e0: d04a 89b7 50f6 7abf 00be 873e 6162 e6bc
000000f0: ba85 4f3e e2f9 21bf 3d47 28be 1a89 43bf
00000100: 70f3 8ebe 52e4 32b3 3a48 f2be c0a6 11b4
00000110: 8b0f 953e 1b2f 48bf d594 d6be 22b6 6ead
00000120: 85cc 7c3d d642 bdbf 8473 97b7 c947 26b8
00000130: 1bee 8fbe 52ff 113e ae60 18be 4a8f 7e3e
00000140: 20d7 45bf d4eb 713d 8949 783e afae 383e
00000150: 7f7d d6be 268e 80bf c0f4 acbe 2d1a 303e
00000160: 917f 2abd b818 f5be 664a 663c 1b29 4ebe
00000170: 5577 a5be 5812 433f d1fa c1be e0c3 34bf

bn.running_mean f4 [96]
9.532411 -3.2213914 -12.852126 -7.5445e-41 10.649144 4.630592 -1.267117 7.7041245
-7.1339e-41 0.31901163 4.774737 3.7265012 1.4870194 -10.622092 2.0187407 -6.0628448
-5.4403872 4.8445935 7.3101315 16.96596 -6.219624 2.10513e-40 82.93187 -1.4726439
2.577162 -2.11386e-40 1.7536943 6.5411563 -8.986611 3.8715649 72.32412 2.8757608
26.057594 6.9653783 -3.5231e-41 -2.13663 -4.252675 1.0713e-41 0.8932986 5.0255847
-15.370028 8.860828 -0.009813587 -2.5756273 -2.1598961 -1.6432e-41 30.732052 -22.461897
-7.3941e-41 -7.753744 6.5619636 6.3692946 -4.7844615 1.4206625 3.8416476 -1.0709515
-0.009849576 -9.176156 6.4699173 -16.195673 0.74799484 0.57149184 5.83259 0.40293497
-6.4306445 -9.159e-41 -17.680876 3.0466e-41 6.909645 -4.1410675 9.542403 -1.7907e-41
5.788266 -3.2484624 0.00042183383 1.57233e-40 -3.9518914 8.200864 1.8234823 -0.75801355
-9.468593 -4.3710976 6.402193 3.9756613 -0.54713625 14.884198 5.165238 1.3196933
-45.03821 5.2072606 4.592175 -2.4047983 -1.4559119 17.647608 0.016065601 3.9439049
00000000: c184 1841 472b 4ec0 4fa2 4dc1 4fd2 0080
00000010: e562 2a41 cf2d 9440 e430 a2bf 3088 f640
00000020: ddc6 0080 7e55 a33e a5ca 9840 ff7e 6e40
00000030: a756 be3f 17f4 29c1 0c33 0140 d302 c2c0
00000040: a717 aec0 e906 9b40 99ec e940 49ba 8741
00000050: 2907 c7c0 d34a 0200 1edd a542 987f bcbf
00000060: 39f0 2440 424d 0280 0e79 e03f 2751 d140
00000070: 29c9 0fc1 b8c7 7740 f3a5 9042 770c 3840
00000080: f475 d041 61e4 de40 3662 0080 8cbe 08c0
00000090: ea15 88c0 dd1d 0000 38af 643f 97d1 a040
000000a0: a2eb 75c1 f4c5 0d41 2bc9 20bc 14d7 24c0
000000b0: bd3b 0ac0 ce2d 0080 3edb f541 f7b1 b3c1
000000c0: 1ece 0080 ac1e f8c0 9bfb d140 43d1 cb40
000000d0: 4f1a 99c0 45d8 b53f 8edd 7540 f014 89bf
000000e0: 1e60 21bc 89d1 12c1 9009 cf40 bd90 81c1
000000f0: 977c 3f3f 4a4d 123f 94a4 ba40 7e4d ce3e
00000100: d7c7 cdc0 51ff 0080 6f72 8dc1 ed54 0000
00000110: d01b dd40 a083 84c0 afad 1841 eb31 0080
00000120: 7a39 b940 cfe6 4fc0 9429 dd39 4db6 0100
00000130: caeb 7cc0 bd36 0341 de67 e93f 2d0d 42bf
00000140: 5b7f 17c1 08e0 8bc0 c4de cc40 3c71 7e40
00000150: 1f11 0cbf ad25 6e41 a149 a540 b6eb a83f
00000160: 2127 34c2 e1a1 a640 19f3 9240 37e8 19c0
00000170: 525b babf 4d2e 8d41 029c 833c f068 7c40

bn.running_var f4 [96]
10.505845 1.006553 1.6635543 6e-45 7.999571 13.686457 5.6779227 3.087409
6e-45 0.73541194 5.1364813 2.9663832 1.6457778 1.617096 18.515661 0.7513266
1.7868729 6.9361196 11.642707 38.97112 5.4180055 6e-45 744.3138 2.8871512
1.081363 6e-45 3.4048753 3.747018 19.557833 1.6297098 511.1359 2.7127366
144.33934 1.1241047 6e-45 1.336911 2.8886075 6e-45 2.1394155 2.6067693
28.976114 2.078616 1.8681207e-05 4.3276763 3.7103288 6e-45 173.06485 39.178993
6e-45 15.345039 1.4071304 5.114877 6.1895123 37.670647 2.1670415 1.9683864
6.6196603e-06 11.838994 63.789246 22.21491 23.038876 2.1669729 4.932456 0.23812169
8.829013 6e-45 26.356852 6e-45 9.238153 2.9255228 1.0627153 6e-45
3.1050453 3.9424422 5.4825435e-08 6e-45 0.7541037 4.7296 2.9782653 3.101107
15.476685 6.162933 2.5650718 17.507051 1.6017685 40.3731 1.8821117 1.4267101
235.06587 6.0781336 22.35579 5.5330024 0.717216 67.9095 6.5309935 5.423201
00000000: f117 2841 bbd6 803f 59ef d43f 0400 0000
00000010: 7cfc ff40 bafb 5a41 8bb1 b540 1c98 4540
00000020: 0400 0000 f543 3c3f 0e5e a440 39d9 3d40
00000030: d9a8 d23f 00fd ce3f 1320 9441 f156 403f
00000040: 40b8 e43f b1f4 dd40 8748 3a41 6de2 1b42
00000050: 4d60 ad40 0400 0000 1514 3a44 16c7 3840
00000060: 1a6a 8a3f 0400 0000 7ae9 5940 25cf 6f40
00000070: 7176 9c41 559a d03f 6591 ff43 7a9d 2d40
00000080: df56 1043 aae2 8f3f 0400 0000 e61f ab3f
00000090: f2de 3840 0400 0000 2fec 0840 4fd5 2640
000000a0: 15cf e741 0b08 0540 96b5 9c37 537c 8a40
000000b0: 0776 6d40 0400 0000 9a10 2d43 4ab7 1c42
000000c0: 0400 0000 4885 7541 d91c b43f 13ad a340
000000d0: 7c10 c640 beae 1642 cfb0 0a40 16f4 fb3f
000000e0: 731e de36 856c 3d41 3028 7f42 23b8 b141
000000f0: 9e4f b841 afaf 0a40 aed6 9d40 2cd6 733e
00000100: a343 0d41 0400 0000 d5da d241 0400 0000
00000110: 7acf 1341 c43b 3b40 0e07 883f 0400 0000
00000120: 10b9 4640 f950 7c40 3479 6b33 0400 0000
00000130: f10c 413f e258 9740 e69b 3e40 8978 4640
00000140: 80a0 7741 bf36 c540 232a 2440 710e 8c41
00000150: c006 cd3f 0e7e 2142 09e9 f03f 709e b63f
00000160: dd10 6b43 1280 c240 a8d8 b241 5b0e b140
00000170: 789b 373f aad1 8742 e6fd d040 dd8a ad40

layer_norm.weight f4 [96]
2.8800879 0.8974203 1.9234455 1.4145449 1.4991181 1.0775325 1.1118612 1.6660876
2.0190022 1.626342 1.4057755 1.7090673 1.4383919 1.6550413 1.7167907 2.073838
1.9468526 8.8744346e-05 1.1000345 2.0785635 2.0269644 1.151626 1.5366632 1.5904305
2.744332 0.82890743 1.9676754 2.2715094 1.498809 2.0378108 2.2063222 1.0567318
1.149098 1.5720885 8.8749824e-05 0.8600395 1.6108879 -0.08014369 1.8552883 1.1715783
1.4502366 2.6545806 2.452176 1.6374465 1.4840264 3.0827475 1.2013495 1.2794317
-7.2311645e-06 1.095181 1.3729218 0.99370795 1.9552288 1.9059219 1.1420181 1.7081246
1.6467555 0.8580269 1.293141 4.2526763e-06 2.7709384 1.5662816 1.7151175 0.00033436195
0.000120640376 1.5678127 0.7016404 1.0996456 1.9184138 1.8822669 1.227907 1.8985823
1.1869453 0.959375 0.99893093 1.5319666 1.2747496 1.1497267 1.9150159 1.493957
1.8155731 2.231238 1.7175783 2.7402637 0.47557062 1.5298525 1.4606555 2.324543
1.8331892 1.3448398 2.269893 0.8035253 1.7697178 1.4342986 2.2950878 1.0522271
00000000: 5c53 3840 56bd 653f 7633 f63f cf0f b53f
00000010: 1ae3 bf3f 96ec 893f 7851 8e3f 5c42 d53f
00000020: 5537 0140 fa2b d03f 74f0 b33f b8c2 da3f
00000030: 3a1d b83f 65d8 d33f ccbf db3f c3b9 0440
00000040: 7732 f93f 421c ba38 eecd 8c3f 2f07 0540
00000050: c9b9 0140 7b68 933f 61b1 c43f 3a93 cb3f
00000060: 23a3 2f40 4733 543f cadc fb3f 6960 1140
00000070: f9d8 bf3f 7e6b 0240 6234 0d40 fd42 873f
00000080: a515 933f 323a c93f 331f ba38 8c2b 5c3f
00000090: 9331 ce3f 6022 a4bd 167a ed3f 47f6 953f
000000a0: 5aa1 b93f a6e4 2940 74f0 1c40 d997 d13f
000000b0: 94f4 bd3f bc4b 4540 d2c5 993f 6bc4 a33f
000000c0: 3ba3 f2b6 e42e 8c3f e7bb af3f a563 7e3f
000000d0: f044 fa3f 40f5 f33f a62d 923f d4a3 da3f
000000e0: e2c8 d23f a7a7 5b3f a585 a53f 36b2 8e36
000000f0: 0e57 3140 ea7b c83f f888 db3f 4d4d af39
00000100: 4f00 fd38 16ae c83f b59e 333f 30c1 8c3f
00000110: 958e f53f 1fee f03f 0e2c 9d3f bf04 f33f
00000120: d3ed 973f 9a99 753f f0b9 7f3f 7b17 c43f
00000130: ff2a a33f 3f2a 933f 3e1f f53f fc39 bf3f
00000140: b364 e83f 9acc 0e40 9bd9 db3f 7b60 2f40
00000150: fe7d f33e 35d2 c33f c2f6 ba3f 50c5 1440
00000160: f2a5 ea3f b623 ac3f ed45 1140 d6b3 4d3f
00000170: 1d86 e23f 1997 b73f b8e2 1240 61af 863f

layer_norm.bias f4 [96]
0.33657888 0.22774056 -0.12518348 -0.2674101 0.011388778 -0.18996677 -0.13782707 0.4963407
0.3580592 0.19877262 0.13793556 -0.018517217 0.6266628 -0.028021762 0.07760591 0.2861613
0.37482432 9.522873e-06 2.2732992 -0.11767102 0.036894128 0.39618638 0.17646669 -0.22855425
-0.15342332 0.72295845 0.27405536 0.8218325 0.09101539 0.3920281 0.18572418 -0.17926191
-1.837837 0.47249618 9.523451e-06 -1.9566942 1.3161994 -0.05283196 0.12190114 -0.4559433
0.1672666 0.9430976 0.39551935 0.42938986 0.20677045 0.10393316 0.7277987 0.90970886
1.2474296e-06 -1.7871072 0.013090365 -1.104616 0.4545941 -0.20291218 0.6134032 -0.17620136
0.34040552 0.5865167 -0.008859891 -3.460552e-06 -0.1668319 -0.17679995 0.087310016 -2.3274386e-06
2.5432416e-06 0.09041918 -0.29733157 -1.6441382 0.28501573 0.18823971 1.5127625 0.5010908
-2.7771866 -1.161268 -1.5589719 0.33403844 1.3021765 1.4326544 0.080135226 0.70237106
0.45452538 0.49939418 0.95665514 -0.020898659 -0.6850426 0.35083967 0.045142066 0.17726143
0.27682847 -0.2770766 0.5217521 1.6413823 0.6255593 -0.2254883 0.045758005 -0.9800422
00000000: 1154 ac3e d234 693e 1930 00be fae9 88be
00000010: ff97 3a3c a686 42be 8a22 0dbe 5e20 fe3e
00000020: 8953 b73e 0d8b 4b3e fb3e 0d3e 6bb1 97bc
00000030: f96c 203f e58d e5bc d9ef 9e3d bc83 923e
00000040: f9e8 bf3e 6ec4 1f37 bc7d 1140 81fd f0bd
00000050: 4c1e 173d f1d8 ca3e afb3 343e 200a 6abe
00000060: 011b 1dbe ce13 393f fc50 8c3e 9d63 523f
00000070: 4766 ba3d e8b7 c83e 7b2e 3e3e 6f90 37be
00000080: 3e3e ebbf 05eb f13e e9c6 1f37 f574 fabf
00000090: 3979 a83f 5366 58bd 4ea7 f93d 6671 e9be
000000a0: f047 2b3e d86e 713f 8381 ca3e fdd8 db3e
000000b0: a2bb 533e e9da d43d 0451 3a3f aee2 683f
000000c0: 5b6d a735 eebf e4bf f878 563c 0f64 8dbf
000000d0: 8fc0 e83e 36c8 4fbe fe07 1d3f 216e 34be
000000e0: a249 ae3e f525 163f 1429 11bc d53b 68b6
000000f0: fbd5 2abe 0c0b 35be 98cf b23d 1731 1cb6
00000100: 8fac 2a36 b12d b93d d83b 98be 1f73 d2bf
00000110: 95ed 913e e9c1 403e 34a2 c13f 7d47 003f
00000120: 6dbd 31c0 6ea4 94bf 648c c7bf 1607 ab3e
00000130: b8ad a63f 3861 b73f f01d a43d 97ce 333f
00000140: 8db7 e83e 98b0 ff3e 5ae7 743f aa33 abbc
00000150: f45e 2fbf 42a1 b33e e3e6 383d 0584 353e
00000160: 76bc 8d3e fcdc 8dbe 8c91 053f d118 d23f
00000170: a724 203f 68e6 66be bf6c 3b3d 0ce4 7abf

lstm.weight_ih_l0 f4 [384, 96]
-0.17568675 -0.012557298 0.069752194 -1.2418949e-08 -0.13423495 0.11350119 -0.092499726 -0.01416436
5.32e-43 0.06333021 -0.1295299 0.018598733 -0.050900333 -0.047699623 -0.02992563 0.20701692
-0.026766093 -0.17367058 0.011541148 0.12642522 0.3325939 1.282e-42 -0.07138022 0.069497816
-0.040111862 -3.48e-43 0.13530032 -0.027626561 0.024854396 0.010520856 -0.1398897 -0.021400688
0.030006032 0.032786787 -5.6505595e-10 0.10075718 -0.13834637 -8.11e-43 -0.124726705 -0.08743668
0.20363522 0.020494781 0.00011617722 0.119140536 0.04948564 -5.14e-43 0.09041265 -0.020617666
4.832936e-08 0.2165819 0.055888582 -0.81519943 0.016026663 0.045347054 0.06864315 -0.029899526
7.3867595e-05 0.14426798 -0.0052551795 -0.077391125 0.21222292 0.13853732 0.019599965 0.08891521
-0.05516911 6.85e-43 0.18625137 -5.65e-43 0.14214727 -0.014953993 -0.018652182 8.72e-43
0.013311728 -0.10275646 -6.611435e-05 8e-44 -0.039333187 -0.054619547 0.0675045 0.21975894
-0.07511874 0.053383972 -0.113134176 -0.09527708 -0.090207726 0.009295062 -0.04893679 0.21626812
0.064169094 -0.09950044 -0.00026463016 0.041935094 -0.027809305 -0.14709477 -0.028529398 0.15370825
0.5017279 -0.098561086 -0.14904065 -3.22509e-10 -0.025192246 -0.15347947 0.21936548 0.17367765
-2.16e-43 0.058365002 0.03284251 -0.06813633 -0.022023516 -0.1834674 0.3027505 0.062152352
0.029590096 0.16990475 0.13266458 0.43539867 -0.016198212 -7.12e-43 0.28863132 -0.059650883
0.081999294 6.96e-43 0.46750814 -0.2077371 0.07312322 0.18410897 0.15457742 0.08451311
0.17243846 0.032130927 2.3192973e-10 -0.04015611 0.1803216 1.012e-42 0.07185224 0.01962033
-0.022732142 0.0024279605 7.652349e-06 -0.0060683256 0.07535284 -1.648e-42 0.21948521 -0.007269662
-6.9803305e-27 -0.086660445 0.05142955 0.25399664 0.07003984 0.3008186 -0.02370041 -0.0063767624
-5.0988456e-05 -0.027124027 0.2564632 -0.2951401 -0.17631191 0.070962705 0.1853404 -0.07943809
0.029667137 -8.3e-43 -0.017390333 -1.93e-43 -0.04127432 -0.0053773727 0.0012436699 2.147e-42
0.045052752 0.13186684 1.4612058e-05 5.82e-43 -0.10842215 0.036064558 0.04548459 -0.029271647
-0.06814229 0.15696417 0.4026648 0.57158816 0.1651788 0.06921715 -0.05244944 -0.23506822
-0.04679871 0.09428076 -0.106529295 0.48370382 -0.18754077 0.12086955 0.42634645 0.11245355
-0.06254144 -0.09596311 -0.06849546 9.780076e-10 -0.032670632 -0.0041572507 -0.02622597 0.11580319
1.256e-42 -0.062264446 -0.08364354 0.050474297 0.11067598 0.12056293 0.12264968 0.092662744
0.19616237 0.09352566 -0.08451356 0.13316283 -0.14698641 -5.21e-43 -0.0072788894 0.08324294
0.0032524576 2.005e-42 -0.026323348 -0.09665527 -0.075053595 0.075359434 0.066746265 0.08560033
0.035357136 0.010679782 5.8760684e-11 -0.09417807 -0.015840676 1.193e-42 -0.12226838 0.03666237
-0.031378753 0.23549213 4.9731283e-05 -0.09763934 0.16619775 2.323e-42 0.032431137 0.18704401
4.6570022e-37 0.16030696 -0.043416474 0.18435542 0.10687637 0.056468464 0.076960504 0.038737856
-1.1605001e-05 0.12876308 0.00401072 -0.101157084 -0.19076312 0.19973946 0.0427187 -0.06707717
00000000: 3ae7 33be 20bd 4dbc 3dda 8e3d 1e5b 55b2
00000010: e374 09be 5073 e83d 7f70 bdbd a211 68bc
00000020: 7c01 0000 45b3 813d 7ca3 04be 5f5c 983c
00000030: de7c 50bd ae60 43bd 9826 f5bc 3efc 533e
00000040: 9144 dbbc b3d6 31be 1517 3d3c 9d75 013e
00000050: bf49 aa3e 9303 0000 cb2f 92bd df54 8e3d
00000060: 564c 24bd f800 0080 2b8c 0a3e 1951 e2bc
00000070: 729b cb3c ab5f 2c3c 3f3f 0fbe 7f50 afbc
00000080: 36cf f53c 704b 063d 4752 1bb0 c859 ce3d
00000090: acaa 0dbe 4302 0080 b770 ffbd 0112 b3bd
000000a0: c085 503e ace4 a73c 2ca4 f338 f4ff f33d
000000b0: 74b1 4a3d 6f01 0080 442a b93d 61e6 a8bc
000000c0: b192 4f33 a5c7 5d3e 6deb 643d e9b0 50bf
000000d0: 594a 833c d5bd 393d c894 8c3d daef f4bc
000000e0: 5de9 9a38 fcba 133e a433 acbb 3d7f 9ebd
000000f0: f750 593e badc 0d3e 1b90 a03c 2d19 b63d
00000100: 01f9 61bd e901 0000 aeb8 3e3e 9301 0080
00000110: 0e8f 113e 9801 75bc 76cc 98bc 6e02 0000
00000120: 6f19 5a3c fb71 d2bd dfa6 8ab8 3900 0000
00000130: d61b 21bd bfb8 5fbd cd3f 8a3d 7d08 613e
00000140: dbd7 99bd 27a9 5a3d e4b2 e7bd a120 c3bd
00000150: d4be b8bd 514a 183c f271 48bd 6475 5d3e
00000160: 166b 833d e3c6 cbbd 0fbe 8ab9 22c4 2b3d
00000170: 57d0 e3bc 03a0 16be 7cb6 e9bc b265 1d3e
00000180: 3d71 003f 65da c9bd 1d9e 18be 1b4d b1af
00000190: f85f cebc b929 1dbe 58a1 603e 8ed8 313e
000001a0: 9a00 0080 2410 6f3d de85 063d 0f8b 8bbd
000001b0: a96a b4bc e1de 3bbe 1d02 9b3e 7793 7e3d
000001c0: ee66 f23c 83fb 2d3e 39d9 073e 93ec de3e
000001d0: 1db2 84bc fc01 0080 7cc7 933e 7c54 74bd
000001e0: 3fef a73d f101 0000 3a5d ef3e 09b9 54be
000001f0: a0c1 953d 1087 3c3e 8b49 1e3e 3615 ad3d
00000200: b593 303e b89b 033d 6a02 7f2f bc7a 24bd
00000210: 3aa6 383e d202 0000 4427 933d d0ba a03c
00000220: c238 babc 6b1e 1f3b 9762 0037 ced8 c6bb
00000230: 9752 9a3d 9804 0080 bbc0 603e 5836 eebb
00000240: 7b42 0a94 087b b1bd cba7 523d d90b 823e
00000250: 0c71 8f3d e504 9a3e 5d27 c2bc 29f4 d0bb
00000260: 70dc 55b8 3533 debc 254f 833e 9a1c 97be
00000270: 1c8b 34be e554 913d e0c9 3d3e 70b0 a2bd
00000280: 7f08 f33c 5002 0080 2c76 8ebc 8a00 0080
00000290: 430f 29bd ac34 b0bb a302 a33a fc05 0000
000002a0: 3c89 383d 1a08 073e 5026 7537 9f01 0000
000002b0: 6f0c debd 6eb8 133d 0d4e 3a3d 18cb efbc
000002c0: 2f8e 8bbd 37bb 203e 152a ce3e 9a53 123f
000002d0: a224 293e b9c1 8d3d 39d5 56bd b9b5 70be
000002e0: 01b0 3fbd 4516 c13d 082c dabd 07a8 f73e
000002f0: b00a 40be 748a f73d 154a da3e 0c4e e63d
00000300: ba15 80bd 4f88 c4bd 5947 8cbd 956a 8630
00000310: a4d1 05bd 8c39 88bb d8d7 d6bc 392a ed3d
00000320: 8003 0000 0109 7fbd 4e4d abbd 23be 4e3d
00000330: 17aa e23d b3e9 f63d c12f fb3d f7c5 bd3d
00000340: cade 483e 628a bf3d 7215 adbd d65b 083e
00000350: 9b83 16be 7401 0080 c083 eebb 467b aa3d
00000360: 2f27 553b 9705 0000 10a4 d7bc 33f3 c5bd
00000370: b3b5 99bd 0c56 9a3d 44b2 883d 3a4f af3d
00000380: a5d2 103d 41fa 2e3c 5337 812e 6fe0 c0bd
00000390: 4ec4 81bc 5303 0000 d867 fabd 482b 163d
000003a0: 0287 00bd d924 713e 8f96 5038 22f7 c7bd
000003b0: be2f 2a3e 7a06 0000 83d6 043d 7788 3f3e
000003c0: 3678 1e03 8227 243e 79d5 31bd abc7 3c3e
000003d0: 00e2 da3d 7a4b 673d 789d 9d3d 96ab 1e3d
000003e0: 1ab3 42b7 78da 033e 5c6c 833b 722b cfbd
000003f0: 6857 43be 8088 4c3e cef9 2e3d c15f 89bd

lstm.weight_hh_l0 f4 [384, 96]
0.04481845 0.18389782 0.062056083 -0.033593133 -0.1736593 0.1487198 0.06304373 0.065100156
-0.078897916 -0.03250173 0.009857942 0.06548494 -0.09380994 -0.05977552 -0.06832717 -0.0012937282
-0.1597237 1.6786942e-05 -0.030759994 -0.024549654 0.01783498 -0.105631895 -0.12585786 -0.115512475
0.19684382 0.093395695 0.13746744 0.12812288 0.1419829 0.2859263 0.028598417 0.2470014
0.045453854 -0.02872717 1.6787988e-05 -0.09380404 0.122982845 -0.21870275 0.08295668 0.031483576
0.14946523 -0.4452281 0.18493511 0.061808433 -0.099142805 0.016782071 0.077674784 0.058812197
0.00032110952 -0.0946644 -0.07333899 -0.059096083 0.13045697 0.077410765 0.07216546 -0.24393123
-0.036660284 0.2894809 -0.12966612 0.0006527493 0.011315723 0.33371595 -0.008418686 -0.00011111837
7.3488314e-05 -0.12328147 -0.6945405 -0.12923785 0.10625033 -0.13809098 -0.027831819 -0.109381594
0.14919415 -0.13657877 0.017595623 0.043232743 -0.31544852 -0.04997573 -0.007856472 0.025697673
0.17403653 0.021815695 -0.3288668 0.050183166 -0.25496376 0.048797127 0.13088404 -0.015771272
0.14552075 -0.06300226 0.15015224 0.3832033 -0.03172359 -0.007858287 0.06353632 0.2189914
-0.36024392 -0.12419067 -0.056823745 0.000689679 0.21034063 0.10787041 0.06394619 -0.16168627
0.023282839 0.19732057 -0.09888351 0.08482963 -0.13735363 -0.13528512 -0.013583418 -0.03730486
-0.047195785 -0.00012308137 0.12885159 0.1880342 0.069970086 -0.13718565 -0.054649528 0.15944673
-0.113366574 -0.31456715 0.12777223 0.23045358 -0.12313357 0.020460393 -0.10080734 -0.12401702
0.18947296 0.0710161 -0.00012308196 -0.19039614 0.40856758 -0.25602108 0.07749359 -0.10751559
-0.15078425 0.27300012 -0.33030802 0.17755668 -0.07676987 0.14825867 -0.07502918 -0.1200278
0.00027909828 0.1529315 -0.22551244 0.07603136 -0.04915921 -0.031066166 -0.044135403 0.24599864
0.02343146 -0.42532402 -0.0040704645 -0.00024159753 -0.15117261 0.027544472 -0.011799931 -0.00027688622
0.00017287412 -0.123595096 0.19750145 0.07522473 0.0001624615 0.10782303 -0.017497335 -0.146657
-0.2794032 0.21174657 -0.14878762 -0.03488441 0.43118873 0.24052331 -0.098063454 0.030451551
-0.19177179 0.2197738 -0.10038136 -0.011746105 0.18222496 -0.13824506 0.05486306 -0.05417505
0.005922475 0.087106325 -0.035927016 -0.27558795 0.0751233 -0.02664103 0.106002785 0.03536363
-0.00063152437 0.007754908 -0.11252751 0.005998952 0.15135895 0.13703384 0.36752692 0.003932711
0.090231374 -0.09273847 0.16387838 -0.17574121 0.14360356 -0.06493649 -0.35239053 0.03877489
-0.03516919 -7.9921985e-05 -0.21871758 0.21419163 0.020927988 -0.19636545 -0.059870414 0.07864482
0.32743397 -0.044403486 -0.086790614 -0.19626094 0.056793828 0.15134838 -0.0628589 0.0072679636
-0.06239513 0.0016172965 -7.991917e-05 -0.020848045 0.06866197 -0.13041191 -0.06704652 -0.26082164
0.0397726 0.3171443 0.046408817 0.06481612 0.10360995 0.03318081 0.068286926 -0.19724762
0.00011562342 0.2636585 -0.08164766 -0.028902967 -0.188404 -0.018537313 0.027894927 0.086524606
-0.06905629 -0.2134812 -0.039527856 -1.6067124e-05 0.04643891 0.16802953 0.09403989 -0.000196063
00000000: 8d93 373d b64f 3c3e 852e 7e3d f498 09bd
00000010: bed3 31be 014a 183e 121d 813d 3b53 853d
00000020: 3b95 a1bd 8920 05bd 3583 213c f81c 863d
00000030: 6d1f c0bd 2dd7 74bd 1eef 8bbd 5192 a9ba
00000040: 9c8e 23be afd1 8c37 62fc fbbc 5b1c c9bc
00000050: aa1a 923c 8955 d8bd e2e0 00be ce91 ecbd
00000060: 6d91 493e 3e46 bf3d 44c4 0c3e a532 033e
00000070: f763 113e ef64 923e 3a47 ea3c efed 7c3e
00000080: d22d 3a3d 3e55 ebbc eed3 8c37 551c c0bd
00000090: 6ede fb3d 9df3 5fbe 31e5 a93d ecf4 003d
000000a0: 6a0d 193e f0f4 e3be a15f 3d3e d72a 7d3d
000000b0: 620b cbbd 8e7a 893c f513 9f3d 0fe5 703d
000000c0: 975a a839 69df c1bd c132 96bd bc0e 72bd
000000d0: 8396 053e 8989 9e3d 7ccb 933d 1cc9 79be
000000e0: 1829 16bd d736 943e 32c7 04be 441d 2b3a
000000f0: 9565 393c d1dc aa3e 87ee 09bc 3808 e9b8
00000100: bd1d 9a38 ff7a fcbd 68cd 31bf ed56 04be
00000110: c699 d93d b967 0dbe 8eff e3bc 7503 e0bd
00000120: 5ac6 183e 4edb 0bbe b224 903c d114 313d
00000130: 7882 a1be 5ab3 4cbd 6fb8 00bc ed83 d23c
00000140: a236 323e d4b6 b23c 3b61 a8be dd8c 4d3d
00000150: 9c8a 82be 7fdf 473d 7706 063e c132 81bc
00000160: 6403 153e 5407 81bd 82c1 193e 3933 c43e
00000170: 98f0 01bd 0bc0 00bc 551f 823d 483f 603e
00000180: e471 b8be ae57 febd 04c0 68bd 93cb 343a
00000190: 8963 573e 29eb dc3d 38f6 823d 1691 25be
000001a0: a7bb be3c 670e 4a3e 7083 cabd 28bb ad3d
000001b0: 6ea6 0cbe 2f88 0abe fc8c 5ebc fbcc 18bd
000001c0: 5e50 41bd 670f 01b9 acf1 033e 0a8c 403e
000001d0: 7a4c 8f3d 657a 0cbe 2fd8 5fbd 0146 233e
000001e0: bc2c e8bd f20e a1be b9d6 023e 06fc 6b3e
000001f0: 742d fcbd 8e9c a73c 1474 cebd a3fc fdbd
00000200: 3305 423e e470 913d 900f 01b9 35f7 42be
00000210: c52f d13e 3215 83be f6b4 9e3d 2231 dcbd
00000220: 3067 1abe acc6 8b3e 221e a9be 6bd1 353e
00000230: 8639 9dbd 1fd1 173e e6a8 99bd 23d1 f5bd
00000240: f053 9239 139a 1c3e bcec 66be 54b6 9b3d
00000250: 2b5b 49bd 797e febc 53c7 34bd 11e7 7b3e
00000260: 55f3 bf3c 12c4 d9be 8861 85bb 5855 7db9
00000270: fecc 1abe f2a4 e13c 7f54 41bc 0a2b 91b9
00000280: 8b45 3539 6d1f fdbd d23d 4a3e 6c0f 9a3d
00000290: 6d5a 2a39 52d2 dc3d 9256 8fbc 412d 16be
000002a0: f00d 8fbe 18d4 583e c85b 18be f5e2 0ebd
000002b0: c5c4 dc3e be4b 763e 7ed5 c8bd 8875 f93c
000002c0: d35f 44be 620c 613e be94 cdbd bc72 40bc
000002d0: 2e99 3a3e 1d90 0dbe 17b8 603d a8e6 5dbd
000002e0: 5211 c23b cd64 b23d 3528 13bd dd19 8dbe
000002f0: 3fda 993d 4a3e dabc fd17 d93d 74d9 103d
00000300: e28c 25ba e21c fe3b d374 e6bd db92 c43b
00000310: d7fd 1a3e 9952 0c3e 7d2c bc3e f9dd 803b
00000320: 3acb b83d abed bdbd bccf 273e 81f5 33be
00000330: d00c 133e 6cfd 84bd 886c b4be 6bd2 1e3d
00000340: 920d 10bd ca9b a7b8 80f7 5fbe 0d55 5b3e
00000350: 2c71 ab3c 0614 49be ae3a 75bd 8910 a13d
00000360: 6da5 a73e 6ee0 35bd 47bf b1bd a1f8 48be
00000370: a5a0 683d 12fb 1a3e 2bbc 80bd 1928 ee3b
00000380: 0992 7fbd 77fb d33a 479a a7b8 85c9 aabc
00000390: a69e 8c3d b38a 05be b04f 89bd 6a8a 85be
000003a0: 98e8 223d bd60 a23e 2c17 3e3d 50be 843d
000003b0: 7431 d43d 9ae8 073d 04da 8b3d 48fb 49be
000003c0: da7a f238 3ffe 863e e336 a7bd eac5 ecbc
000003d0: faec 40be 90db 97bc e783 e43c d033 b13d
000003e0: 626d 8dbd d19a 5abe f6e7 21bd e3c7 86b7
000003f0: ba36 3e3d ef0f 2c3e fc97 c03d 4396 4db9

lstm.bias_ih_l0 f4 [384]
-0.35285997 0.25250587 -0.0074555976 -0.08863276 -0.12584087 -0.1043102 0.041001707 0.02971991
-0.09978933 0.042659726 -0.029374974 -0.057717636 0.21526596 0.49815205 -0.16707604 0.35632205
-0.2415792 0.014670037 0.2580642 0.0074725365 -0.19068126 -0.044920426 -0.03706615 0.09483793
-0.07230591 -0.13444036 -0.0134760635 -0.09718875 -0.05676594 -0.3129157 -0.020529034 -0.11961785
-0.037802327 -0.17705554 0.014669963 0.19299468 0.21715459 0.012356559 0.0063111354 0.025733415
-0.013404926 0.054926015 0.098702595 -0.1940749 -0.03855858 -0.39495137 -0.34631664 0.0065032085
-0.018722782 0.25053412 -0.034608416 0.17408255 -0.0425022 -0.20111923 -0.16139543 -0.14979388
0.015471001 -0.13964744 -0.0072783437 -0.028003797 -0.07756231 -0.09314681 -0.071963474 0.045496117
-0.08564905 -0.06608697 -0.163851 -0.014467342 -0.54930586 -0.103785746 0.009384306 -0.06886763
0.56061697 0.116096765 -0.080487825 -0.4227028 0.0857227 -0.16212068 -0.26573402 0.010666216
-0.37642696 0.013540441 0.17588902 -0.27562967 0.08010849 -0.22173001 -0.21068391 0.57347304
0.02074341 0.024052233 0.15953143 -0.03353665 -0.02941087 0.048603978 0.06166095 -0.051652007
-0.03699503 -0.2155451 -0.046032775 -0.087925896 -0.0019220192 0.0019291487 -0.15288603 0.017610338
-0.018481197 -0.06167615 -0.030771617 0.002172364 0.027080653 0.16720235 -0.054312147 0.111304216
-0.013298286 0.0014729089 -0.059895582 -0.0068568024 0.005089506 -0.10654698 -0.042847205 -0.08989239
0.03815966 -0.020191051 0.05416127 0.04859503 -0.08904361 -0.11172756 0.0701226 0.12440715
-0.023925591 -0.04079086 0.0014728141 -0.037293166 0.06903428 -0.027617509 -0.07561177 -0.01764664
-0.039058585 -0.012802417 -0.0203873 0.0035751883 -0.0042355326 -0.056279685 -0.014885232 -0.0016607872
-0.027371453 -0.048136298 -0.054268815 0.047049426 -0.04129284 -0.018392587 -0.03326753 -0.0068545328
-0.013204122 -0.007622419 -0.02052554 -0.031905435 -0.036265645 0.2981509 -0.04090252 0.008071593
0.008458503 0.10066447 -0.028041534 0.009446446 -0.027597377 -0.05930641 -0.06507163 -0.006794442
-0.0060550305 -0.06148569 -0.031930223 -0.0021091274 -0.011784212 -0.009733293 -0.042165443 -0.04389895
-0.037803527 0.07720093 0.1037565 -0.016191225 -0.056070916 -0.0124163 0.2141488 0.18942145
-0.13654959 -0.03711525 0.016095387 0.04595595 0.0022744415 -0.06050278 -0.04704616 0.023381962
0.116398185 0.053246852 -0.073471665 0.027307779 -0.038103327 -0.018224752 -0.6792936 -0.04886406
-0.016780062 0.21997298 0.05794128 0.053503197 -0.089506805 0.61873627 -0.13101842 -0.2802671
-0.11797682 0.01421778 -0.066712715 0.02117291 0.059132025 0.6164535 0.011143225 0.0796857
-0.20436133 -0.06004455 0.0012819251 0.17076838 0.025965188 0.08635296 0.086450726 -0.08678035
0.03424547 -0.22692472 0.014213703 0.25155544 0.25126845 -0.0067138188 -0.08824994 0.07697427
-0.06982133 0.26980975 0.58349115 0.051907666 0.02472932 -0.10679848 0.027429257 -0.13357227
-0.057557408 0.17853057 -0.049326494 0.1396684 -0.08062881 0.036011975 -0.2205971 0.13094342
-0.07191839 0.080751486 0.04345559 -0.0678357 -0.034329414 -0.1354093 0.36063305 0.122408055
00000000: 10aa b4be 7348 813e 164e f4bb 1885 b5bd
00000010: 6edc 00be 96a0 d5bd 68f1 273d 2b77 f33c
00000020: 595e ccbd f7bb 2e3d c9a3 f0bc 5469 6cbd
00000030: ae6e 5c3e c90d ff3e fb15 2bbe d86f b63e
00000040: 8a60 77be 985a 703c fe20 843e 2edc f43b
00000050: f341 43be 7bfe 37bd add2 17bd 633a c23d
00000060: 1f15 94bd bcaa 09be b5ca 5cbc e50a c7bd
00000070: 6783 68bd 7d36 a0be 812c a8bc 34fa f4bd
00000080: 9dd6 1abd 0c4e 35be 495a 703c 66a0 453e
00000090: c65d 5e3e 2a73 4a3c a4cd ce3b e2ce d23c
000000a0: 56a0 5bbc 1afa 603d 9624 ca3d 92bb 46be
000000b0: 9aef 1dbd 1137 cabe 6a50 b1be de18 d53b
000000c0: 8560 99bc 0246 803e 8ec1 0dbd b242 323e
000000d0: c916 2ebd 33f2 4dbe d844 25be 9163 19be
000000e0: 157a 7d3c bdff 0ebe 2c7f eebb 3868 e5bc
000000f0: fdd8 9ebd c1c3 bebd 9661 93bd 235a 3a3d
00000100: c568 afbd 9b58 87bd 8ec8 27be 6e08 6dbc
00000110: 4f9f 0cbf 9f8d d4bd a2c0 193c 790a 8dbd
00000120: 9884 0f3f 24c4 ed3d cdd6 a4bd 806c d8be
00000130: 628f af3d f702 26be 4a0e 88be 5ac1 2e3c
00000140: 09bb c0be bad8 5d3c 401c 343e 551f 8dbe
00000150: ec0f a43d 310d 63be 86bd 57be 21cf 123f
00000160: 15ee a93c 3009 c53c 355c 233e ba5d 09bd
00000170: 11ef f0bc f714 473d 3190 7c3d 0e91 53bd
00000180: 1a88 17bd dbb7 5cbe dd8c 3cbd 7e12 b4bd
00000190: 43ec fbba 7ddb fc3a 288e 1cbe 8e43 903c
000001a0: e165 97bc 21a0 7cbd c214 fcbc 385e 0e3b
000001b0: 3fd8 dd3c 1837 2b3e 6a76 5ebd 77f3 e33d
000001c0: 0ee1 59bc 9f0e c13a 1255 75bd 07af e0bb
000001d0: dfc5 a63b 4e35 dabd 8d80 2fbd 8019 b8bd
000001e0: 4e4d 1c3d b467 a5bc 35d8 5d3d 950b 473d
000001f0: 7f5c b6bd 6bd1 e4bd 709c 8f3d 2dc9 fe3d
00000200: 9aff c3bc 5114 27bd 710b c13a b8c0 18bd
00000210: d861 8d3d 1d3e e2bc 58da 9abd b08f 90bc
00000220: e5fb 1fbd 3bc1 51bc 4403 a7bc b54d 6a3b
00000230: 39ca 8abb 8785 66bd 30e1 73bc c5ae d9ba
00000240: 193a e0bc 912a 45bd fa48 5ebd e6b6 403d
00000250: ae22 29bd 0dac 96bc 8943 08bd fd9b e0bb
00000260: 1a56 58bc 7cc5 f9bb 2d25 a8bc 46af 02bd
00000270: 498b 14bd 3ca7 983e 6789 27bd b73e 043c
00000280: 8895 0a3c 2c29 ce3d 5cb7 e5bc 44c5 1a3c
00000290: e513 e2bc 47eb 72bd 4644 85bd e9a3 debb
000002a0: 4769 c6bb 6bd8 7bbd 44c9 02bd 4939 0abb
000002b0: 9112 41bc 6478 1fbc acb5 2cbd 63cf 33bd
000002c0: dfd7 1abd 851b 9e3d 4a7e d43d 76a3 84bc
000002d0: 9eaa 65bd bd6d 4bbc d349 5b3e b2f7 413e
000002e0: a8d3 0bbe 2906 18bd 79da 833c 4e3c 3c3d
000002f0: cc0e 153b c3d1 77bd 79b3 40bd 878b bf3c
00000300: 2c62 ee3d 5f19 5a3d 5078 96bd 90b4 df3c
00000310: 3c12 1cbd 134c 95bc 2fe6 2dbf ae25 48bd
00000320: 5776 89bc 9940 613e d653 6d3d 2b26 5b3d
00000330: 584f b7bd 8065 1e3f b129 06be 2b7f 8fbe
00000340: d59d f1bd b1f1 683c ada0 88bd d072 ad3c
00000350: 6c34 723d e6cf 1d3f 1392 363c 4232 a33d
00000360: 1944 51be 46f1 75bd 4506 a83a e8dd 2e3e
00000370: f2b4 d43c d2d9 b03d 140d b13d e5b9 b1bd
00000380: fa44 0c3d f45e 68be 97e0 683c e0cb 803e
00000390: 42a6 803e 98ff dbbb 62bc b4bd b0a4 9d3d
000003a0: 7cfe 8ebd 8124 8a3e ad5f 153f 229d 543d
000003b0: 2595 ca3c 29b9 dabd 52b3 e03c 2bc7 08be
000003c0: 51c1 6bbd b8d0 363e 940a 4abd 3c05 0f3e
000003d0: b820 a5bd 4b81 133d 35e4 61be 0816 063e
000003e0: f349 93bd 0961 a53d 7dfe 313d 72ed 8abd
000003f0: 009d 0cbd bca8 0abe e5a4 b83e 13b1 fa3d
