model2/lstm_encoder.pt (torch, 156151 bytes, 6 tensors)

lstm.weight_ih_l0 f4 [384, 1]
000000 30 e6 82 bc f5 e7 28 3f 80 20 82 bc 83 e4 5b 3f
       -0.015978903 0.6597894 -0.015884638 0.85895556
000010 4f ec bb bc 90 17 17 3f e9 7e c1 3f a2 d5 54 be
       -0.02293983 0.5902033 1.5116855 -0.2078462
000020 be c5 82 bc 2c 40 4f c0 34 fb 74 bf 3b 26 83 bc
       -0.015963431 -3.2382917 -0.95695806 -0.01600944
000030 a4 01 7d bc 95 de 02 bf 0d 4c 40 c0 0d 36 84 bc
       -0.015442286 -0.51120883 -3.0046418 -0.016139055
000040 94 68 86 bc 10 b5 84 bc 25 0f 84 bc 80 e3 80 bc
       -0.016407289 -0.016199619 -0.016120503 -0.01573348
000050 cb 8f 85 bc dc eb c5 be 81 ab 9b be 25 ee 80 bc
       -0.016303917 -0.3865651 -0.30404285 -0.015738556
000060 bb ca 83 bc a5 3d 82 bc e4 3a 81 bc 4f bb e8 be
       -0.01608788 -0.015898535 -0.015775152 -0.45455405
000070 ca d5 29 3f 2a 81 df 3e ed b3 83 bc 07 8b 43 bf
       0.6634184 0.43653232 -0.016077006 -0.76384014
000080 0d f1 82 bc ce 33 5a 3f f6 b4 84 bc 09 95 86 bc
       -0.015984083 0.852353 -0.01619957 -0.016428487
000090 6b 58 5f be 2f 1a ec 3e a8 97 81 bc a3 37 80 bc
       -0.21811073 0.46113726 -0.015819386 -0.01565153
0000a0 8e bf 84 bc 15 50 82 bc a8 63 84 bc 91 a7 5d c0
       -0.016204622 -0.015907327 -0.016160801 -3.4633524
0000b0 5f 6e 82 bc 3a 35 7f bc 02 47 67 3e ac 79 82 bc
       -0.01592177 -0.015576655 0.22585681 -0.015927158
0000c0 7d b5 84 bc a9 ec 5d be b9 6c 83 bc fa b1 7c bc
       -0.016199822 -0.2167231 -0.016043054 -0.015423292
0000d0 56 f8 7f bc 04 b0 7d bc 14 a3 82 bc 03 6d cc 3e
       -0.015623173 -0.01548386 -0.015946902 0.3992692
0000e0 fa 8f 83 bc 65 4a b5 3e 4a b9 9c bf 69 79 84 bc
       -0.016059864 0.3540832 -1.2244046 -0.016171174
0000f0 17 3c 83 bc 88 0e d3 3d 3b 4a 82 bc 80 c5 83 bc
       -0.016019864 0.10305506 -0.015904536 -0.016085386
000100 18 ec 84 bc 21 5e 14 3f 54 db b7 3e 42 41 79 bc
       -0.01622586 0.5795613 0.35909522 -0.015213313
000110 12 2b 7f bc 66 b3 7f bc 9d d6 83 bc ca a6 82 bc
       -0.015574234 -0.015606737 -0.016093547 -0.015948672
000120 3a 0c 73 bc 33 29 82 bc 3b 9c 7e bc 47 0e 05 3e
       -0.014834458 -0.015888786 -0.015540178 0.12993728
000130 de 00 7e bc fb f5 79 be d2 7a 79 bc 70 b9 38 be
       -0.015503136 -0.2441024 -0.015227037 -0.18039489
000140 59 20 18 3f ea b4 84 bc c5 e5 92 be d6 12 84 bc
       0.5942436 -0.016199548 -0.28690925 -0.016122263
000150 14 93 a6 bf 8c b9 80 bc 2d 0f f7 3d 66 e2 32 be
       -1.3013635 -0.015713476 0.120634414 -0.17469177
000160 eb f6 83 bc 49 dd 83 bc e5 44 84 bc 10 87 8e bf
       -0.01610895 -0.016096728 -0.016146133 -1.1134968
000170 b9 3c 84 bc f7 90 81 bc 98 86 83 bc 9f 94 94 be
       -0.016142236 -0.015816195 -0.01605539 -0.2901964
000180 85 8f 31 bb 7d 1e e6 bc f2 9f 30 bb 0f 4a ce be
       -0.00270936 -0.02809071 -0.0026950804 -0.40290877
000190 6e a1 14 be d0 4d 91 be 03 b3 60 bf 8a 8a ea 3e
       -0.14514706 -0.2837968 -0.8777315 0.45808822
0001a0 43 79 35 bb 26 69 e8 3e 04 21 a3 3e ba e7 31 bb
       -0.0027690686 0.45392722 0.31861126 -0.0027146176
0001b0 20 c9 2a bb 51 e2 f5 bd a7 5e 9c 3e 99 98 33 bb
       -0.0026059821 -0.12006057 0.30540964 -0.0027404188
0001c0 04 69 2e bb cc 7f 2e bb 40 4e 3d bb b3 19 2e bb
       -0.0026612887 -0.0026626466 -0.0028885752 -0.002656561
0001d0 2d aa 38 bb a7 11 d0 3f 0c bf 94 3e 22 41 31 bb
       -0.0028177605 1.6255387 0.29052007 -0.0027046879
0001e0 ed d1 30 bb 00 32 32 bb 17 d0 35 bb cd 64 9a 3e
       -0.0026980594 -0.0027190447 -0.002774244 0.3015503
0001f0 62 73 a8 be be 53 96 bf a0 6b 30 bb 3b a9 77 3f
       -0.3290053 -1.1744306 -0.0026919618 0.967426
000200 71 a2 31 bb d6 c5 ed be d2 7f 2e bb 7e 86 29 bb
       -0.002710488 -0.4644 -0.002662648 -0.0025867517
000210 1a 61 14 3f a9 f8 da bf 1c 35 2d bb 95 7f 3a bb
       0.57960665 -1.7107135 -0.002642936 -0.0028457392
000220 30 9a 32 bb a8 13 35 bb 7c a2 32 bb 5d 0d 63 3f
       -0.0027252547 -0.0027630124 -0.0027257493 0.88692266
000230 56 ff 31 bb 6d 07 34 bb 05 40 21 bf ea 7e 2d bb
       -0.0027160249 -0.0027470246 -0.6298831 -0.0026473352
000240 e5 98 2e bb 84 b9 8b 3e 73 9c 37 bb 70 a5 30 bb
       -0.0026641425 0.27289975 -0.0028016835 -0.0026954077
000250 51 21 32 bb 13 fb 32 bb e8 0d 35 bb c3 92 92 be
       -0.0027180503 -0.0027310296 -0.0027626697 -0.28627595
000260 95 17 31 bb 45 20 42 bd 37 75 82 be a1 af 2e bb
       -0.0027022113 -0.047394056 -0.25480053 -0.0026654976
000270 25 80 30 bb e5 6c 50 3e cc 56 2f bb 55 4e 2f bb
       -0.002693185 0.2035404 -0.0026754616 -0.002674957
000280 d5 4e 30 bb df e7 da 3f 06 4f 98 3f 93 cd 32 bb
       -0.0026902456 1.7102011 1.1899116 -0.0027283176
000290 69 f4 36 bb 2c cb 35 bb 88 d0 30 bb 17 82 34 bb
       -0.0027916676 -0.0027739508 -0.0026979763 -0.002754336
0002a0 28 99 3b bb 16 09 30 bb 9d bc 30 bb ef 28 8b be
       -0.0028625224 -0.0026860884 -0.002696789 -0.27179667
0002b0 ed bd 40 bb 79 3c 85 3f 09 3b 39 bb 56 e8 ad bd
       -0.002941008 1.040908 -0.0028263947 -0.0849158
0002c0 27 35 05 3f 94 fc 30 bb f0 44 0e be 29 36 32 bb
       0.5203423 -0.0027006017 -0.13893485 -0.0027192926
0002d0 34 7a 09 3f ef 2c 39 bb 85 55 89 bf e9 e8 60 3c
       0.5370209 -0.0028255542 -1.0729223 0.013727405
0002e0 da 45 34 bb 6c 9e 2b bb 03 ff 32 bb e2 cd 81 3f
       -0.0027507455 -0.0026186956 -0.0027312643 1.0140955
0002f0 0b bf 30 bb 24 59 34 bb 78 53 31 bb b6 fb 9e bd
       -0.002696934 -0.0027518952 -0.0027057808 -0.07762854
000300 6b 88 c7 b9 c8 ef e4 be e0 c3 c4 b9 f3 bd f2 3d
       -0.00038057877 -0.4471419 -0.0003752997 0.11852636
000310 88 43 54 3d 66 ab e4 3e fc ba 2d 3d 19 2c 20 40
       0.051822215 0.44662017 0.04241465 2.5026915
000320 6a 2c c9 b9 46 94 55 c0 a1 f5 b8 bf 74 7d c7 b9
       -0.000383708 -3.337175 -1.444996 -0.00038049708
000330 7e 55 c4 b9 7a a4 90 3e 7f c7 59 40 c6 c9 c6 b9
       -0.0003744773 0.28250486 3.4028013 -0.00037915836
000340 f6 4e da b9 6b f3 cb b9 6b cd cc b9 93 4a da b9
       -0.0004163903 -0.00038900538 -0.0003906296 -0.00041635762
000350 46 d0 cc b9 4c 20 8c 3f cd 93 77 bf f5 da c5 b9
       -0.00039065088 1.0947356 -0.967099 -0.00037737904
000360 2e 2f c7 b9 c5 a0 cc b9 aa 9e c4 b9 84 75 3f be
       -0.0003799139 -0.00039029695 -0.00037502247 -0.18697172
000370 96 83 e3 be 46 f0 7b bd 0c d7 c1 b9 d6 63 2d bf
       -0.4443633 -0.06150844 -0.0003697205 -0.6773046
000380 d7 81 c6 b9 c9 87 95 bd 70 f3 cb b9 e9 93 d3 b9
       -0.0003786224 -0.073012896 -0.00038900552 -0.00040355258
000390 80 73 e7 3e 20 8e cd 3c 85 98 c1 b9 73 d7 c2 b9
       0.45205307 0.025092185 -0.00036925465 -0.00037163086
0003a0 95 d0 cd b9 02 d7 c0 b9 17 2f ca b9 b1 c6 51 40
       -0.00039256053 -0.00036781287 -0.00038563527 3.2777522
0003b0 ef 63 c2 b9 1c fe c2 b9 50 68 9b be 40 a1 c4 b9
       -0.0003707702 -0.0003719189 -0.30353022 -0.00037504174
0003c0 a1 cf cb b9 5d 66 11 be c8 59 c3 b9 21 58 ba b9
       -0.00038873873 -0.14199205 -0.0003726019 -0.00035542346
0003d0 cf 7e c6 b9 7e f4 c7 b9 f1 a2 c6 b9 c9 cf 92 3e
       -0.00037859983 -0.000381384 -0.00037886904 0.28674152
0003e0 23 06 ca b9 ac af be bc b3 48 f6 be 9a c1 cb b9
       -0.00038533015 -0.023277126 -0.4810234 -0.00038863422
0003f0 45 07 c9 b9 76 ff 98 3c f3 9c c4 b9 5a dc c7 b9
       -0.00038343124 0.0186765 -0.0003750097 -0.00038120413

lstm.weight_hh_l0 f4 [384, 96]
000000 a2 5c aa 37 55 8e 97 3a e9 33 ac 37 4b 4b b3 b9
       2.0308715e-05 0.0011562804 2.052817e-05 -0.00034197638
000010 46 b0 b4 b9 61 1a 00 ba c2 f5 e0 b7 bc f2 f0 b9
       -0.0003446361 -0.0004886743 -2.681732e-05 -0.00045957218
000020 e6 a4 af 37 87 e3 63 b9 64 18 a9 b8 e9 71 ae 37
       2.0938412e-05 -0.00021733168 -8.063091e-05 2.079546e-05
000030 4f 07 bd 37 e4 f3 51 b9 96 79 11 38 c9 a9 ab 37
       2.2533959e-05 -0.0002002265 3.468393e-05 2.046385e-05
000040 8a 97 a6 37 f5 40 a7 37 22 17 a7 37 51 f7 a7 37
       1.9859308e-05 1.99382e-05 1.9918723e-05 2.0023117e-05
000050 e0 20 b3 37 43 56 28 39 34 90 57 3a 17 e9 ab 37
       2.1353771e-05 0.00016053864 0.0008223087 2.049333e-05
000060 fd 71 ad 37 da 3d 97 37 52 67 b7 37 c3 b7 d4 38
       2.0676287e-05 1.8029405e-05 2.1863412e-05 0.00010143176
000070 56 fb cf 39 e5 8a ff b8 83 3c b1 37 19 aa 21 39
       0.00039669377 -0.00012185219 2.1128222e-05 0.00015417523
000080 f2 6f b6 37 57 1b ed b9 83 40 a7 37 07 16 40 37
       2.174822e-05 -0.00045224532 1.9937992e-05 1.144922e-05
000090 90 d7 a2 38 e7 df a7 38 55 f3 a8 37 d8 7b c2 37
       7.7649136e-05 8.0048856e-05 2.0140471e-05 2.3184271e-05
0000a0 7f eb a2 37 47 59 b0 37 ba f3 ad 37 ab 37 f0 39
       1.9421566e-05 2.1022408e-05 2.0736701e-05 0.00045817843
0000b0 07 19 a8 37 84 9d b9 37 62 53 58 3a c1 5c 9d 37
       2.0038815e-05 2.2127067e-05 0.0008252171 1.875905e-05
0000c0 2c 2f a8 37 25 a8 81 b9 d8 7e b7 37 d1 a2 c0 37
       2.0049127e-05 -0.00024730075 2.1874366e-05 2.2964e-05
0000d0 a2 ad af 37 d2 9c a8 37 57 72 a7 37 32 07 01 b9
       2.094248e-05 2.0100186e-05 1.9961195e-05 -0.00012305079
0000e0 47 41 ad 37 7a 46 e3 39 95 c1 89 39 ec fc a7 37
       2.0653604e-05 0.00043349323 0.00026274906 2.0025727e-05
0000f0 cc 94 af 37 1d 72 e9 b8 b9 be ae 37 5c c2 a9 37
       2.0930915e-05 -0.00011131561 2.0831229e-05 2.0236876e-05
000100 cb bd ab 37 51 b8 f0 39 ba ea 8d b9 50 e2 81 37
       2.0473168e-05 0.00045913694 -0.000270685 1.5483383e-05
000110 08 a9 aa 37 5a c4 b2 37 80 d5 ab 37 10 28 b0 37
       2.034429e-05 2.1310687e-05 2.0484207e-05 2.099949e-05
000120 93 f7 c5 37 cf a2 aa 37 a6 b4 84 37 4a f0 b3 39
       2.3599516e-05 2.0341393e-05 1.5819747e-05 0.0003432057
000130 94 d1 d2 37 34 54 f4 38 1e ff c2 37 4a 4b 22 3a
       2.5131543e-05 0.00011650511 2.32454e-05 0.00061910285
000140 0c aa 2c 39 5b 32 aa 37 59 0e bc b9 1d ab ac 37
       0.00016466546 2.0289028e-05 -0.00035868844 2.0583679e-05
000150 5d 04 42 39 69 07 b9 37 1d ff 99 39 65 88 0b b9
       0.00018502907 2.205717e-05 0.00029372508 -0.00013306884
000160 f7 e3 ad 37 1b 14 a7 37 ec f3 a9 37 ce 72 9f b9
       2.0729361e-05 1.9917314e-05 2.0259955e-05 -0.0003041238
000170 99 10 aa 37 27 7e b9 37 93 81 a5 37 76 c1 a6 38
       2.0273308e-05 2.2112463e-05 1.972987e-05 7.951532e-05
000180 29 f9 d9 38 ee 8d c9 be 66 91 c6 38 ae 1d 0b bd
       0.00010393776 -0.39366096 9.468458e-05 -0.03396385
000190 83 06 32 3d 85 de 44 be e7 15 80 bd 77 96 1d 3d
       0.04346324 -0.1922551 -0.062541775 0.038473573
0001a0 90 4e a6 38 e7 42 6e bd d1 10 ca bd 11 17 d2 38
       7.93013e-05 -0.05816927 -0.09866489 0.00010017877
0001b0 c6 85 2d 38 59 af df ba 8c 7f 15 3d 3c 4c e2 38
       4.1371e-05 -0.0017065807 0.03649859 0.000107907195
0001c0 c0 61 8c 38 e5 9a c7 38 15 bf 25 39 7e 05 9a b7
       6.6939276e-05 9.517911e-05 0.0001580681 -1.8360788e-05
0001d0 90 43 e4 38 1a 92 72 3d 5f 85 a2 bd 32 3e d2 38
       0.00010884472 0.059221365 -0.07935595 0.00010025165
0001e0 ee 8a e5 38 b3 74 96 38 af 24 e8 38 da 1a 38 3d
       0.000109454486 7.174294e-05 0.00011069455 0.044947483
0001f0 dd bf f9 bd f4 22 89 3d 11 cc 8e 38 e9 50 82 3d
       -0.12194798 0.0669612 6.809098e-05 0.06363089
000200 39 c8 07 39 c7 6d 0a 3e 90 9a c7 38 21 c9 62 b8
       0.00012949192 0.13518439 9.517849e-05 -5.4069915e-05
000210 90 c4 5a bd 2a de 0b 3e f0 05 c0 38 b9 11 e6 38
       -0.053410113 0.13658968 9.1563794e-05 0.00010970556
000220 22 f9 b6 38 56 c0 f2 38 77 4b d0 38 98 04 92 3b
       8.724841e-05 0.000115752846 9.932269e-05 0.004456114
000230 e9 e1 ca 38 37 98 ed 38 e4 93 28 3d 9e fc 0a 39
       9.67419e-05 0.00011329393 0.041156664 0.00013254813
000240 a2 26 c8 38 46 61 75 bc 9d eb e2 38 ac bc 18 38
       9.543939e-05 -0.014976805 0.00010820406 3.641534e-05
000250 ab fa f9 38 05 9c f5 38 90 da e5 38 e3 87 c9 bc
       0.00011919936 0.00011711571 0.00010960281 -0.024600929
000260 a7 26 c8 38 56 cb 50 be 21 92 b5 3d 0f 42 ca 38
       9.543943e-05 -0.20390067 0.088657625 9.644415e-05
000270 94 01 18 38 65 fb 3e bc 42 7c f5 38 be 7b c2 38
       3.6241094e-05 -0.011656617 0.00011705655 9.27369e-05
000280 24 97 c6 38 fb d5 66 be be bf 69 bd bc 83 0e 39
       9.469528e-05 -0.22542565 -0.057067625 0.0001359125
000290 11 6d 5a 39 dc 64 09 39 de ec 97 38 69 07 b6 38
       0.0002083073 0.00013102911 7.244361e-05 8.6798165e-05
0002a0 e6 53 fd 38 80 21 e8 38 1c 79 49 39 9c dc 78 3d
       0.000120796074 0.00011068862 0.0001921397 0.060757264
0002b0 47 e6 35 39 6f 88 24 3e d9 ab ff 38 b5 06 c7 bd
       0.0001734729 0.1606767 0.00012191357 -0.09718076
0002c0 9a f4 94 bd bf ef 98 38 cb b2 ee bc 4c 04 c8 38
       -0.072732165 7.292581e-05 -0.02913799 9.5375435e-05
0002d0 2b 69 0a 3d 45 32 ef 38 8f fd 8a 3b 0e 3e 87 3b
       0.033791702 0.000114057715 0.0042416523 0.0041272705
0002e0 86 96 f3 38 2e ca bf 38 ec e3 db 38 25 60 45 bd
       0.0001161518 9.1452486e-05 0.000104851875 -0.048187394
0002f0 6a 07 df 38 60 c2 cc 38 9b b9 fc 38 e1 b4 2a ba
       0.000106348496 9.763683e-05 0.00012050868 -0.00065119384
000300 eb 32 bc 37 5f 3e 9b 3a b2 cf bd 37 53 d7 b3 b9
       2.2435057e-05 0.001184415 2.2627271e-05 -0.0003430197
000310 80 33 bd b9 5b 3a ff b9 2f db 19 b8 b0 9c e0 b9
       -0.0003608726 -0.00048680868 -3.6682173e-05 -0.0004284135
000320 07 cd c0 37 8d 39 5f b9 dd d2 53 b8 3f 5f c0 37
       2.2983657e-05 -0.00021288377 -5.0502702e-05 2.2932536e-05
000330 e0 e9 cc 37 ea 13 51 b9 8b 1b b9 37 b6 dc bd 37
       2.4427602e-05 -0.00019939212 2.2066544e-05 2.2633332e-05
000340 85 3e ba 37 6b b4 b9 37 9f a6 b8 37 2c 5e b9 37
       2.220204e-05 2.2137732e-05 2.2012098e-05 2.209757e-05
000350 3f 6a c5 37 50 e1 f3 38 56 8b 5b 3a a8 66 bd 37
       2.3533705e-05 0.00011629111 0.00083749497 2.2578359e-05
000360 4e db be 37 5e 3a a9 37 9a 27 c8 37 bd e5 da 38
       2.2751887e-05 2.017355e-05 2.3860299e-05 0.00010437842
000370 ae df cf 39 ae 5a fa b8 fc 9c c2 37 f0 7b 12 39
       0.0003964877 -0.00011937819 2.3199704e-05 0.00013969815
000380 3f 15 c8 37 e6 10 e8 b9 05 b4 b9 37 85 9f 63 37
       2.3851751e-05 -0.0004426308 2.2137547e-05 1.3567395e-05
000390 7c 2f e7 38 db a1 b1 38 74 df ba 37 7b 6f d2 37
       0.00011023783 8.4701656e-05 2.2276981e-05 2.5085863e-05
0003a0 10 2b b4 37 63 ad c1 37 b1 ff bf 37 62 35 eb 39
       2.1477725e-05 2.3088132e-05 2.288804e-05 0.00044862466
0003b0 64 2c ba 37 66 97 ca 37 27 5f 53 3a 6a c2 af 37
       2.2193599e-05 2.4150777e-05 0.000806319 2.0952157e-05
0003c0 bf a0 ba 37 69 7a 77 b9 bc f2 c8 37 81 bc d0 37
       2.2247781e-05 -0.00023601357 2.395489e-05 2.4883311e-05
0003d0 20 e7 c0 37 7b 9f b9 37 c7 08 b9 37 b0 79 01 b9
       2.299581e-05 2.2127982e-05 2.2057806e-05 -0.00012347731
0003e0 51 d2 be 37 95 ae de 39 b5 02 81 39 32 60 ba 37
       2.2747701e-05 0.00042473213 0.00024606814 2.2217722e-05
0003f0 90 45 c0 37 6a 7a ea b8 95 21 c1 37 f3 02 bc 37
       2.2920576e-05 -0.00011180791 2.302303e-05 2.241272e-05

lstm.bias_ih_l0 f4 [384]
000000 91 94 db bb ca 72 cd 3e f8 f5 da bb 16 f4 fb 3e
       -0.00670106 0.4012664 -0.006682154 0.4920966
000010 25 8a 01 bf e8 fb 83 be 58 4e ed 3c 1b bf 07 bf
       -0.50601417 -0.25778127 0.028968021 -0.5302598
000020 33 41 d5 bb ee 4b 38 bf b7 78 5d bf 1e 42 d9 bb
       -0.0065080165 -0.7199086 -0.8651232 -0.0066301962
000030 40 c7 c9 bb cd d0 70 be e2 01 1f bf 9e dc de bb
       -0.0061577857 -0.23517151 -0.6211225 -0.006801202
000040 f2 86 d5 bb f7 bb de bb eb ff de bb 25 6a c7 bb
       -0.006516331 -0.0067973095 -0.00680541 -0.0060856515
000050 9a a5 db bb 43 17 0a be c2 1e 8c be 6a d8 d5 bb
       -0.006703091 -0.13485436 -0.27367216 -0.0065260427
000060 af cf dc bb 10 ad db bb 78 eb d7 bb 28 83 02 bf
       -0.006738625 -0.0067039803 -0.0065893494 -0.5098138
000070 e7 f9 8a be 1d a0 00 be 69 d2 d3 bb 65 5e d8 be
       -0.27143785 -0.12561078 -0.006464292 -0.42259517
000080 92 86 d9 bb b0 8b 0b be 0a bc de bb e9 7e cd bb
       -0.0066383565 -0.13627505 -0.0067973183 -0.0062712324
000090 ba 78 14 bf 2f 46 eb be 3a bb d6 bb d4 cd d2 bb
       -0.57996714 -0.45951983 -0.006553081 -0.006433228
0000a0 6f 54 e1 bb 49 d1 da bb e6 63 dd bb a6 86 59 bf
       -0.0068765203 -0.0066777808 -0.0067562936 -0.8497108
0000b0 10 be da bb 79 e5 c9 bb f8 03 09 bf df ce da bb
       -0.0066754892 -0.0061613885 -0.5352168 -0.006677493
0000c0 d0 a5 de bb 7c 39 66 3e 30 f3 dc bb c3 db ca bb
       -0.0067946687 0.22482866 -0.0067428574 -0.0061907484
0000d0 88 3e d2 bb 69 e7 ca bb 2f ae da bb 7a 89 8e bf
       -0.0064161457 -0.006192137 -0.0066735963 -1.1135705
0000e0 17 1d de bb 9e c0 4f be a7 2c ba 3e aa e3 dd bb
       -0.00677837 -0.20288321 0.36362192 -0.0067715244
0000f0 0c 53 cc bb 32 59 f2 3e 7e fe d5 bb c7 b2 dd bb
       -0.006235486 0.47333676 -0.006530582 -0.0067656967
000100 5d 58 de bb 29 35 f8 be 69 f5 a3 bf 03 e5 d4 bb
       -0.006785436 -0.48478058 -1.2809268 -0.006497027
000110 22 25 cb bb 37 f0 cd bb 92 4b dc bb 63 09 da bb
       -0.006199495 -0.0062847394 -0.006722876 -0.006653951
000120 bc d5 c7 bb 9e e2 d7 bb 6a 31 d0 bb cd 47 a2 be
       -0.006098477 -0.006588294 -0.006353547 -0.31695405
000130 ff b3 bb bb 5f 16 0f 3e 23 da c6 bb 12 2b 6f be
       -0.0057282443 0.13973378 -0.0060684844 -0.23356274
000140 87 cc 50 bf 91 4e dc bb 61 d4 a9 be 3a 00 dc bb
       -0.81562084 -0.006723233 -0.33169845 -0.006713894
000150 fb b6 2f bf 7d 74 d4 bb 70 48 11 3e 5d 4a f1 bd
       -0.6863858 -0.006483613 0.14187789 -0.11781762
000160 6a d5 db bb e0 94 d9 bb 87 6c db bb c2 52 3f be
       -0.0067087905 -0.0066400617 -0.006696287 -0.18683913
000170 ee 33 dd bb 5c 47 d5 bb 8b 15 de bb 12 08 0c be
       -0.0067505753 -0.006508751 -0.0067774705 -0.13674954
000180 d4 e6 6d bb 4e cd 69 3f 9e b2 6b bb b9 a7 44 bf
       -0.0036300914 0.91328895 -0.0035964618 -0.76818424
000190 5e a4 eb be 55 eb 70 be ef 29 53 bd ae 75 68 bf
       -0.4602384 -0.23527272 -0.051553663 -0.90804565
0001a0 99 03 6a bb ec a3 3b bf ca 1d c0 be f7 b8 6e bb
       -0.003570771 -0.73297 -0.37522727 -0.0036426166
0001b0 9a 12 5c bb 35 dc 35 bf 2f d1 ae bf 5b 8a 70 bb
       -0.0033580423 -0.71039134 -1.3657588 -0.003670356
0001c0 6e 76 65 bb 10 28 72 bb 72 8a 6b bb 20 b1 5b bb
       -0.0035013217 -0.0036950149 -0.0035940674 -0.0033522323
0001d0 64 0e 70 bb 15 e8 29 3e 08 88 1e bf 3e 47 6b bb
       -0.0036629671 0.16592439 -0.6192632 -0.0035900618
0001e0 72 11 6f bb 4d fd 6b bb 52 13 69 bb 3b 31 7c 3f
       -0.0036478904 -0.0036009133 -0.0035564494 0.9851262
0001f0 46 23 2f bf 0e e5 49 bf b8 17 69 bb 26 90 3b bf
       -0.684132 -0.78865135 -0.0035567116 -0.7326683
000200 fc 3c 6d bb b2 04 e0 bd 21 28 72 bb 04 08 5b bb
       -0.003619968 -0.109383956 -0.0036950188 -0.0033421526
000210 94 0e 11 bf 30 b5 02 bf 61 73 6c bb 47 46 66 bb
       -0.5666287 -0.5105772 -0.0036079513 -0.0035137103
000220 53 71 6e bb bc 88 67 bb 9d 7f 6f bb 63 0a a6 bf
       -0.0036383464 -0.0035329303 -0.003654457 -1.297192
000230 74 9f 6b bb a2 90 64 bb b3 40 db bd 89 1b 6e bb
       -0.0035953196 -0.0034876247 -0.107057 -0.003633233
000240 fb 6a 72 bb 3f 2c 7a 3f 22 fe 69 bb 90 c3 5f bb
       -0.0036990035 0.97723764 -0.0035704453 -0.0034143664
000250 94 87 6c bb 95 c4 5f bb f7 c0 67 bb d6 5d 20 be
       -0.0036091553 -0.0034144272 -0.0035362819 -0.15660796
000260 bc 6f 6e bb ad ec cc 3d 6b f9 67 3d 7e db 71 bb
       -0.0036382517 0.1000608 0.056634348 -0.003690451
000270 69 7a 5d bb 48 02 ed be c9 56 70 bb 63 5c 70 bb
       -0.0033794886 -0.46290803 -0.0036672822 -0.003667616
000280 55 e8 71 bb c6 5e 99 be 35 57 22 3f b4 15 68 bb
       -0.0036912162 -0.2995512 0.6341432 -0.0035413327
000290 53 05 65 bb e3 8b 67 bb f8 2d 6a bb 91 5d 68 bb
       -0.00349458 -0.0035331182 -0.0035732966 -0.003545616
0002a0 e3 d0 56 bb d1 b4 6f bb 37 b7 61 bb ac fc 84 bf
       -0.0032778315 -0.003657628 -0.003444148 -1.0389609
0002b0 08 dd 66 bb 29 fa ad bf c7 94 61 bb a7 a1 96 bf
       -0.003522696 -1.3591968 -0.0034420954 -1.1768082
0002c0 98 41 7f bf 67 2c 6f bb f8 2d 43 bf af 6d 6f bb
       -0.99709463 -0.0036494972 -0.7624202 -0.0036533882
0002d0 3b a5 e1 bd 58 67 67 bb e1 31 02 bf 51 2c bf bd
       -0.11017843 -0.00353094 -0.5085736 -0.093346246
0002e0 f6 bb 6d bb c1 4a 71 bb 58 ee 6f bb 27 69 5f 3d
       -0.0036275364 -0.0036818238 -0.003661057 0.05454364
0002f0 54 bc 6f bb 0a 7b 68 bb 9d dc 6f bb 2f 26 38 be
       -0.0036580758 -0.0035473728 -0.0036600002 -0.17983316
000300 55 c8 21 38 eb 63 09 bf 41 79 10 38 0b 49 1d 3f
       3.8571965e-05 -0.5366809 3.4445202e-05 0.6143958
000310 9e 5d 4a 3e a8 c6 a2 3d 14 32 bc be 1b c8 de 3e
       0.19762275 0.07948047 -0.36756957 0.43512043
000320 73 5e 25 b5 df 5c 40 bf f0 a5 97 be 90 29 5f 36
       -6.160473e-07 -0.7514171 -0.29618788 3.3253782e-06
000330 8e 2f 41 b7 72 a5 c3 be 71 a2 46 3f 6d 1e 0f 38
       -1.1514769e-05 -0.38212162 0.77591616 3.4122193e-05
000340 d2 f0 69 37 6a 3f af 38 01 71 d7 b9 66 45 26 b6
       1.3943953e-05 8.356462e-05 -0.0004109219 -2.4776323e-06
000350 13 48 a4 b7 21 3e 05 bd 36 a6 cc 3c f7 fb a7 38
       -1.9583886e-05 -0.032529954 0.0249816 8.010113e-05
000360 17 9d 1f 38 e4 bd 8b 38 32 f0 a3 35 10 c8 e9 be
       3.8054855e-05 6.6634064e-05 1.2214352e-06 -0.45660448
000370 0a e8 c2 bd df 51 de 3e ff e1 60 36 22 90 ab bd
       -0.09516914 0.43421838 3.3510148e-06 -0.083771005
000380 1a 76 12 38 92 b3 7c 3e 75 2b c9 37 f5 7f 68 37
       3.4919103e-05 0.24677876 2.3981303e-05 1.385807e-05
000390 22 43 0e 3e 99 17 f8 be 68 a7 4c 38 4d 2b 20 b8
       0.13892797 -0.48455504 4.87933e-05 -3.81873e-05
0003a0 32 7a 37 38 52 ce 20 b8 01 ce 10 38 ab b0 4b 3f
       4.3744403e-05 -3.8339123e-05 3.452413e-05 0.7956645
0003b0 27 4e 87 b7 c8 9b 3f b8 3d aa 83 3e d5 fb 96 38
       -1.6129647e-05 -4.568303e-05 0.2571582 7.199465e-05
0003c0 3d b2 b5 38 37 f2 c1 3d 90 78 84 b8 79 c7 64 b7
       8.663952e-05 0.09470027 -6.316707e-05 -1.3636302e-05
0003d0 c6 ec fb 37 74 52 32 b7 28 32 32 37 48 a3 17 bf
       3.0031788e-05 -1.0628824e-05 1.0621305e-05 -0.5923352
0003e0 86 2a 44 38 93 eb c8 be 4c 7f f9 3e 9b 7c a9 38
       4.6769645e-05 -0.3924223 0.48729932 8.0817576e-05
0003f0 1c da 6a b8 cb 97 d4 be 16 55 1c 38 88 0a 42 38
       -5.5993078e-05 -0.4152206 3.727254e-05 4.6263012e-05

lstm.bias_hh_l0 f4 [384]
000000 91 94 db bb f6 bd c4 3e f8 f5 da bb e9 33 00 3f
       -0.00670106 0.3842618 -0.006682154 0.5007921
000010 c1 0c 02 bf f8 bf 43 be c7 66 50 3d 80 4d 12 bf
       -0.5080071 -0.19116199 0.050879266 -0.57149506
000020 33 41 d5 bb f4 70 48 bf e0 5b 67 bf 1e 42 d9 bb
       -0.0065080165 -0.7829735 -0.90374565 -0.0066301962
000030 40 c7 c9 bb 62 0d 76 be 03 6a 26 bf 9e dc de bb
       -0.0061577857 -0.24028543 -0.6500551 -0.006801202
000040 f2 86 d5 bb f7 bb de bb eb ff de bb 25 6a c7 bb
       -0.006516331 -0.0067973095 -0.00680541 -0.0060856515
000050 9a a5 db bb 3f 40 ff bc fb 03 98 be 6a d8 d5 bb
       -0.006703091 -0.031158565 -0.29690537 -0.0065260427
000060 af cf dc bb 10 ad db bb 78 eb d7 bb ed ab 0c bf
       -0.006738625 -0.0067039803 -0.0065893494 -0.5494984
000070 13 1d 99 be b0 bf 5d be 69 d2 d3 bb d6 b6 9d be
       -0.29904994 -0.21655154 -0.006464292 -0.30803555
000080 92 86 d9 bb 96 d3 f7 bd 0a bc de bb e9 7e cd bb
       -0.0066383565 -0.12100904 -0.0067973183 -0.0062712324
000090 41 02 ee be b0 ca d9 be 3a bb d6 bb d4 cd d2 bb
       -0.46486095 -0.4253745 -0.006553081 -0.006433228
0000a0 6f 54 e1 bb 49 d1 da bb e6 63 dd bb 0a 87 51 bf
       -0.0068765203 -0.0066777808 -0.0067562936 -0.8184668
0000b0 10 be da bb 79 e5 c9 bb ff 36 e8 be df ce da bb
       -0.0066754892 -0.0061613885 -0.4535446 -0.006677493
0000c0 d0 a5 de bb 7e e9 83 3e 30 f3 dc bb c3 db ca bb
       -0.0067946687 0.25764078 -0.0067428574 -0.0061907484
0000d0 88 3e d2 bb 69 e7 ca bb 2f ae da bb e9 0e 90 bf
       -0.0064161457 -0.006192137 -0.0066735963 -1.125455
0000e0 17 1d de bb 7a de b5 be 6c 8f ba 3e aa e3 dd bb
       -0.00677837 -0.355213 0.36437547 -0.0067715244
0000f0 0c 53 cc bb a6 b4 04 3f 7e fe d5 bb c7 b2 dd bb
       -0.006235486 0.5183815 -0.006530582 -0.0067656967
000100 5d 58 de bb ce 30 d0 be 71 24 91 bf 03 e5 d4 bb
       -0.006785436 -0.40662235 -1.1339246 -0.006497027
000110 22 25 cb bb 37 f0 cd bb 92 4b dc bb 63 09 da bb
       -0.006199495 -0.0062847394 -0.006722876 -0.006653951
000120 bc d5 c7 bb 9e e2 d7 bb 6a 31 d0 bb 25 0a 7a be
       -0.006098477 -0.006588294 -0.006353547 -0.24417932
000130 ff b3 bb bb 50 74 11 3e 23 da c6 bb 5b d0 81 be
       -0.0057282443 0.14204526 -0.0060684844 -0.25354275
000140 38 27 59 bf 91 4e dc bb b8 92 d4 be 3a 00 dc bb
       -0.8482547 -0.006723233 -0.41518188 -0.006713894
000150 42 8f 39 bf 7d 74 d4 bb 89 f1 cf 3d 32 bc f0 bd
       -0.7248422 -0.006483613 0.10153491 -0.117546454
000160 6a d5 db bb e0 94 d9 bb 87 6c db bb f0 79 1f be
       -0.0067087905 -0.0066400617 -0.006696287 -0.15573859
000170 ee 33 dd bb 5c 47 d5 bb 8b 15 de bb 83 c3 08 be
       -0.0067505753 -0.006508751 -0.0067774705 -0.13355832
000180 d4 e6 6d bb 3f c6 69 3f 9e b2 6b bb eb a5 44 bf
       -0.0036300914 0.91318125 -0.0035964618 -0.7681567
000190 a5 f6 eb be d6 0b be be fd 8e 85 3d c6 41 53 bf
       -0.46086612 -0.37118405 0.065214135 -0.8252224
0001a0 99 03 6a bb 9a fb 3b bf 3b 11 ad be f7 b8 6e bb
       -0.003570771 -0.7343079 -0.33802208 -0.0036426166
0001b0 9a 12 5c bb bd dd 35 bf 65 5f b1 bf 5b 8a 70 bb
       -0.0033580423 -0.7104147 -1.3857237 -0.003670356
0001c0 6e 76 65 bb 10 28 72 bb 72 8a 6b bb 20 b1 5b bb
       -0.0035013217 -0.0036950149 -0.0035940674 -0.0033522323
0001d0 64 0e 70 bb 49 b8 19 3e a9 92 1e bf 3e 47 6b bb
       -0.0036629671 0.15011705 -0.61942536 -0.0035900618
0001e0 72 11 6f bb 4d fd 6b bb 52 13 69 bb 3b f9 7d 3f
       -0.0036478904 -0.0036009133 -0.0035564494 0.9920842
0001f0 a5 64 2e bf c5 60 56 bf b8 17 69 bb 93 f0 50 bf
       -0.6812232 -0.8374141 -0.0035567116 -0.8161709
000200 fc 3c 6d bb 3b 24 d0 bd 21 28 72 bb 04 08 5b bb
       -0.003619968 -0.101631604 -0.0036950188 -0.0033421526
000210 c9 0e 0e bf 44 0c 03 bf 61 73 6c bb 47 46 66 bb
       -0.5549131 -0.5119059 -0.0036079513 -0.0035137103
000220 53 71 6e bb bc 88 67 bb 9d 7f 6f bb 3b 90 a7 bf
       -0.0036383464 -0.0035329303 -0.003654457 -1.3090891
000230 74 9f 6b bb a2 90 64 bb 40 c9 ae bd 89 1b 6e bb
       -0.0035953196 -0.0034876247 -0.08534479 -0.003633233
000240 fb 6a 72 bb e5 dd 7a 3f 22 fe 69 bb 90 c3 5f bb
       -0.0036990035 0.97994834 -0.0035704453 -0.0034143664
000250 94 87 6c bb 95 c4 5f bb f7 c0 67 bb 1e 5e 20 be
       -0.0036091553 -0.0034144272 -0.0035362819 -0.15660903
000260 bc 6f 6e bb 57 f7 14 3d 38 29 66 3d 7e db 71 bb
       -0.0036382517 0.036368694 0.056191653 -0.003690451
000270 69 7a 5d bb 9f 58 ee be c9 56 70 bb 63 5c 70 bb
       -0.0033794886 -0.46551988 -0.0036672822 -0.003667616
000280 55 e8 71 bb b2 13 1b be 6d ff 2a 3f b4 15 68 bb
       -0.0036912162 -0.15144232 0.66796 -0.0035413327
000290 53 05 65 bb e3 8b 67 bb f8 2d 6a bb 91 5d 68 bb
       -0.00349458 -0.0035331182 -0.0035732966 -0.003545616
0002a0 e3 d0 56 bb d1 b4 6f bb 37 b7 61 bb 0a a2 84 bf
       -0.0032778315 -0.003657628 -0.003444148 -1.036195
0002b0 08 dd 66 bb e1 04 b5 bf c7 94 61 bb c8 42 9d bf
       -0.003522696 -1.4142114 -0.0034420954 -1.2286005
0002c0 11 cd 7f bf 67 2c 6f bb ab 1f 40 bf af 6d 6f bb
       -0.9992228 -0.0036494972 -0.7504832 -0.0036533882
0002d0 1a 16 24 bd 58 67 67 bb f4 eb 02 bf 51 2c bf bd
       -0.04006014 -0.00353094 -0.51141286 -0.093346246
0002e0 f6 bb 6d bb c1 4a 71 bb 58 ee 6f bb 68 21 60 3d
       -0.0036275364 -0.0036818238 -0.003661057 0.05471936
0002f0 54 bc 6f bb 0a 7b 68 bb 9d dc 6f bb 2f 26 38 be
       -0.0036580758 -0.0035473728 -0.0036600002 -0.17983316
000300 3d ba 28 38 71 79 0b bf d1 ed 90 b7 d9 47 18 3f
       4.022777e-05 -0.5448218 -1.727688e-05 0.5948463
000310 49 7a 50 3e ff 17 28 3e 1e 4f d1 be d8 a7 ce 3e
       0.20359148 0.16415404 -0.40880674 0.4036243
000320 13 b8 6e b7 58 d9 39 bf dd 7a 67 be aa 5b ff 37
       -1.4228764e-05 -0.72597265 -0.22605462 3.0441053e-05
000330 7e b8 d1 b7 40 a4 ee be 53 bc 2e 3f bd 15 2a 38
       -2.5000652e-05 -0.46609688 0.6825611 4.0551404e-05
000340 1f c9 aa b6 de d5 a8 38 58 3d 9e 39 d1 84 77 37
       -5.0898084e-06 8.0507e-05 0.00030181813 1.4753271e-05
000350 42 14 cf b7 36 97 8a bc eb fc 33 bd c6 a9 2d 37
       -2.4685756e-05 -0.016917806 -0.043942373 1.0351132e-05
000360 3e 82 3d 38 c0 66 89 38 86 d3 9b b7 c2 11 cb be
       4.518241e-05 6.551808e-05 -1.8575938e-05 -0.39661986
000370 c5 59 e6 bd 4d 05 cc 3e 75 cf 5f b7 a3 82 e7 3c
       -0.11247591 0.39847794 -1.3340138e-05 0.028260535
000380 11 cc 42 38 9e e6 b2 3e e0 e9 12 39 d9 6c 0d 38
       4.6443256e-05 0.34941572 0.0001401077 3.3718392e-05
000390 6f bc 2c 3d 3a 9a 02 bf 18 1a f2 37 aa 7f 80 b8
       0.04217189 -0.5101658 2.8860799e-05 -6.127295e-05
0003a0 b7 08 84 38 28 dc 56 b8 f0 69 a2 37 9f 67 50 3f
       6.295874e-05 -5.1226612e-05 1.9361236e-05 0.81408113
0003b0 f0 bf 7f 35 26 c4 8c 37 13 0d b9 3e f8 4d 33 38
       9.527421e-07 1.678064e-05 0.36142787 4.274954e-05
0003c0 77 9d 84 38 7d 83 13 3d 5a 91 3e b8 f8 a2 6a b8
       6.3235806e-05 0.03601407 -4.54349e-05 -5.5941724e-05
0003d0 cc 7b 5e 38 da 80 91 37 68 35 20 36 b3 01 14 bf
       5.304422e-05 1.7345348e-05 2.3872944e-06 -0.5781509
0003e0 e4 05 64 38 b3 99 f8 be 06 2d fe 3e 45 3f aa 38
       5.4364922e-05 -0.48554763 0.49643725 8.1180166e-05
0003f0 7a 77 9f b7 9a 2d c0 be 11 1d 2a 38 ad a5 11 38
       -1.9009913e-05 -0.3753479 4.055823e-05 3.472499e-05

layer_norm.weight f4 [96]
000000 67 c9 b5 39 06 49 1f 3f de 2e a3 3a e9 ef 44 40
       0.00034673067 0.622208 0.0012449881 3.077143
000010 f4 ad a6 3f 69 23 0f 3f e4 6e d7 3f ad f5 eb 3f
       1.3021836 0.55913407 1.6830716 1.8434349
000020 3a f2 21 bc 70 9d ab 3f aa b1 76 3f d5 a5 03 ba
       -0.0098844115 1.3407421 0.96364844 -0.00050219643
000030 f0 0b 03 bc 4c 7d f5 3f a6 b9 db 3f cc f5 ad 3b
       -0.007998452 1.9178863 1.716603 0.0053088423
000040 57 90 64 3c 5a 9f 84 b8 c5 9f 48 3b a0 b6 2e bc
       0.013950429 -6.323932e-05 0.0030612808 -0.010663658
000050 cb 8f 93 39 02 e4 d6 3f af 50 13 ba e0 8a 68 38
       0.0002814516 1.6788332 -0.0005619628 5.5442448e-05
000060 f9 da 36 3b 05 d8 03 3c e8 21 8a b9 d7 41 a7 3f
       0.0027901514 0.008047109 -0.00026346673 1.3066968
000070 81 6a 0e 40 08 89 3f 40 bc 72 ea bb 0d 1b 6a 3f
       2.2252505 2.9927387 -0.0071547907 0.91447526
000080 ec 0b 35 bb 2f ee d8 3f c5 9e 84 b8 f6 b0 65 bc
       -0.0027625514 1.6947688 -6.3238236e-05 -0.014019242
000090 6a 9b 83 3f a8 5f 5d 40 da 1b b9 3a d7 c5 13 3a
       1.0281804 3.4589634 0.001412268 0.00056370854
0000a0 34 a8 7c 3b fe e2 f9 b9 30 2b da 39 85 2c 29 40
       0.0038552405 -0.00047662103 0.00041612377 2.6433423
0000b0 19 89 8e ba d9 b6 9e bb 8a 54 62 3f ff 0a 46 3b
       -0.0010874599 -0.0048435745 0.88410246 0.0030218957
0000c0 bc 50 07 b9 8d 92 82 3e e3 86 47 b9 74 3e 8c 3b
       -0.00012904679 0.25502434 -0.00019028368 0.004279906
0000d0 29 0e 26 3a a7 04 8a bb 68 ce 9c 3a ad 79 32 40
       0.00063345075 -0.0042119804 0.0011963369 2.7886765
0000e0 d8 1e c3 3a ff a4 93 3f 78 b7 3f bc 22 30 09 b9
       0.0014886511 1.1534728 -0.011701457 -0.00013083269
0000f0 98 7e fc 3b 84 8c 6c 3f 23 55 d1 3a 9f ec ea 38
       0.007705521 0.9240191 0.0015970807 0.000112020636
000100 c2 64 8f 39 20 93 8e 3f 65 cb d0 3f 3a cb e4 bb
       0.00027350156 1.1138649 1.6312071 -0.0069822343
000110 2d 33 a2 bb d0 f9 4a bb 50 c2 0b bb 38 b2 71 3b
       -0.0049499483 -0.0030971654 -0.0021325536 0.0036879908
000120 7a fd 05 ba 34 cb 96 bb b2 d9 1e bc 39 ff cf 3f
       -0.00051113183 -0.0046018604 -0.009695457 1.6249763
000130 05 5a 61 3b 18 f8 31 3f d0 c3 64 3b cf 86 8c 3f
       0.0034385931 0.69519186 0.0034906752 1.097864
000140 a6 5c 92 40 76 c4 d0 bb 9c b9 7f 3f 2b d4 88 ba
       4.5738096 -0.006371076 0.9989259 -0.0010439208
000150 d7 f7 a2 3f 92 06 ef 37 0d fd 98 3f cb 16 03 3f
       1.2731885 2.849408e-05 1.1952225 0.51206654
000160 17 5a ad 3a cb 02 f3 3a 71 3f 3b ba 9d eb 76 3f
       0.0013225701 0.0018540261 -0.00071429374 0.9645327
000170 90 47 38 3a 64 44 ba 3a ee ab 3a bb f5 d3 3a 3f
       0.00070297066 0.0014211056 -0.0028483826 0.7297967

layer_norm.bias f4 [96]
000000 5c 93 31 bb 90 68 ac 3f c6 b3 62 3c 9f 4a 4e 3e
       -0.002709589 1.346941 0.013836807 0.20145653
000010 f7 68 f7 be 85 2a ac 3d 24 19 72 bc 64 4a 0a bf
       -0.4832227 0.084065475 -0.014776502 -0.5401976
000020 48 a2 8f bb 64 52 a6 3e 1a e1 a3 bb c2 95 09 bd
       -0.004383359 0.32484734 -0.0050011994 -0.033590086
000030 f8 3c 65 3b 8e 39 ba 3d 69 b4 43 bf c2 a2 a2 bb
       0.0034978967 0.09093009 -0.7644716 -0.00496325
000040 58 54 ee 3b dc 2f 1b b8 39 10 bc 3c a3 4f 8e bc
       0.007273238 -3.6999452e-05 0.022956954 -0.017371958
000050 85 02 6a 3b ca 39 0d be 52 2c 7d bc ba 98 b5 3b
       0.0035707068 -0.13791576 -0.015452461 0.005541888
000060 c7 24 7b 3d 03 0f 05 3d 42 04 0b bb 7a a6 c4 be
       0.06131437 0.03248502 -0.0021212255 -0.38408262
000070 a2 b7 24 be fd d6 10 3d ef 6b dd bc 1c 26 a6 bd
       -0.16085675 0.03536128 -0.027029006 -0.081127375
000080 22 b6 e1 bc c0 bb ed 3e af 2f 1b b8 2f 8e 9f bd
       -0.027552668 0.46432304 -3.699929e-05 -0.07790791
000090 bb 80 22 bb 59 58 5c be 34 8f db 3b 12 9d 24 bc
       -0.0024795968 -0.21518077 0.0067004208 -0.010047214
0000a0 44 d2 d7 3b 60 bd 38 bc ae 44 51 bc b5 cb 02 bf
       0.006586345 -0.011275619 -0.012772722 -0.5109208
0000b0 7d e2 9f bb 12 9e c8 3c ee 73 4b 3c 09 3d 0d 3c
       -0.0048792944 0.024489436 0.0124177765 0.008620509
0000c0 8a 77 51 b9 22 fd 82 bf 37 0c 0d 3b 7a e7 17 bc
       -0.00019976325 -1.02335 0.0021522173 -0.009271497
0000d0 b0 a3 86 3b 5f 76 59 3a 24 b9 d7 3b 19 3a a9 bc
       0.0041088685 0.0008295532 0.00658335 -0.020657586
0000e0 3c 3f 87 3b d4 fb ea 3e 1a 94 3f ba 61 97 3b 3a
       0.004127411 0.45895255 -0.00073081406 0.0007156041
0000f0 a1 80 aa 3c 97 a8 d3 3d 06 10 5b bc 3d 4e d2 b7
       0.020813288 0.1033489 -0.0133705195 -2.5070383e-05
000100 ef b5 f0 37 a8 ac ee 3e 06 81 e8 3e 5b a9 84 bd
       2.8694949e-05 0.466161 0.45410937 -0.064776145
000110 c1 d3 dc ba 0a 88 cb bb ee 95 98 3c 71 06 14 3c
       -0.0016847776 -0.0062112855 0.01862618 0.009034739
000120 77 09 89 bd 04 49 75 bc 77 7d a0 bc 99 8c 7c be
       -0.066912584 -0.014971022 -0.019591076 -0.24663009
000130 5f e8 9e bd b7 24 46 be cb 2f a6 3b 80 9d a2 3e
       -0.07759165 -0.19349943 0.0050716153 0.31760788
000140 8c d4 5e be 30 9e b4 bc 7c 7a 67 3c 75 cf 37 3d
       -0.21760768 -0.022048086 0.014128324 0.04487558
000150 bc b1 19 bf 7e 72 f1 3a de ad f4 be 06 8a c6 bd
       -0.60036826 0.0018420962 -0.477889 -0.09694295
000160 1b d9 45 3c eb 26 34 3c 18 d8 46 3c 79 35 8d 3f
       0.012075688 0.010995607 0.012136482 1.1031944
000170 45 c4 6d 3c c0 6c a9 bb f2 f7 bd bc cf 16 9c bc
       0.014512126 -0.0051704347 -0.023189519 -0.019053845
